model/Harry_Kane_trained_model.pth (torch, 288566 bytes, 31 tensors)

layers.0.weight f4 [128, 5]
0.090614766 0.124303214 0.33955142 -0.14355417 0.33894458 -0.33618155 -0.22006688 -0.2571901
-0.086345896 0.076969594 0.42306745 0.06264194 0.5621853 0.11864983 0.0584952 -0.036909644
-0.33728564 0.43885055 0.46426663 -0.23281735 -0.27051407 -0.1567841 0.43420258 0.30263987
0.026418734 0.11258375 -0.39177972 -0.0211522 0.52961653 -0.3288825 0.3838592 0.16873349
-0.38612705 0.1962138 0.24938251 -0.045178466 -0.41511437 0.271656 -0.1775482 -0.11602571
-0.036347058 -0.03184896 0.30154702 0.39262182 0.40703854 0.08433373 0.3914654 0.04334184
0.38676468 0.119777486 -0.48560983 -0.10646442 -0.4270997 0.039522175 -0.114919536 -0.4452112
-0.39004782 -0.1820986 -0.28884998 -0.016735975 -0.3461163 -0.092880525 -0.52603006 -0.452832
-0.23693988 0.13836291 -0.36131126 -0.03979427 -0.22043614 -0.25066552 -0.42013544 -3.5225728
-0.40085733 -0.6569649 -4.3957963 0.15231104 -0.1431505 0.30550924 0.42906484 -0.23634197
-0.24175857 0.508645 -0.32094148 -0.09722324 -0.14660095 0.31976613 -0.23730522 -0.47945884
-0.4431899 -0.005927579 -0.4248139 0.03435694 0.29474556 -0.39562717 0.5458148 0.03935439
-0.10545697 0.0862942 -0.18164963 -0.48879036 0.3642689 -0.31809556 0.16195929 0.025355726
0.100414835 -0.12894124 -0.21480669 -0.34334067 -0.2185591 -0.23780155 -0.2956457 0.41241634
0.21958435 -0.3315208 -0.11882346 0.35387152 -0.46988294 0.17361861 0.39733747 0.07357619
0.35214305 -0.11802941 0.12057958 -0.33728045 0.11140089 0.44030187 0.42476702 0.093666196
-0.35044473 0.11072673 0.15916926 0.07938148 0.520362 0.13801873 0.10643067 -0.09453883
0.4119595 0.40164047 0.06230864 -0.16777883 -0.48867714 0.5388209 -0.7580226 0.099018626
0.48060733 0.38741255 -0.019641586 0.05155085 -0.0974405 -0.03476455 0.3704089 -0.08408691
0.1189834 0.3865288 -0.108519 0.27184117 -0.38400277 -0.34405532 0.103290536 0.033788994
-0.7567435 0.3236235 -0.94522464 -0.20443237 0.06551863 0.45867902 -0.04905536 -0.034083866
0.3567743 0.5586045 -0.37246096 -0.13391423 -0.5119068 0.29545686 -0.12186686 0.22497334
-0.29386568 -0.33205256 -0.07944839 0.09822264 0.12559329 -0.26085028 0.29619306 0.23441719
-0.112431005 -0.061117105 -0.34333634 -0.29917267 -0.27435833 0.0070481147 -0.10728503 0.28419307
0.5603696 -0.2307629 -0.12323661 0.11071956 -0.023199735 -0.3332145 0.2314491 -0.32693082
0.5899414 0.15495063 0.6936933 -0.32411152 0.09196567 0.35117263 -0.24970633 0.10871296
0.27027628 0.09305847 -0.2728094 -0.10382523 0.35042858 0.42066625 0.3956604 0.30817032
0.33619034 0.39763948 0.18626751 0.02453766 0.103606515 -0.4249677 0.1863609 0.2789516
0.011817248 0.124734 -0.052730203 0.020316307 -0.19116506 -0.46811023 0.19054331 0.4842174
-0.29811442 -0.25043 0.26544636 0.4919368 0.30957642 0.45179644 -0.21765634 0.2026763
0.2043764 -0.22432204 -0.38207456 0.2540744 -0.119489655 -0.26915684 -0.2708397 0.004189205
-0.14009817 0.13518237 0.5040581 -0.041005902 0.7927529 -0.058364984 -0.036310703 0.2607838
00000000: 3c94 b93d af92 fe3d afd9 ad3e ddff 12be
00000010: 258a ad3e fd1f acbe 3659 61be 6cae 83be
00000020: 1ed6 b0bd 3ca2 9d3d 4c9c d83e 6b4a 803d
00000030: 60eb 0f3f affe f23d aa98 6f3d 912e 17bd
00000040: b4b0 acbe 05b1 e03e 5bb4 ed3e ac67 6ebe
00000050: d280 8abe 038c 20be cd4f de3e 9df3 9a3e
00000060: 1a6c d83c 4f92 e63d 5a97 c8be 6147 adbc
00000070: f394 073f 4963 a8be 3189 c43e 79c8 2c3e
00000080: 72b2 c5be 45ec 483e 215e 7f3e 0e0d 39bd
00000090: df89 d4be 7f16 8b3e 32cf 35be e39e edbd
000000a0: a7e0 14bd 0e74 02bd 5f64 9a3e ba05 c93e
000000b0: 5b67 d03e 2ab7 ac3d 276e c83e 3787 313d
000000c0: 0506 c63e e64d f53d daa1 f8be 050a dabd
000000d0: d0ac dabe 01e2 213d ef5a ebbd b9f2 e3be
000000e0: 59b4 c7be 0e78 3abe 25e4 93be e219 89bc
000000f0: 2836 b1be 2538 bebd e8a9 06bf 99d9 e7be
00000100: 5ea0 72be 02af 0d3e cafd b8be 51ff 22bd
00000110: 03ba 61be 3b57 80be fe1b d7be d571 61c0
00000120: 2c3d cdbe da2e 28bf 5daa 8cc0 6df7 1b3e
00000130: 0b96 12be b56b 9c3e 63ae db3e a103 72be
00000140: 8f8f 77be 8f36 023f 7152 a4be fa1c c7bd
00000150: 8f1e 16be 63b8 a33e 2400 73be a17b f5be
00000160: c9e9 e2be 233c c2bb 3581 d9be ddb9 0c3d
00000170: e4e8 963e a58f cabe 85ba 0b3f 1232 213d
00000180: d3f9 d7bd 03bb b03d 5c02 3abe bb42 fabe
00000190: 7481 ba3e 6cdd a2be a8d8 253e d0b6 cf3c
000001a0: 4ba6 cd3d 2c09 04be 49f6 5bbe 59ca afbe
000001b0: f5cd 5fbe 4082 73be e05e 97be 3c28 d33e
000001c0: b8da 603e 18bd a9be b759 f3bd a62e b53e
000001d0: 7f94 f0be 14c9 313e d16f cb3e 1daf 963d
000001e0: 184c b43e 67b9 f1bd 6df2 f63d 06b0 acbe
000001f0: 2626 e43d 3f6f e13e 107b d93e 10d4 bf3d
00000200: 7e6d b3be b2c4 e23d 44fd 223e c292 a23d
00000210: 7236 053f c854 0d3e 53f8 d93d 939d c1bd
00000220: 5bec d23e d2a3 cd3e 5837 7f3d 37ce 2bbe
00000230: e433 fabe 2bf0 093f c50d 42bf 47ca ca3d
00000240: 2a12 f63e f05a c63e 64e7 a0bc fc26 533d
00000250: e38e c7bd 4665 0ebd 3ca6 bd3e c235 acbd
00000260: 92ad f33d 1ae7 c53e 363f debd c42e 8b3e
00000270: 039c c4be 0528 b0be fd89 d33d 5466 0a3d
00000280: f1b9 41bf fbb1 a53e 3efa 71bf b856 51be
00000290: a22e 863d fad7 ea3e 46ee 48bd 869b 0bbd
000002a0: 1fab b63e b400 0f3f 34b3 bebe d020 09be
000002b0: 530c 03bf 1f46 973e 5595 f9bd 695f 663e
000002c0: 9075 96be cb02 aabe d6b5 a2bd f428 c93d
000002d0: 879b 003e 2b8e 85be 9ea6 973e 0f0b 703e
000002e0: 3a42 e6bd ee55 7abd c8c9 afbe 292d 99be
000002f0: b278 8cbe dff3 e63b 41b8 dbbd c181 913e
00000300: 6274 0f3f 1c4d 6cbe 7a63 fcbd f0c0 e23d
00000310: 5f0d bebc 179b aabe fe00 6d3e 7a63 a7be
00000320: 6606 173f 61ab 1e3e e295 313f f2f1 a5be
00000330: 7f58 bc3d e6cc b33e 04b3 7fbe e6a4 de3d
00000340: a761 8a3e 7095 be3d acad 8bbe 52a2 d4bd
00000350: 606b b33e 9161 d73e 0094 ca3e 80c8 9d3e
00000360: 2421 ac3e 6797 cb3e e9bc 3e3e 3403 c93c
00000370: a72f d43d 5e95 d9be 64d5 3e3e bed2 8e3e
00000380: 219d 413c 8a74 ff3d a0fb 57bd 626e a63c
00000390: c6c0 43be 25ac efbe c91d 433e 58eb f73e
000003a0: 74a2 98be 5c38 80be 96e8 873e 24df fb3e
000003b0: cd80 9e3e dd51 e73e 4ee1 5ebe 608a 4f3e
000003c0: 0c48 513e adb4 65be 479f c3be 0a16 823e
000003d0: feb6 f4bd edce 89be 80ab 8abe 9945 893b
000003e0: e575 0fbe 3f6d 0a3e f409 013f cef5 27bd
000003f0: dbf1 4a3f 1f10 6fbd 88ba 14bd 7485 853e

layers.0.bias f4 [128]
0.009119486 0.16421057 -0.110117696 0.35071778 -0.18662834 0.17814068 -0.2950133 -0.37894782
-0.40857503 0.1106268 0.07642548 0.2759839 0.31776255 -0.30568784 0.43789208 -0.0540337
-0.1562895 -0.1520209 -0.1434597 -0.20928493 0.38559836 0.42423278 -0.43035945 0.25478786
-0.3782129 -0.42598075 0.32079586 -0.06601951 -0.15152963 -0.29554805 0.37299007 0.27864823
-0.39803267 0.22798935 0.22570601 0.11900536 -0.16745195 -0.41611397 -0.39759597 -0.044789184
-0.10104549 0.4368343 0.30976185 -0.2957594 0.123994194 0.13597311 -0.44200197 -0.099727355
0.31449583 0.2097849 0.14275871 0.24370423 -0.37140927 -0.28619665 -0.23599038 0.37719342
0.07343534 0.2129793 0.41193318 0.24489215 -0.041877545 -0.42097768 0.09439893 0.24100424
-0.3477394 0.13846527 0.16869572 -0.031916194 -0.34122226 0.32396737 -0.2760677 0.2826831
-0.19170557 -0.10772253 -0.3622684 0.35649726 0.08753573 -0.27596942 0.04073006 0.21642667
-0.021317467 -0.006298601 -0.32704422 -0.011459778 0.1856489 0.44079942 -0.41565496 -0.19999646
-0.2109484 -0.09386738 0.1009849 0.21206908 0.30879053 0.059702847 0.39966422 0.30102476
0.43857083 -0.2616735 -0.044174336 0.2439571 -0.3407182 -0.09736314 -0.18587203 0.18302122
0.3646565 0.3260371 0.32109228 -0.22690292 0.3853496 0.14167736 -0.3606057 0.37641886
0.08668838 -0.037700552 -0.43484595 -0.2372301 0.114154324 0.19637221 0.38183793 -0.3398748
0.34337023 0.23245151 -0.35377988 -0.38916156 0.24261706 0.21778627 -0.25726333 -0.33647636
00000000: e669 153c d126 283e 6385 e1bd 4891 b33e
00000010: 801b 3fbe 836a 363e fc0b 97be 7305 c2be
00000020: bf30 d1be 4e90 e23d f684 9c3d c34d 8d3e
00000030: c6b1 a23e 1e83 9cbe 6433 e03e 7152 5dbd
00000040: 5b0a 20be 5eab 1bbe 19e7 12be ca4e 56be
00000050: 266d c53e 0a35 d93e 1358 dcbe 8e73 823e
00000060: 1fa5 c1be 261a dabe 5b3f a43e 3d35 87bd
00000070: 952a 1bbe 1352 97be 8ef8 be3e fbaa 8e3e
00000080: f0ca cbbe 0a76 693e 7a1f 673e 15b9 f33d
00000090: 8678 2bbe e40c d5be b391 cbbe dd74 37bd
000000a0: f0f0 cebd bfa8 df3e 1b99 9e3e c76d 97be
000000b0: abf0 fd3d 893c 0b3e 154e e2be db3d ccbd
000000c0: 9905 a13e dad1 563e 572f 123e 9a8d 793e
000000d0: 5b29 bebe 5e88 92be 76a7 71be 7f1f c13e
000000e0: 4465 963d 3f17 5a3e e8e8 d23e 02c5 7a3e
000000f0: ca87 2bbd 638a d7be 3a54 c13d d1c9 763e
00000100: e60a b2be d7c9 0d3e 92be 2c3e 8eba 02bd
00000110: afb4 aebe 0ddf a53e bf58 8dbe d7bb 903e
00000120: 774e 44be a19d dcbd 3e7b b9be cf86 b63e
00000130: ef45 b33d dd4b 8dbe 90d4 263d f49e 5d3e
00000140: f8a1 aebc 7f64 cebb 5772 a7be cbc1 3bbc
00000150: bf1a 3e3e 76b0 e13e bad0 d4be dfcb 4cbe
00000160: db02 58be 8a3d c0bd 2cd1 ce3d a328 593e
00000170: cb19 9e3e f98a 743d caa0 cc3e eb1f 9a3e
00000180: 5b8c e03e 12fa 85be 26f0 34bd e4cf 793e
00000190: 9e72 aebe 5366 c7bd 3d55 3ebe ea69 3b3e
000001a0: 42b4 ba3e 56ee a63e 3566 a43e 3d59 68be
000001b0: 8b4c c53e df13 113e 4fa1 b8be f9b9 c03e
000001c0: ad89 b13d e56b 1abd 21a4 debe 73ec 72be
000001d0: bec9 e93d cc15 493e 4380 c33e 1204 aebe
000001e0: 39ce af3e c507 6e3e a322 b5be 2f40 c7be
000001f0: 9b70 783e 5d03 5f3e 05b8 83be a146 acbe

layers.2.weight f4 [128]
0.91549337 0.9943775 1.0540537 1.0679749 1.0358269 1.0450757 0.9420623 1.0
0.9074079 0.9868344 1.0692809 1.0164762 1.0790219 1.0109152 1.0193213 1.0
0.9312059 1.0258197 0.84778166 0.99937093 1.0113025 0.9992549 0.884906 1.0070131
1.0081501 0.97041476 0.9883673 0.9329161 1.1699861 1.0 0.9806113 1.0268971
1.2751336 0.8317616 1.0175997 1.0041178 1.0132728 1.0 0.9710007 1.0
1.04973 0.9769322 0.86244917 0.99357253 1.0080563 1.016678 0.97569305 1.023019
0.9996493 1.014233 1.0711038 0.91939473 1.0719618 1.0310612 1.0 0.99179006
1.0070757 1.0344685 1.0016814 0.96751976 1.0 1.0058455 0.99513745 0.98576593
1.0020503 0.96568686 0.993673 0.97663623 0.9691591 0.99221903 0.7590782 1.054645
0.9960007 1.2103606 0.9323615 0.992068 0.96347237 1.0 1.0137018 1.0559672
1.0922967 1.0 0.8900313 0.8806322 0.99780196 1.2223198 1.0851098 1.0
1.0 0.9961632 1.0191505 1.1825881 0.80759376 1.0259167 0.9624347 1.1503315
1.022077 1.0827388 0.9723904 0.9691001 1.0 1.1121184 0.9803448 0.98895574
0.97338545 0.9999258 1.0378541 1.0 0.8645581 0.94936633 0.9598508 1.0045108
0.9623525 0.9470946 0.96594197 0.9540391 0.98510695 0.99470437 0.9598566 0.9071379
1.1723787 1.0107504 1.0082543 0.8733004 1.0069668 0.9252385 1.0698886 1.0040574
00000000: c65d 6a3f 868f 7e3f 3beb 863f 67b3 883f
00000010: fa95 843f 0ac5 853f ff2a 713f 0000 803f
00000020: e24b 683f 2ea1 7c3f 32de 883f e41b 823f
00000030: 641d 8a3f ab65 813f 1f79 823f 0000 803f
00000040: 8363 6e3f 0f4e 833f 3808 593f c6d6 7f3f
00000050: 5c72 813f 2bcf 7f3f 3389 623f cee5 803f
00000060: 100b 813f 1a6d 783f a405 7d3f 97d3 6e3f
00000070: 1bc2 953f 0000 803f 5809 7b3f 5d71 833f
00000080: 9437 a33f 54ee 543f b540 823f ef86 803f
00000090: ecb2 813f 0000 803f 8093 783f 0000 803f
000000a0: 8d5d 863f 3b18 7a3f 78c9 5c3f c55a 7e3f
000000b0: fd07 813f 8122 823f 05c7 793f 49f2 823f
000000c0: 04e9 7f3f 63d2 813f ee19 893f 745d 6b3f
000000d0: 0b36 893f d0f9 833f 0000 803f f4e5 7d3f
000000e0: dbe7 803f 7769 843f 1937 803f 60af 773f
000000f0: 0000 803f 8cbf 803f 54c1 7e3f 285b 7c3f
00000100: 2f43 803f 4137 773f 5b61 7e3f d504 7a3f
00000110: d01a 783f 1102 7e3f f352 423f 9bfe 863f
00000120: e7f9 7e3f 19ed 9a3f 3eaf 6e3f 2bf8 7d3f
00000130: 20a6 763f 0000 803f fbc0 813f ef29 873f
00000140: 61d0 8b3f 0000 803f 17d9 633f 1d71 613f
00000150: f36f 7f3f fa74 9c3f e1e4 8a3f 0000 803f
00000160: 0000 803f 8d04 7f3f 8673 823f 0c5f 973f
00000170: 77be 4e3f 3d51 833f 1f62 763f 103e 933f
00000180: 6bd3 823f 2f97 8a3f 94ee 783f f216 783f
00000190: 0000 803f e559 8e3f e0f7 7a3f 342c 7d3f
000001a0: ca2f 793f 23fb 7f3f 67d8 843f 0000 803f
000001b0: ae53 5d3f ac09 733f c8b8 753f cf93 803f
000001c0: bc5c 763f cb74 723f f947 773f e83b 743f
000001d0: f82f 7c3f f2a4 7e3f 2ab9 753f 303a 683f
000001e0: 8110 963f 4560 813f 7a0e 813f 9d90 5f3f
000001f0: 4ae4 803f 6edc 6c3f 1cf2 883f f484 803f

layers.2.bias f4 [128]
0.029292718 -0.012348346 -0.011486985 -0.0051690466 -0.002651268 0.026352352 0.03971233 0.030505875
-0.0050724433 0.035844732 -0.004157614 -0.0017868272 0.03707829 0.008090553 0.04325634 -0.01605633
-0.0748007 0.037585966 0.034046285 0.0025284826 -0.030969853 0.01838106 -0.024247946 -0.02962357
-0.013000916 0.012680395 0.018934319 -0.03492004 0.0056111654 0.0076534175 0.0018539315 -0.015071343
-0.042858813 0.041570894 0.028708333 -0.023075107 -0.0052649127 -0.026309738 -0.028153533 0.0061260685
0.0060736896 0.03869459 0.03551889 -0.0030655572 -0.023545781 -0.03243632 -0.009890527 0.023159435
-0.019899111 0.0045968723 0.003647669 0.023245772 0.009817717 0.020494793 0.019053947 -0.0018229733
-0.0034434597 0.06215474 -0.018024957 -0.00023719372 -0.0056172595 -0.0010998085 0.011146976 0.0046936357
-0.02794816 0.016423987 -0.0073270467 -0.026537206 0.015674457 0.0040487912 0.051750608 -0.035817496
-0.0130608445 -0.026311921 0.0019396041 -0.020969503 0.014490229 0.021798957 -0.014857348 0.0049549136
-0.04372817 -0.018247709 -0.018155636 0.058760606 0.017222254 -0.03626188 0.0038976264 0.025817716
-0.022888765 -0.029962124 -0.016145488 -0.016498864 0.03646752 0.031611174 -0.0049820202 -0.022063743
-0.009804274 0.039130565 -0.02347345 0.00097489223 -0.024118824 0.005135238 0.010444694 -0.0029142816
0.0053180065 -0.026492786 0.0125925355 0.030402526 0.012636713 0.025497584 -0.0028681087 0.0041209897
-0.017909618 0.038916335 0.0085657 0.014232522 0.012093264 -0.021610705 0.029911788 -0.0031747385
-0.005961204 0.018593509 -0.0024830427 -0.0047008162 0.021167824 -0.0009888413 -0.00779019 -0.019671751
00000000: 48f7 ef3c b850 4abc e833 3cbc 1b61 a9bb
00000010: e5c0 2dbb e3e0 d73c 65a9 223d 75e7 f93c
00000020: bd36 a6bb edd1 123d 983c 88bb f933 eaba
00000030: 68df 173d 3d8e 043c 8f2d 313d 9188 83bc
00000040: 1c31 99bd bef3 193d 1e74 0b3d e6b4 253b
00000050: 7db4 fdbc e093 963c a1a3 c6bc 21ad f2bc
00000060: cb01 55bc 6ec1 4f3c 251c 9b3c 5108 0fbd
00000070: dedd b73b 85c9 fa3b 9eff f23a cbed 76bc
00000080: b98c 2fbd 3e46 2a3d bd2d eb3c 0208 bdbc
00000090: 4a85 acbb 8587 d7bc 3da2 e6bc 30bd c83b
000000a0: cd05 c73b 387e 1e3d 417c 113d 84e7 48bb
000000b0: 15e3 c0bc f2db 04bd e10b 22bc dbb8 bd3c
000000c0: 7603 a3bc 5ca1 963b bb0d 6f3b eb6d be3c
000000d0: 7dda 203c b2e4 a73c 0617 9c3c d5f0 eeba
000000e0: abab 61bb f895 7e3d 13a9 93bc 34b7 78b9
000000f0: fd10 b8bb 7327 90ba cea1 363c 12cd 993b
00000100: 8af3 e4bc 998b 863c b917 f0bb 8e64 d9bc
00000110: b867 803c b9ab 843b 72f8 533d 5eb5 12bd
00000120: 27fd 55bc 198c d7bc 503a fe3a 3cc8 abbc
00000130: 6d68 6d3c ba93 b23c 3c6c 73bc d45c a23b
00000140: 4f1c 33bd 387c 95bc 21bb 94bc f6ae 703d
00000150: af15 8d3c 5687 14bd 526f 7f3b ad7f d33c
00000160: 3881 bbbc 2173 f5bc 8b43 84bc a028 87bc
00000170: f75e 153d b87a 013d 3740 a3bb 06bf b4bc
00000180: 1ba2 20bc 5f47 203d 654b c0bc e98f 7f3a
00000190: d794 c5bc 8045 a83b 3920 2b3c 88fd 3ebb
000001a0: ac42 ae3b 6607 d9bc ec50 4e3c b80e f93c
000001b0: 370a 4f3c 4fe0 d03c e1f6 3bbb 5e09 873b
000001c0: 31b7 92bc bc66 1f3d 2657 0c3c 862f 693c
000001d0: d322 463c ef08 b1bc 9109 f53c 460f 50bb
000001e0: 3456 c3bb 6a51 983c 8bba 22bb 4e09 9abb
000001f0: 2568 ad3c 029c 81ba da44 ffbb a726 a1bc

layers.2.running_mean f4 [128]
22.574806 0.020816324 9.445536 0.044459436 6e-45 0.022583187 24.526312 0.0
18.202993 38.253574 0.009680548 0.034985453 0.0402816 6e-45 0.05551018 0.0
30.095772 6e-45 22.265385 6e-45 0.048881106 0.053778704 22.817385 0.032298706
6e-45 33.90305 12.376759 25.285795 61.52124 0.0 0.047282785 0.03532324
23.126945 23.3231 0.028611638 0.015082878 6e-45 0.0 15.279639 0.0
13.447528 0.055376172 13.24936 28.735613 0.015717467 0.017235994 45.340042 30.478907
0.03986754 0.026593223 0.018096896 16.909126 6e-45 6e-45 0.0 0.047815673
0.009307798 0.026997631 14.877362 26.461239 0.0 6e-45 0.011971152 0.030551089
18.284267 33.20089 0.021384774 32.374786 33.033104 0.04106837 19.249937 19.481575
6e-45 128.97327 6e-45 0.04519204 0.011099347 0.0 26.468365 19.73668
26.188143 0.0 20.905584 21.79813 0.023533767 20.7509 6e-45 0.0
0.0 16.595829 0.012798291 0.026881887 15.553203 26.263468 11.25983 82.99067
0.055596255 7.479758e-39 24.635105 0.030925356 0.0 22.369957 39.676094 24.178423
0.04622645 0.041330535 0.040703535 0.0 12.289871 0.017959494 34.47125 0.047717486
10.589945 13.070817 19.004143 6e-45 0.014470713 0.024893422 17.226255 36.857136
85.44416 0.029466612 10.009388 13.335876 26.939835 67.165596 6e-45 6e-45
00000000: 3499 b441 ff86 aa3c ea20 1741 191b 363d
00000010: 0400 0000 6000 b93c e335 c441 0000 0000
00000020: bb9f 9141 a903 1942 299b 1e3c e84c 0f3d
00000030: 52fe 243d 0400 0000 a45e 633d 0000 0000
00000040: 24c4 f041 0400 0000 821f b241 0400 0000
00000050: 8e37 483d 0f47 5c3d 018a b641 a64b 043d
00000060: 0400 0000 b99c 0742 3407 4641 4f49 ca41
00000070: c015 7642 0000 0000 98ab 413d 1aaf 103d
00000080: fc03 b941 b595 ba41 f462 ea3c 2d1e 773c
00000090: 0400 0000 0000 0000 6779 7441 0000 0000
000000a0: 1329 5741 20d2 623d 61fd 5341 89e2 e541
000000b0: ebc1 803c 8032 8d3c 345c 3542 cdd4 f341
000000c0: 254c 233d 08da d93c f13f 943c e445 8741
000000d0: 0400 0000 0400 0000 0000 0000 5eda 433d
000000e0: bc7f 183c 232a dd3c ad09 6e41 9eb0 d341
000000f0: 0000 0000 0400 0000 a722 443c 4746 fa3c
00000100: 2e46 9241 b6cd 0442 1f2f af3c c87f 0142
00000110: e621 0442 4f37 283d dfff 9941 44da 9b41
00000120: 0400 0000 28f9 0043 0400 0000 4a1b 393d
00000130: 09da 353c 0000 0000 36bf d341 b8e4 9d41
00000140: 5181 d141 0000 0000 a33e a741 9262 ae41
00000150: e3c9 c03c d801 a641 0400 0000 0000 0000
00000160: 0000 0000 42c4 8441 ecaf 513c 6737 dc3c
00000170: ebd9 7841 951b d241 4428 3441 39fb a542
00000180: e6b8 633d 8672 5100 b214 c541 2c57 fd3c
00000190: 0000 0000 acf5 b241 52b4 1e42 696d c141
000001a0: f257 3d3d 354a 293d c0b8 263d 0000 0000
000001b0: 50a3 4441 ca1f 933c 8fe2 0942 6973 433d
000001c0: 6a70 2941 1122 5141 7c08 9841 0400 0000
000001d0: 9216 6d3c 4aed cb3c 5fcf 8941 b56d 1342
000001e0: 69e3 aa42 f763 f13c 7426 2041 c05f 5541
000001f0: c884 d741 c954 8642 0400 0000 0400 0000

layers.2.running_var f4 [128]
177.3341 0.003010164 27.484043 0.013731253 6e-45 0.0035428463 169.60326 6e-45
244.33867 278.70303 0.00065100734 0.008502706 0.011271859 6e-45 0.021405602 6e-45
181.21829 6e-45 294.15463 6e-45 0.016598321 0.020091059 113.854294 0.0072469017
6e-45 202.08308 44.768215 126.563866 854.3065 6e-45 0.015530603 0.008667688
95.10245 408.07947 0.005686796 0.001580339 6e-45 6e-45 56.50367 6e-45
36.43025 0.021302374 191.25684 146.41382 0.0017161173 0.0020637398 397.81595 189.23785
0.011041323 0.0049127433 0.002275043 121.3169 6e-45 6e-45 6e-45 0.015882641
0.00060183625 0.005063299 42.32327 120.79864 6e-45 6e-45 0.000995525 0.0064838887
59.121346 208.23659 0.0031768125 181.39241 199.32634 0.011716478 339.23798 65.89032
6e-45 2911.5767 6e-45 0.014187505 0.0008558087 6e-45 186.18466 73.40415
142.00006 6e-45 175.19899 227.50606 0.0038473813 72.60038 6e-45 6e-45
6e-45 53.027325 0.0011378538 0.005019978 252.92632 125.60749 22.810785 1427.4764
0.021472033 1.8402745e-38 106.442 0.006643724 6e-45 103.52043 292.5966 98.29383
0.014844419 0.011866542 0.011509235 6e-45 70.53177 0.00224063 204.89172 0.015817478
43.662777 31.06506 92.98039 6e-45 0.0014546613 0.0043047825 95.39778 377.12674
1324.3291 0.0060317386 19.77534 101.82715 132.54086 1764.2322 6e-45 6e-45
00000000: 8855 3143 2c46 453b 52df db41 0df9 603c
00000010: 0400 0000 192f 683b 6f9a 2943 0400 0000
00000020: b356 7443 fd59 8b43 5da8 2a3a ef4e 0b3c
00000030: 9aad 383c 0400 0000 cd5a af3c 0400 0000
00000040: e237 3543 0400 0000 cb13 9343 0400 0000
00000050: 34f9 873c 0196 a43c 66b5 e342 6b77 ed3b
00000060: 0400 0000 4515 4a43 a712 3342 b320 fd42
00000070: 9e93 5544 0400 0000 1274 7e3c eb02 0e3c
00000080: 7434 be42 2c0a cc43 4d58 ba3b 6123 cf3a
00000090: 0400 0000 0400 0000 c203 6242 0400 0000
000000a0: 93b8 1142 5182 ae3c c041 3f43 f069 1243
000000b0: 57ef e03a cf3f 073b 71e8 c643 e43c 3d43
000000c0: aae6 343c 14fb a03b e318 153b 41a2 f242
000000d0: 0400 0000 0400 0000 0400 0000 501c 823c
000000e0: 8cc4 1d3a 08ea a53b 074b 2942 e798 f142
000000f0: 0400 0000 0400 0000 477c 823a cd76 d43b
00000100: 427c 6c42 913c 5043 1232 503b 7564 3543
00000110: 8b53 4743 78f6 3f3c 769e a943 d8c7 8342
00000120: 0400 0000 3af9 3545 0400 0000 b572 683c
00000130: 5a58 603a 0400 0000 462f 3a43 edce 9242
00000140: 0400 0e43 0400 0000 f132 2f43 8d81 6343
00000150: 5924 7c3b 6533 9142 0400 0000 0400 0000
00000160: 0400 0000 fb1b 5442 0a24 953a a17e a43b
00000170: 23ed 7c43 0937 fb42 7d7c b641 3f6f b244
00000180: 1ee6 af3c 5e63 c800 4ee2 d442 99b3 d93b
00000190: 0400 0000 760a cf42 5d4c 9243 7196 c442
000001a0: 0236 733c e26b 423c 3b91 3c3c 0400 0000
000001b0: 4410 8d42 89d7 123b 48e4 4c43 a893 813c
000001c0: afa6 2e42 3e85 f841 f6f5 b942 0400 0000
000001d0: 55aa be3a 220f 8d3b aacb be42 3990 bc43
000001e0: 888a a544 e4a5 c53b e533 9e41 80a7 cb42
000001f0: 768a 0443 6e87 dc44 0400 0000 0400 0000

layers.3.weight f4 [128, 128]
-0.030548261 0.042129952 0.11771819 -0.007903702 0.10035129 0.02386463 0.078991234 0.041118592
0.011014457 0.07160865 -0.0001956859 -0.04759181 -0.08926833 -0.070834234 -0.017779341 0.05819555
-0.06659936 -0.12559502 -0.05585416 0.043148383 -0.080852516 0.070291616 -0.026563702 -0.04751363
0.042676255 -0.07062154 0.015081675 0.060092762 -0.04916892 -0.07379454 -0.0456934 -0.096583284
-0.1824276 0.0064118523 -0.077875696 0.034630165 0.011593461 -0.019229565 -0.06129298 -0.059558086
0.11203518 -0.023121642 0.009826093 0.0036328516 -0.07764075 -0.070921645 -0.09347061 0.09634793
-0.079331145 -0.04556893 0.077637635 0.0363185 -0.056378953 0.052307386 -0.042724144 -0.048870474
-0.04961915 -0.022621837 -0.026384342 0.078334406 -0.0632861 0.06944392 -0.020822573 -0.09213676
-0.01940067 0.08295193 0.070078634 0.022151874 0.0011352743 -0.081286624 -0.016537294 0.04205083
0.056187022 0.11601696 -0.07642502 0.037580296 0.027010627 0.033588395 0.15282291 -0.113513656
0.15117127 -0.003939558 0.053871978 0.015434991 -0.07113736 -0.14062488 -0.1324252 0.01602634
-0.025930544 -0.037173282 -0.07670508 -0.08312244 -0.062456816 0.0639498 0.023923732 0.056576476
0.04292538 -0.060647868 -0.03754394 0.038652398 0.046728425 0.14193052 0.04408294 -0.03296108
-0.08045533 -0.09161838 -0.09797819 -0.075854234 -0.01486367 -0.07099012 0.074612856 -0.0795245
0.100101225 0.06914949 0.107642375 0.08057277 0.039373662 -0.034563318 -0.094197094 0.039061572
-0.0034228778 -0.0371133 0.044581737 0.044253007 -0.022787476 0.06291423 0.03882747 0.007968696
0.08341809 -0.06851374 0.1363413 0.02936316 0.12190651 0.045558825 0.055214413 0.048899192
0.057593256 0.038923938 -0.026114412 0.010425278 -0.06041652 0.006334721 0.0067175794 -0.0035130607
-0.04555994 -0.12141837 0.023822991 -0.012864027 0.06620893 0.012647018 0.06710003 -0.02318344
0.0073019066 0.07970864 0.16108082 0.05951334 -0.030806376 -0.035899147 -0.049130287 0.03430705
-0.16536881 0.119360715 -0.0054981564 -0.08831219 0.0013073536 -0.034797 0.025119308 0.08291856
-0.019837115 -0.07304817 0.09447862 0.025897682 -0.04709279 0.099145405 -0.028506901 0.0814066
0.01878226 -0.0572544 -0.05064812 0.043219607 -0.07405258 0.10612634 0.038219314 0.044914138
-0.06793686 -0.13855235 -0.008918569 0.07355487 0.054211196 0.055645015 -0.04520724 -0.03813609
0.10356623 -0.005140108 -0.025831267 0.061444037 0.023761064 -0.00013141832 -0.09208039 0.011450111
-0.06327652 0.0011859046 -0.088721275 0.049966313 0.04583917 -0.052369364 0.043088406 -0.027965555
0.06056404 -0.04401695 0.10131995 0.01717973 -0.09708935 -0.09364496 -0.01910691 0.050825775
0.018592048 0.08561857 -0.028591713 -0.15084313 -0.029492026 -0.095937766 -0.042641345 0.025158465
-0.04645243 -0.14136277 0.06567934 -0.07979258 -0.026669618 0.114925034 -0.025911195 0.053468294
-0.07904556 -0.014774001 0.008755174 0.040785894 0.036383923 -0.0709955 0.01666394 -0.055003718
0.0014116043 -0.019656057 0.13207214 0.04083517 -0.03617736 -0.06329713 -0.053429294 -0.011592005
-0.05792299 0.047975767 0.094252385 -0.07401629 -0.03707611 0.12642512 0.020822464 -0.060947932
00000000: 5940 fabc 7590 2c3d 3c16 f13d 877e 01bc
00000010: fa84 cd3d c27f c33c 28c6 a13d f86b 283d
00000020: fb75 343c 8ea7 923d 0931 4db9 a1ef 42bd
00000030: 50d2 b6bd 8a11 91bd fba5 91bc 755e 6e3d
00000040: 3f65 88bd fb9b 00be 55c7 64bd 5cbc 303d
00000050: 0196 a5bd 0df5 8f3d 1f9c d9bc a79d 42bd
00000060: 4ccd 2e3d 07a2 90bd 2119 773c d423 763d
00000070: 5965 49bd 9721 97bd 0129 3bbd 75cd c5bd
00000080: 4dce 3abe 841a d23b 4b7d 9fbd 5cd8 0d3d
00000090: 80f2 3d3c 5287 9dbc 590e 7bbd 2ef3 73bd
000000a0: b372 e53d 9969 bdbc 9ffd 203c 2315 6e3b
000000b0: 1d02 9fbd 5e3f 91bd 856d bfbd 1052 c53d
000000c0: 5e78 a2bd 7da6 3abd 7b00 9f3d b5c2 143d
000000d0: 9eed 66bd 4540 563d 83ff 2ebd 682c 48bd
000000e0: 733d 4bbd 6e51 b9bc fa23 d8bc ca6d a03d
000000f0: 259c 81bd 9d38 8e3d 1a94 aabc 33b2 bcbd
00000100: 27ee 9ebc b4e2 a93d 6385 8f3d d977 b53c
00000110: 7ccd 943a 9a79 a6bd 3879 87bc 7e3d 2c3d
00000120: 5d24 663d 4d9a ed3d b984 9cbd cced 193d
00000130: 6445 dd3c fc93 093d 9c7d 1c3e d979 e8bd
00000140: a4cc 1a3e 6817 81bb dda8 5c3d 0be3 7c3c
00000150: 77b0 91bd f8ff 0fbe 799a 07be ac49 833c
00000160: 4b6c d4bc 0343 18bd 8e17 9dbd 193c aabd
00000170: b8d2 7fbd 1df8 823d b4fb c33c bcbc 673d
00000180: 86d2 2f3d e669 78bd adc7 19bd fa51 1e3d
00000190: 4e66 3f3d 3c56 113e 5090 343d 3302 07bd
000001a0: c4c5 a4bd 6ba2 bbbd caa8 c8bd 7759 9bbd
000001b0: c086 73bc 4563 91bd a0ce 983d bedd a2bd
000001c0: df01 cd3d 3f9e 8d3d 9b73 dc3d 5603 a53d
000001d0: 4746 213d 4492 0dbd 68ea c0bd 07ff 1f3d
000001e0: 5c52 60bb 1e04 18bd 579b 363d a442 353d
000001f0: cdac babc 2dd9 803d 8e09 1f3d 228f 023c
00000200: 1bd7 aa3d ef50 8cbd 0e9d 0b3e 028b f03c
00000210: 1faa f93d e49b 3a3d 8228 623d 854a 483d
00000220: e8e6 6b3d b56e 1f3d e4ed d5bc c9ce 2a3c
00000230: 5077 77bd 7e93 cf3b 241f dc3b 613b 66bb
00000240: 0f9d 3abd 32aa f8bd 6f28 c33c a4c3 52bc
00000250: 8c98 873d 7035 4f3c be6b 893d 33eb bdbc
00000260: d544 ef3b 493e a33d 5ff2 243e 43c4 733d
00000270: a75d fcbc fc0a 13bd d73c 49bd 8d85 0c3d
00000280: 7156 29be 6473 f43d e129 b4bb 05dd b4bd
00000290: 825b ab3a 4d87 0ebd 02c7 cd3c 35d1 a93d
000002a0: 7281 a2bc 479a 95bd 027e c13d 6027 d43c
000002b0: 5fe4 40bd bf0c cb3d 4e87 e9bc 81b8 a63d
000002c0: 41dd 993c 9783 6abd 6774 4fbd 0b07 313d
000002d0: e1a8 97bd c458 d93d db8b 1c3d e3f7 373d
000002e0: 7b22 8bbd abe0 0dbe 311f 12bc f0a3 963d
000002f0: 8f0c 5e3d 07ec 633d 3a2b 39bd 9734 1cbd
00000300: 881a d43d 5a6e a8bb 189c d3bc beac 7b3d
00000310: 90a6 c23c 56cd 09b9 a594 bcbd 3f99 3b3c
00000320: 1f97 81bd 5b70 9b3a 80b3 b5bd 7aa9 4c3d
00000330: dbc1 3b3d 4281 56bd 787d 303d 0518 e5bc
00000340: 0012 783d 1e4b 34bd d580 cf3d 81bc 8c3c
00000350: c8d6 c6bd eec8 bfbd 1886 9cbc b02e 503d
00000360: 5a4e 983c ca58 af3d 2b39 eabc 9f76 1abe
00000370: 4399 f1bc 057b c4bd b1a8 2ebd 2019 ce3c
00000380: e744 3ebd 67c1 10be e482 863d 4b6a a3bd
00000390: 3e7a dabc d15d eb3d b743 d4bc 9201 5b3d
000003a0: a3e2 a1bd a70e 72bc dd71 0f3c 1c0f 273d
000003b0: 4f07 153d 1766 91bd d182 883c 944b 61bd
000003c0: 9505 b93a bd05 a1bc eb3d 073e c742 273d
000003d0: b62e 14bd eda1 81bd add8 5abd 65ec 3dbc
000003e0: a840 6dbd 3d82 443d 6507 c13d da95 97bd
000003f0: 1edd 17bd 9675 013e df93 aa3c 8aa4 79bd

layers.3.bias f4 [128]
-0.0068864203 -0.0066904924 -0.067508936 -0.050051946 -0.10841856 -0.04995996 0.056283563 0.08367836
0.064585924 0.048297085 0.0427577 0.00906694 -0.08186543 0.09668996 0.049379703 0.07986656
-0.073763855 0.035784394 0.021217518 -0.068074666 0.053598303 -0.06812368 -0.022840396 0.10096143
-0.024222923 -0.07846957 0.063540205 -0.008916879 -0.080756456 0.0011435393 -0.051442977 -0.07938148
0.010830257 0.0015428431 -0.073975585 0.08813646 0.049055945 -0.09452959 0.03380457 0.006310636
0.039961297 -0.06512684 0.082430325 0.07664429 0.105372354 -0.06884582 0.06986015 0.12395351
0.055591296 -0.038576856 0.011824385 -0.016352376 -0.06082944 0.07500101 0.00086122856 -0.019595996
0.0014050234 -0.047117997 0.06040555 -0.0011617211 -0.0046550035 0.047042735 0.034058366 0.037791476
0.04351462 0.03261316 0.0065596947 -0.09140238 0.09010012 -0.065961294 0.013267297 -0.047064483
0.07960234 -0.021340871 -0.09323924 0.13926238 0.019373488 0.08654163 -0.11063377 0.014768496
0.0051464313 -0.07004187 -0.08576521 -0.051090393 0.0736759 0.0063468073 -0.05827173 -0.046131123
0.11912102 -0.052760947 0.055250686 -0.04320781 -0.079943806 0.019805493 -0.011781806 -0.016933223
0.07712264 0.112718105 -0.04982367 -0.016470214 0.00069438375 0.0075975144 -0.071786605 0.07280442
-0.04157176 0.03611787 -0.0092121335 0.10290489 0.009615173 0.038189318 0.111874595 -0.061018426
-0.09098547 -0.047661934 -0.03145883 -0.016073085 0.063851364 0.01052608 -0.017150152 0.09872031
0.12663941 -0.074202955 0.056816615 0.030079931 0.07323385 -0.0384713 0.03358226 -0.08878058
00000000: 7ba7 e1bb eb3b dbbb 2042 8abd 4503 4dbd
00000010: 8d0a debd d1a2 4cbd 9889 663d 8f5f ab3d
00000020: a045 843d 2ad3 453d b322 2f3d 818d 143c
00000030: 10a9 a7bd 6305 c63d 5f42 4a3d 1491 a33d
00000040: 8111 97bd a892 123d 5cd0 ad3c bb6a 8bbd
00000050: e589 5b3d 6e84 8bbd c81b bbbc dec4 ce3d
00000060: 276f c6bc a7b4 a0bd 5e21 823d 1a18 12bc
00000070: a463 a5bd d0e2 953a dfb5 52bd c292 a2bd
00000080: 6471 313c 3939 ca3a 8380 97bd e380 b43d
00000090: e3ee 483d bb98 c1bd a976 0a3d 74c9 ce3b
000000a0: 75ae 233d 3861 85bd 3bd1 a83d aef7 9c3d
000000b0: 76cd d73d 0aff 8cbd d712 8f3d 56db fd3d
000000c0: b3b3 633d c402 1ebd 11bb 413c 6bf5 85bc
000000d0: 4a28 79bd 219a 993d 12c4 613a c887 a0bc
000000e0: c328 b83a cdfe 40bd cf6b 773d e444 98ba
000000f0: 0089 98bb e2af 403d c980 0b3d 3ccb 1a3d
00000100: 633c 323d 6095 053d b5f2 d63b 2c31 bbbd
00000110: 6986 b83d b716 87bd 145f 593c b0c6 40bd
00000120: 8d06 a33d 0dd3 aebc 37f4 bebd cc9a 0e3e
00000130: 26b5 9e3c bd3c b13d f593 e2bd 90f7 713c
00000140: 65a3 a83b 1d72 8fbd aca5 afbd 2944 51bd
00000150: 64e3 963d e1f8 cf3b 56ae 6ebd fdf3 3cbd
00000160: b9f5 f33d dd1b 58bd 8b4e 623d acfa 30bd
00000170: 94b9 a3bd 213f a23c 7a08 41bc 8bb7 8abc
00000180: 7af2 9d3d c0d8 e63d e813 4cbd 8bec 86bc
00000190: 4e07 363a 92f4 f83b db04 93bd 7c1a 953d
000001a0: 2647 2abd 55f0 133d 7dee 16bc cdbf d23d
000001b0: f588 1d3c 676c 1c3d 821e e53d 75ee 79bd
000001c0: 9756 babd 2939 43bd f9da 00bd b4ab 83bc
000001d0: 81c4 823d 9475 2c3c 7a7e 8cbc e02d ca3d
000001e0: c3ad 013e b8f7 97bd 8ab8 683d 306a f63c
000001f0: a1fb 953d 1594 1dbd 8d8d 093d 98d2 b5bd

layers.5.weight f4 [128]
1.0408081 1.0221775 0.97224975 0.99278337 0.9848978 0.9990128 1.0084156 0.9923082
0.9958877 0.98827636 0.97639614 0.9840615 0.98150206 1.0087181 0.9875645 1.0057716
1.0068607 0.98412675 1.0004108 0.9751273 1.0305911 0.9614937 1.0184379 1.0344609
1.0045916 1.0010369 1.0045986 1.0083195 0.99263614 0.988241 0.976939 1.0018812
1.0197631 1.0612257 0.9937116 1.0028772 1.0077883 1.0069588 0.99186516 1.0330489
0.9946296 0.99005073 0.9819704 0.98803777 0.9850692 1.0016353 0.99473304 1.0321761
0.9869546 0.98263973 0.9579478 0.9699195 0.9964862 0.9932534 0.97764367 0.9901703
0.9937674 0.989897 1.0600451 0.99128485 0.9887898 0.9918137 0.992002 1.0305415
0.98147887 1.0044295 1.0010942 1.0057373 1.1066645 1.0380169 1.0623801 0.9896994
0.9920576 0.9949123 1.0050963 1.0242764 0.9999786 1.0658613 0.98785603 0.99323046
0.9647914 1.0352893 0.9977664 0.996148 0.9818145 0.9974284 0.99722457 0.9726295
0.9915794 1.0126879 1.0023994 0.97571373 0.99444956 0.9862086 0.99101853 1.0116565
0.9974028 0.98942894 1.0018055 0.9793059 1.0093225 0.9989074 1.0031506 0.96256983
1.0042089 1.0026423 0.990132 1.0039124 0.9921542 1.001188 0.98003185 0.9943269
0.9981051 1.0029197 0.99570453 1.0149757 0.9760258 0.96173275 1.026099 0.97537667
1.1381269 0.9972398 0.99252266 0.9950414 0.9905997 1.0048496 0.9979752 0.9838432
00000000: 3339 853f b6d6 823f 5ce5 783f 0d27 7e3f
00000010: 4322 7c3f 4ebf 7f3f c313 813f e907 7e3f
00000020: 7ff2 7e3f aeff 7c3f 19f5 793f 74eb 7b3f
00000030: b843 7b3f ad1d 813f 07d1 7c3f 20bd 803f
00000040: d0e0 803f bbef 7b3f 760d 803f f1a1 793f
00000050: 69ea 833f 7324 763f 2c5c 823f 3769 843f
00000060: 7596 803f fa21 803f b096 803f 9d10 813f
00000070: 671d 7e3f 5dfd 7c3f ad18 7a3f a53d 803f
00000080: 9987 823f 3ed6 873f e263 7e3f 485e 803f
00000090: 35ff 803f 07e4 803f e0ea 7d3f f23a 843f
000000a0: 0ca0 7e3f f773 7d3f 6a62 7b3f 0bf0 7c3f
000000b0: 7f2d 7c3f 9635 803f d3a6 7e3f 591e 843f
000000c0: 0fa9 7c3f 478e 7b3f 113c 753f a54c 783f
000000d0: b819 7f3f db45 7e3f db46 7a3f cd7b 7d3f
000000e0: 8a67 7e3f e469 7d3f 8faf 873f d8c4 7d3f
000000f0: 5421 7d3f 81e7 7d3f d8f3 7d3f c9e8 833f
00000100: 3342 7b3f 2591 803f db23 803f 00bc 803f
00000110: 2fa7 8d3f bddd 843f 12fc 873f f15c 7d3f
00000120: 7df7 7d3f 93b2 7e3f ffa6 803f 7d1b 833f
00000130: 99fe 7f3f 256e 883f 22e4 7c3f 5a44 7e3f
00000140: 92fc 763f 5c84 843f 9e6d 7f3f 8e03 7f3f
00000150: 3258 7b3f 7857 7f3f 1c4a 7f3f 3ffe 783f
00000160: 26d8 7d3f c29f 813f a04e 803f 60c8 793f
00000170: 3f94 7e3f 2b78 7c3f 64b3 7d3f f67d 813f
00000180: ca55 7f3f 374b 7d3f 2a3b 803f cbb3 7a3f
00000190: 7b31 813f 65b8 7f3f 3d67 803f fa6a 763f
000001a0: eb89 803f 9556 803f 4a79 7d3f 3480 803f
000001b0: d1fd 7d3f ee26 803f 5ee3 7a3f 358c 7e3f
000001c0: d183 7f3f ac5f 803f 7ee6 7e3f b9ea 813f
000001d0: d4dc 793f 1e34 763f 3657 833f 49b2 793f
000001e0: 24ae 913f 1c4b 7f3f f715 7e3f 08bb 7e3f
000001f0: f197 7d3f e99e 803f 4d7b 7f3f 26dd 7b3f

layers.5.bias f4 [128]
0.031060359 0.0048395796 0.018264804 -0.0027592566 0.0028987709 0.016373677 0.0017892155 0.020112682
0.0021998477 -0.0036778583 0.0142036965 0.018020641 0.011547178 0.013302062 0.021904314 -0.007512795
0.014911977 -0.010738045 0.008833317 0.012495401 -0.0028245822 -0.01239127 0.012992255 0.009038174
-0.011022236 0.010831133 0.030500349 -0.0062150443 0.0050514983 0.026924768 -0.016550746 0.0064209155
-0.0066840667 -0.007723098 0.0009699143 -0.0016830409 -0.01987476 -0.0064629135 0.0008364943 0.0031070218
0.014091689 0.004844589 0.0015158018 0.005916944 0.009827851 0.02338593 0.0136750275 -0.011444994
0.0062309 0.0017337053 0.016165758 0.018655214 -0.0071316445 0.008100846 0.0012225388 -0.012628647
0.033555266 -0.0010044534 0.018385328 0.012097567 -0.018601635 -0.0047135237 -0.0042005656 0.014814728
0.011265578 0.021440325 0.0016433515 -0.007786907 -0.0015275866 0.012824667 0.012262107 -0.02167602
-0.0012030667 -0.00029231372 0.0020262569 -0.017250137 -0.001524503 -0.011450933 0.006171493 -0.0067365384
-0.014318413 -0.014882553 0.0032670612 0.018100979 0.022142243 -0.0021688056 -0.00024774473 0.024190294
0.0072382125 -4.9762835e-05 0.016579116 -0.0012428958 -0.011604184 0.014172063 -0.012105016 0.0058725346
0.014493164 0.00037164107 0.014547567 0.01720761 -0.0010548973 0.0035242622 0.0035529304 0.018350566
0.001776279 -0.006512502 -0.012258523 0.02494475 -0.008164952 0.0077309255 0.017013993 0.0059982776
0.00079225784 -0.014058475 -0.011022598 0.00826912 -0.0012229102 -0.00028655684 -0.0022404063 -0.0021717339
-0.01871771 -0.0027281658 0.009159951 0.015529484 -0.012260227 0.015718453 0.008460683 5.969201e-05
00000000: 4b72 fe3c 5695 9e3b 12a0 953c a5d4 34bb
00000010: 4ef9 3d3b 1722 863c 1c84 ea3a 5ac3 a43c
00000020: 522b 103b 3908 71bb 9fb6 683c 06a0 933c
00000030: 6030 3d3c e4f0 593c ad70 b33c e42d f6bb
00000040: 5d51 743c a0ee 2fbc 9eb9 103c 83b9 4c3c
00000050: a01c 39bb c104 4bbc 78dd 543c d914 143c
00000060: 9c96 34bc 1175 313c dedb f93c 92a7 cbbb
00000070: 0a87 a53b 5591 dc3c 6e95 87bc 8b66 d23b
00000080: 0406 dbbb 0b12 fdbb d941 7e3a 7b99 dcba
00000090: 65d0 a2bc d9c6 d3bb 2f48 5b3a 2d9f 4b3b
000000a0: d4e0 663c 5cbf 9e3b dead c63a ece2 c13b
000000b0: ff04 213c da93 bf3c 390d 603c c983 3bbc
000000c0: 942c cc3b 7f3d e33a 0d6e 843c d2d2 983c
000000d0: 92b0 e9bb 69b9 043c 983d a03a 62e8 4ebc
000000e0: 3f71 093d dda7 83ba d49c 963c e034 463c
000000f0: 7562 98bc e773 9abb e6a4 89bb 79b9 723c
00000100: 4293 383c 9fa3 af3c ba65 d73a 4f29 ffbb
00000110: 4d39 c8ba 8d1e 523c 01e7 483c e991 b1bc
00000120: 38b0 9dba af41 99b9 f3ca 043b 2950 8dbc
00000130: d5d1 c7ba b29c 3bbc 3c3a ca3b 2ebe dcbb
00000140: c797 6abc f4d5 73bc 311c 563b 8148 943c
00000150: a663 b53c 8522 0ebb bce3 81b9 b92a c63c
00000160: 872e ed3b 70b8 50b8 edd0 873c aae8 a2ba
00000170: 7a1f 3ebc f131 683c 1e54 46bc 646e c03b
00000180: bc74 6d3c d2d8 c239 eb58 6e3c f9f6 8c3c
00000190: 7b44 8aba 4ff7 663b 48d8 683b ed53 963c
000001a0: 08d2 e83a d466 d5bb f9d7 48bc ef58 cc3c
000001b0: 4ac6 05bc b453 fd3b ee60 8b3c 338d c43b
000001c0: 86af 4f3a 8555 66bc 2098 34bc 347b 073c
000001d0: 0f4a a0ba 023d 96b9 c8d3 12bb a653 0ebb
000001e0: e255 99bc 07cb 32bb 9e13 163c 606f 7e3c
000001f0: 1fdf 48bc fcc3 803c ad9e 0a3c cf5d 7a38

layers.5.running_mean f4 [128]
0.72390866 0.7139961 0.6970664 0.30094728 0.17480318 0.3526741 0.34843814 0.39787742
0.2629074 0.56248915 0.3488289 0.3477311 0.14642541 0.533715 0.41498166 0.30225086
0.3448247 0.9004708 0.35793608 0.428813 0.5645539 0.26365685 0.5961948 0.5411682
0.16705322 0.2709702 0.5543083 0.3042195 0.310299 0.2650402 0.263499 2.939396
0.44012946 0.57617307 0.4560477 0.445319 0.5935026 0.10054142 0.2702905 0.7957159
0.3649411 0.32794648 0.5529512 0.3679934 0.6590981 0.3114327 0.32606882 0.5057015
0.26166213 0.66688585 0.2679179 0.44990548 0.42214683 0.39125064 0.2905517 0.41839227
0.30547202 0.32876596 0.5028218 0.9539921 0.5054476 0.57864374 0.38008812 0.33883005
0.53754205 0.33799636 1.2004359 0.3259736 0.5669365 0.41646644 0.8635047 0.3480846
0.30433232 0.2614525 0.42808226 0.7416462 0.43418306 0.6413954 0.28655523 0.34714705
0.33180672 0.34541488 0.1916727 0.35727137 0.4688598 0.3458119 0.28789556 0.40797013
0.34886315 0.39001969 0.40646023 0.43765515 0.34642413 0.656518 0.41882482 0.6451231
0.64482415 0.33270994 0.5511701 0.34562686 0.27367333 0.269459 0.39943758 0.38082176
0.4162684 0.24779256 0.38502324 0.73576635 0.408075 0.46125832 0.49558768 0.23742121
0.42962545 0.26383173 0.5561052 0.80956626 0.46863016 0.31371877 0.4885632 0.42736334
0.50138324 0.23760816 0.25366944 0.43722966 0.42253962 0.36615515 0.33370757 0.25855938
00000000: 1452 393f 73c8 363f f272 323f c315 9a3e
00000010: 9bff 323e b391 b43e 7c66 b23e 97b6 cb3e
00000020: cc9b 863e 4aff 0f3f b499 b23e d009 b23e
00000030: 8bf0 153e 8ca1 083f 7a78 d43e a0c0 9a3e
00000040: dd8c b03e 4185 663f 6643 b73e 618d db3e
00000050: 9b86 103f 08fe 863e 39a0 183f 008a 0a3f
00000060: 0010 2b3e 9bbc 8a3e 26e7 0d3f a9c2 9b3e
00000070: 83df 9e3e 59b3 873e 57e9 863e 101f 3c40
00000080: a658 e13e 1480 133f 167f e93e da00 e43e
00000090: c9ef 173f a9e8 cd3d 8463 8a3e 0ab4 4b3f
000000a0: 8fd9 ba3e 9ae8 a73e 368e 0d3f a269 bc3e
000000b0: a7ba 283f 1b74 9f3e 7ef2 a63e a775 013f
000000c0: 94f8 853e 08b9 2a3f 892c 893e 035a e63e
000000d0: a123 d83e 0152 c83e 31c3 943e 8337 d63e
000000e0: d466 9c3e 0354 a83e eeb8 003f d438 743f
000000f0: 0465 013f ff21 143f e99a c23e 227b ad3e
00000100: 5b9c 093f dc0d ad3e e2a7 993f 03e6 a63e
00000110: c022 113f 173b d53e a50e 5d3f 2538 b23e
00000120: 72d1 9b3e 1add 853e 992d db3e 86dc 3d3f
00000130: 3e4d de3e 7d32 243f 5eb7 923e 42bd b13e
00000140: 92e2 a93e 38da b03e d945 443e 46ec b63e
00000150: 640e f03e 420e b13e 0c67 933e 76e1 d03e
00000160: 319e b23e a9b0 c73e 8e1b d03e 5614 e03e
00000170: 815e b13e 9011 283f 3570 d63e ca26 253f
00000180: 3213 253f f558 aa3e 7c19 0d3f 01f6 b03e
00000190: e91e 8c3e 88f6 893e 1583 cc3e 12fb c23e
000001a0: 2221 d53e 55bd 7d3e c421 c53e 2f5b 3c3f
000001b0: 35ef d03e 0d2a ec3e abbd fd3e 8c1e 733e
000001c0: def7 db3e f414 873e e95c 0e3f bc3f 4f3f
000001d0: 4bf0 ef3e bf9f a03e f524 fa3e 5ecf da3e
000001e0: a75a 003f 8e4f 733e f6e0 813e 91dc df3e
000001f0: 1d57 d83e b078 bb3e b8db aa3e e561 843e

layers.5.running_var f4 [128]
0.40605333 0.43091857 1.8532995 0.6666459 0.17532961 0.9033303 0.6691472 0.20801675
0.42237827 0.21294878 0.7548875 0.70352477 0.15245306 0.30477047 0.24173035 0.670222
0.6405194 0.36863095 0.2572512 0.36182946 0.28498885 0.078617275 0.3827829 0.13238642
0.21448778 0.38990933 0.31568998 0.5362352 0.71259105 0.37740663 0.46368456 54.37241
0.23682816 0.159279 1.1635569 1.2498717 0.2844349 0.023448436 0.3517712 4.6385746
0.65217096 0.4963394 0.20807423 0.87825143 0.27992782 0.53787214 0.5395689 0.12545791
0.43252197 0.14000797 0.12676501 0.3555657 1.0292699 0.9049991 0.48355448 1.1472104
0.17691617 0.2057401 0.48165318 5.9460444 0.07765772 1.0934664 0.17094529 0.23680566
1.921308 0.56431097 0.6295255 0.60090727 0.20663865 0.28656688 0.56026274 0.9004786
0.44318023 0.45778248 0.9093744 0.2539354 1.411976 1.4277611 0.5877758 0.7512159
0.12808146 0.17834784 0.2691908 0.83830386 0.42076266 0.16096367 0.4559672 0.22873735
0.07102993 0.8310157 0.1657692 0.24076666 0.6548135 2.5038764 0.04973658 0.13040146
2.2002704 0.14552043 0.21454786 0.04742457 0.42843756 0.3859084 0.9825437 0.22653359
1.0886195 0.3507357 0.22746299 0.9858446 0.1575318 0.107181065 0.2769641 0.37139845
1.1473589 0.34682405 0.08814169 4.233297 0.15606968 0.18823652 0.13134691 0.2331211
0.18133166 0.2842569 0.4001549 0.4466404 0.22213595 0.52307594 0.6786199 0.3447563
00000000: 39e6 cf3e 5ca1 dc3e eb38 ed3f 4ea9 2a3f
00000010: 9b89 333e a840 673f 3b4d 2b3f 5802 553e
00000020: f741 d83e 3f0f 5a3e 4f40 413f 331a 343f
00000030: a81c 1c3e e00a 9c3e 2988 773e ab93 2b3f
00000040: 14f9 233f 32bd bc3e 6eb6 833e b641 b93e
00000050: 0fea 913e 1802 a13d 1ffc c33e 4e90 073e
00000060: afa2 5b3e 32a2 c73e 1ea2 a13e b646 093f
00000070: 5e6c 363f 713b c13e 1068 ed3e 597d 5942
00000080: 1583 723e 091a 233e 6fef 943f ccfb 9f3f
00000090: 74a1 913e ef16 c03c 5b1b b43e 346f 9440
000000a0: adf4 263f 3320 fe3e 6911 553e 16d5 603f
000000b0: b352 8f3e fdb1 093f 3021 0a3f 0a78 003e
000000c0: 8573 dd3e 405e 0f3e b0ce 013e b50c b63e
000000d0: 1ebf 833f 05ae 673f 7494 f73e cad7 923f
000000e0: 8329 353e 88ad 523e 3f9b f63e ff45 be40
000000f0: 030b 9f3d b5f6 8b3f 480c 2f3e 2f7d 723e
00000100: 6ced f53f af76 103f 9528 213f 0fd5 193f
00000110: 1599 533e e5b8 923e 616d 0f3f c485 663f
00000120: 85e8 e23e 7762 ea3e c3cc 683f d203 823e
00000130: a1bb b43f e0c0 b63f 7a78 163f af4f 403f
00000140: c927 033e d1a0 363e 60d3 893e 159b 563f
00000150: 346e d73e a9d3 243e 8874 e93e 203a 6a3e
00000160: 2478 913d 72bd 543f 67bf 293e 898b 763e
00000170: dca1 273f 833f 2040 96b8 4b3d f687 053e
00000180: 3bd1 0c40 4f03 153e 6fb2 5b3e 4440 423d
00000190: 2b5c db3e c995 c53e fc87 7b3f 6cf8 673e
000001a0: e257 8b3f a193 b33e 0fec 683e 5060 7c3f
000001b0: 0450 213e bf81 db3d 3dce 8d3e f027 be3e
000001c0: a8dc 923f ec92 b13e a183 b43d 2b77 8740
000001d0: bbd0 1f3e 13c1 403e ce7f 063e 4cb7 6e3e
000001e0: 02af 393e 1f8a 913e 1ae1 cc3e 0dae e43e
000001f0: 9b77 633e 4ee8 053f 09ba 2d3f e683 b03e

layers.6.weight f4 [128, 128]
-0.06414652 -0.10802655 -0.018492257 -0.025183123 0.04223818 0.05344313 0.06165725 -0.00087899284
-0.03434539 -0.07277881 0.027346555 -0.05030951 -0.02765219 -0.025564494 -0.047252636 0.009403995
0.07036335 -0.075216606 -0.045875125 0.08105586 0.06973358 0.004156268 -0.039325938 -0.0561246
0.069178455 -0.052229233 0.044387348 0.062019177 -0.09254684 0.029481208 0.05628805 -0.055282913
-0.05112785 -0.019325176 0.05973753 -0.015371216 -0.05318953 0.09140646 -0.036116716 -0.007470136
0.105151564 -0.07312637 -0.09203763 -0.08504062 -0.070854515 -0.07182339 0.0014069888 0.077236794
-0.056799345 -0.08014459 -0.025414987 -0.024762295 -0.062825605 0.032825593 -0.030667363 0.020102536
0.04985698 -0.06264591 -0.00850022 -0.048344202 0.075546116 -0.08999081 -0.05690191 -0.04302117
-0.011971583 0.042215593 -0.04917423 -0.054857943 0.09873194 -0.06810798 -0.08111231 0.0066758287
0.05932876 0.032940816 -0.07384256 -0.026665252 -0.020526024 0.031171009 -0.07561757 -0.050842788
0.03346549 -0.015750432 -0.089396216 -0.017094256 -0.04071216 -0.06348456 -0.035591137 -0.044020288
-0.041364867 -0.09730323 -0.050048467 0.024290398 0.074730024 -0.041054327 0.06623133 -0.069372885
-0.04862893 -0.063748404 -0.020035516 0.025897162 -0.097388655 0.0031440202 0.045396473 0.05515741
-0.089808285 0.01683975 -0.027087372 -0.051104248 -0.05618545 0.060921174 0.08326502 -0.09523802
-0.058511306 -0.037008584 -0.014032023 -0.09284039 -0.054687694 -0.029168867 0.01451452 -0.05549906
0.09184321 -0.06100446 0.008906613 -0.06451026 -0.0035824245 0.028784126 -0.07425818 0.005377845
0.031081254 0.047961738 0.019928476 0.005891345 0.038937442 0.05394362 0.03303533 -0.07266034
0.015935514 -0.015872322 0.07774321 -0.040749427 0.11792843 -0.035243876 -0.026007645 -0.04604931
0.09445968 0.0385263 -0.061959837 0.07442365 0.08805805 0.014686686 -0.030990457 -0.011175393
0.04044437 -0.067920946 -0.06816288 0.024828494 0.03354581 0.0971667 0.021193217 0.06778624
0.0194544 -0.024039496 0.005811386 0.036168065 -0.05662148 0.05022647 -0.022209616 0.03271384
-0.036218252 0.051714275 -0.040051974 -0.02865622 -0.009957578 0.06153373 -0.02436974 -0.057042137
0.046445485 -0.024638643 0.07700365 -0.08046551 -0.03241335 -0.037916735 -0.04662447 0.030831244
-0.06396551 0.068473324 0.030863734 0.06883344 0.02209293 0.01214601 0.057082687 0.052024115
0.028635234 0.015384268 0.06311244 0.02367393 0.09364236 -0.063166514 0.036088657 -0.023449166
-0.06127826 -0.022814902 -0.006330918 0.05931605 0.060011774 -0.059574615 0.051824443 -0.0265673
0.0033073097 0.043937728 -0.026064876 -0.07152581 -0.039988622 -0.035151795 0.05320091 0.003777249
-0.048012305 0.067686275 -0.029195527 -0.07971047 0.08871402 0.059995808 0.10257983 0.06520702
-0.02713244 0.017010447 0.035999592 0.01426501 0.09230716 0.037498154 -0.008010406 -0.011417349
0.07828403 0.08860807 0.08686932 0.07475749 -0.05403838 -0.048939258 -0.055659164 -0.012983379
-0.075346835 0.08180988 -0.0550388 0.04090148 0.020900175 0.08035888 -0.018503947 -0.026531542
0.049367033 -0.06823868 -0.049258012 0.008181755 -0.028159749 0.07928852 0.002911781 0.006872775
00000000: 405f 83bd 063d ddbd 137d 97bc d64c cebc
00000010: f101 2d3d 2fe7 5a3d 508c 7c3d 366c 66ba
00000020: c0ad 0cbd 0f0d 95bd e205 e03c 5811 4ebd
00000030: d886 e2bc a16c d1bc fb8b 41bd 3713 1a3c
00000040: a91a 903d 2a0b 9abd 8ee7 3bbd 9d00 a63d
00000050: 7bd0 8e3d 4e31 883b 3c14 21bd e9e2 65bd
00000060: 6fad 8d3d 52ee 55bd 82cf 353d d207 7e3d
00000070: 3389 bdbd 9382 f13c 4c8e 663d 5670 62bd
00000080: 706b 51bd d54f 9ebc 57af 743d 8ed7 7bbc
00000090: 44dd 59bd 4f33 bb3d 1fef 13bd 0bc8 f4bb
000000a0: b459 d73d 47c3 95bd 3a7e bcbd c729 aebd
000000b0: 2c1c 91bd 2418 93bd b66a b83a 532e 9e3d
000000c0: 6ea6 68bd d922 a4bd 1733 d0bc 4cda cabc
000000d0: b6aa 80bd 2174 063d 1f3a fbbc 13ae a43c
000000e0: d536 4c3d 804c 80bd 8244 0bbc 9204 46bd
000000f0: ecb7 9a3d 1a4d b8bd fa11 69bd f736 30bd
00000100: 7524 44bc 42ea 2c3d eb6a 49bd b9b2 60bd
00000110: f933 ca3d 327c 8bbd 361e a6bd e9c0 da3b
00000120: b702 733d f3ec 063d c53a 97bd 1671 dabc
00000130: 3126 a8bc 585a ff3c 62dd 9abd 8740 50bd
00000140: 1c13 093d 0d07 81bc 5d15 b7bd 4109 8cbc
00000150: cbc1 26bd 3104 82bd 03c8 11bd 9e4e 34bd
00000160: 356e 29bd ea46 c7bd 9fff 4cbd a8fc c63c
00000170: 0e0c 993d 9528 28bd 4ba4 873d 5f13 8ebd
00000180: 212f 47bd 868e 82bd 8621 a4bc 4926 d43c
00000190: b473 c7bd e80b 4e3b a7f1 393d bdec 613d
000001a0: 68ed b7bd 84f3 893c 56e6 ddbc b052 51bd
000001b0: b722 66bd 7b88 793d da86 aa3d 270c c3bd
000001c0: 8da9 6fbd 5096 17bd 92e6 65bc 1a23 bebd
000001d0: 3400 60bd 8cf3 eebc 4fce 6d3c fb52 63bd
000001e0: 4b18 bc3d d0df 79bd 0bed 113c f51d 84bd
000001f0: 1cc7 6abb b0cc eb3c ac14 98bd a238 b03b
00000200: 1d9e fe3c 8773 443d 0b41 a33c 2f0c c13b
00000210: de7c 1f3d fcf3 5c3d 0e50 073d f2ce 94bd
00000220: 328b 823c ac06 82bc d537 9f3d dfe8 26bd
00000230: 7684 f13d e25b 10bd fc0d d5bc 349e 3cbd
00000240: 1474 c13d c1cd 1d3d 99c9 7dbd 6d6b 983d
00000250: c757 b43d 6da0 703c b3df fdbc ff18 37bc
00000260: ffa8 253d 231a 8bbd fb98 8bbd 2065 cb3c
00000270: 5567 093d 56ff c63d 669d ad3c 83d3 8a3d
00000280: d55e 9f3c 7aee c4bc 706d be3b f724 143d
00000290: edeb 67bd 45ba 4d3d f1f0 b5bc f3fe 053d
000002a0: 9759 14bd 59d2 533d 8a0d 24bd 73c0 eabc
000002b0: 1c25 23bc cb0a 7c3d 0da3 c7bc 04a5 69bd
000002c0: 9f3d 3e3d fbd6 c9bc 17b4 9d3d 1acb a4bd
000002d0: dcc3 04bd 944e 1bbd 4df9 3ebd ce91 fc3c
000002e0: 5900 83bd be3b 8c3d f1d5 fc3c 8cf8 8c3d
000002f0: 3bfc b43c 0f00 473c 89cf 693d 3d17 553d
00000300: 7094 ea3c 4c0e 7c3c 1841 813d d4ef c13c
00000310: 91c7 bf3d 725d 81bd b3d1 133d 7718 c0bc
00000320: eafe 7abd 51e6 babc 9773 cfbb 63f5 723d
00000330: e8ce 753d 8304 74bd de45 543d aba3 d9bc
00000340: 73bf 583b 0cf8 333d 0286 d5bc 207c 92bd
00000350: 1ccb 23bd 54fb 0fbd 33e9 593d b98b 773b
00000360: 8da8 44bd 1a9f 8a3d 752b efbc 3e3f a3bd
00000370: b2af b53d 2abe 753d 6015 d23d 428b 853d
00000380: da44 debc 7e59 8b3c 4f74 133d cab7 693c
00000390: 890b bd3d aa97 193d 143e 03bc d50f 3bbc
000003a0: 6153 a03d 2678 b53d 8be8 b13d 741a 993d
000003b0: 5957 5dbd 8874 48bd ddfa 63bd 3db8 54bc
000003c0: 714f 9abd f08b a73d 5d70 61bd 4f88 273d
000003d0: d836 ab3c 3293 a43d 9795 97bc ad58 d9bc
000003e0: 1635 4a3d b9c0 8bbd c5c2 49bd c50c 063c
000003f0: 46af e6bc 0562 a23d 94d3 3e3b 0435 e13b
