model/Mohamed_Salah_trained_model.pth (torch, 288566 bytes, 31 tensors)

layers.0.weight f4 [128, 5]
000000 cd 5e 43 3d a3 89 3b be 3e 68 b8 be 66 9a bb 3e
       0.04769783 -0.18314223 -0.3601703 0.36641234
000010 b9 97 c6 be 3b e1 86 be 50 e7 b3 bf 3d cf 1f 3e
       -0.3878763 -0.26343712 -1.4054966 0.15606399
000020 01 35 e1 be a1 58 85 bf e2 3a 3c ba 12 8c e9 bc
       -0.4398575 -1.0417672 -0.0007180405 -0.028509174
000030 c6 ae 1f 3f 31 4e 30 3e 86 07 45 be 7a e5 1e 3e
       0.6237606 0.17217328 -0.19241151 0.15517226
000040 64 6f c6 bc f3 16 93 be 1e 91 cf be f4 ce c1 be
       -0.024223037 -0.28728446 -0.40540403 -0.37853205
000050 c5 0f 42 be 5b 61 a3 be 76 20 11 3f 77 1f 41 3e
       -0.18951328 -0.31910214 0.56690156 0.18859659
000060 71 b2 a3 be e3 4b a9 bd 8f 61 66 bd d7 49 de be
       -0.31972077 -0.08266427 -0.056245383 -0.4341571
000070 15 0d bd 3d 86 4c f2 be f0 15 c3 bd b9 64 d6 3b
       0.09231011 -0.47324008 -0.095256686 0.006542769
000080 3a 63 d9 be 13 6e 4d be 33 95 fe bd d6 75 79 3d
       -0.42458516 -0.20061521 -0.12430801 0.060903393
000090 43 f9 7c 3e 75 34 96 3f ef b1 6b 3f 2d 5b 3a be
       0.24704461 1.1734759 0.9206838 -0.18198843
0000a0 91 ed 4e 3e 11 b6 26 be 2a 22 d7 be 3a e1 30 3e
       0.20207812 -0.1628039 -0.42018253 0.17273417
0000b0 55 5f 6f be 64 f7 8c 3e 50 df 56 be 03 87 c5 be
       -0.2337621 0.27532494 -0.20983624 -0.38579568
0000c0 aa fa 29 3d 91 6f 56 be 46 78 89 3d 56 e4 97 be
       0.041498818 -0.20940997 0.067123935 -0.29666394
0000d0 6f 5b 60 3e c3 19 d8 be 41 6b 14 3e 93 c4 93 be
       0.21909879 -0.42207155 0.14494039 -0.28860912
0000e0 eb c6 c5 bd c7 65 17 bd 95 0f 96 3d 05 3c 7a be
       -0.09657081 -0.036962297 0.07327191 -0.24436958
0000f0 b4 ea bb be 8c b9 2d be 73 be 61 3d 88 95 99 be
       -0.36702502 -0.16965312 0.055113267 -0.29996896
000100 4c 6a 46 bc 30 25 85 3e a6 3e bb bc b1 53 11 3f
       -0.012110304 0.26004934 -0.022857022 0.5676833
000110 d1 53 8a bd c8 e7 16 bc dd 25 92 3e 3f 56 99 be
       -0.06754268 -0.009210534 0.28544512 -0.29948613
000120 b4 fa ba 3e b6 31 96 bd 2c 4c e0 3d 6a b6 ad be
       0.36519396 -0.073337 0.10952029 -0.33928233
000130 69 d2 3d bb 31 c6 5a bf c4 fd 89 bd e4 8d 3b 3b
       -0.0028964526 -0.85458666 -0.06737855 0.002861851
000140 24 5c 6e 3d 67 ef a5 be 15 a6 05 3f 34 b4 e5 bd
       0.05819334 -0.32409212 0.52206546 -0.11216012
000150 29 0f b3 be c2 8c a8 3e 5b 6d 65 3f bb 96 ce 3f
       -0.34972504 0.3291989 0.8961999 1.6139749
000160 5d 12 07 3f ec 3f 45 3f b0 37 8e 3e be 8b 0b be
       0.52762395 0.7705066 0.2777686 -0.13627526
000170 d3 9d c7 3e 61 1f 7e bd 1e a5 3d bd e5 ce 88 3e
       0.38987598 -0.062041644 -0.046300046 0.26720348
000180 65 8c 08 bd aa 4f 8b 3e 25 a5 72 be 22 9d 1c be
       -0.033337016 0.27209216 -0.2369581 -0.15294316
000190 45 41 c8 3d f5 9f 25 be 66 a4 c3 3e 21 bb 94 3e
       0.09778074 -0.161743 0.38211364 0.29049018
0001a0 f8 6f a3 be 99 5a 51 3d 68 96 bc bc a9 23 13 3e
       -0.31921363 0.05111179 -0.023020938 0.14369072
0001b0 f8 e2 6c be 0d 7d ab be 9f ae 46 3e 19 24 b0 bc
       -0.23133457 -0.33493844 0.1940255 -0.021501588
0001c0 92 80 5c 3e c1 90 c5 3e ba 3c 5f be 73 e2 78 3e
       0.2153342 0.38587 -0.21800509 0.24305134
0001d0 66 d8 b1 be cc 6e 27 be c6 be 3d bd 21 65 8f be
       -0.3473541 -0.1635086 -0.046324514 -0.28006843
0001e0 1b cb 5e 3d 88 2e b8 be 85 5e 50 bd ba 72 88 be
       0.054392915 -0.35973 -0.05087139 -0.2665003
0001f0 b7 7a fa bd 9c f3 7e be e6 14 ca be d7 66 bd 3d
       -0.12230437 -0.24897617 -0.3946907 0.09248131
000200 2c a1 24 3e 5e 8d b6 be e1 14 2a 3f f9 e3 b8 3f
       0.16077107 -0.3565473 0.6643811 1.4444572
000210 f3 b5 72 3f 9f 74 00 3e 2b 7c 20 3f 88 b5 d8 3e
       0.9480888 0.12544487 0.62689465 0.42325997
000220 5e b2 c7 be 76 94 d9 3e 3c 8d 56 3e 89 b2 2f be
       -0.3900327 0.4249608 0.20952314 -0.1715795
000230 7b 2d 7a be a3 90 25 bc 5d f6 f4 bd ee 7e 35 3e
       -0.24431412 -0.010105285 -0.119610526 0.17724201
000240 14 ea c4 be 24 ce 00 3e 79 2a 0a 3e 20 74 86 3c
       -0.38459837 0.12578636 0.13492765 0.016412795
000250 d1 c9 93 3d 85 d9 61 3f c3 07 c6 be 6a dc 54 be
       0.07216228 0.88222533 -0.38677797 -0.20787206
000260 04 28 b9 3e 3a 43 81 bd 16 14 02 bf b3 5d 09 be
       0.36163342 -0.063116506 -0.508119 -0.1341465
000270 36 70 3a be db fc df be e5 bb 8f be 5e 81 8b 3d
       -0.18206868 -0.437476 -0.2807304 0.06811784
000280 da ad 36 3d 8c 65 f2 bd e6 f7 10 3f 84 3e 40 be
       0.04459939 -0.11835775 0.56628263 -0.18773848
000290 8e d9 f5 bd d6 a9 c6 3e b1 d0 35 be 47 15 f9 bc
       -0.12004386 0.3880145 -0.1775539 -0.030405654
0002a0 e3 47 d5 3e 8d 38 d5 be d3 f6 7f be 45 e3 f7 be
       0.41656408 -0.41644707 -0.249965 -0.4841558
0002b0 97 e2 94 bd 1d e5 82 be 3a 62 24 be e3 49 e1 be
       -0.07269781 -0.25565425 -0.16053095 -0.44001684
0002c0 60 a9 d9 be 26 d6 fd bc 15 af af 3e 9d d2 c8 3d
       -0.42512035 -0.030985903 0.34313264 0.09805796
0002d0 45 c0 a5 3e ba 64 6f be 04 b1 c8 3d f8 af c9 be
       0.32373253 -0.23378268 0.09799388 -0.39392066
0002e0 0e 3d db 3d 77 ee bb be 98 0a 3f bc 1e 51 a9 be
       0.10705005 -0.36705372 -0.011660241 -0.330697
0002f0 2d bc f4 bd 23 8c 0d bf ac 4a 95 bd 19 0e 69 bd
       -0.11949954 -0.55291957 -0.07289633 -0.05689821
000300 ee 20 65 bb a6 9f b1 3d f4 09 1e 3f fa a0 32 3d
       -0.0034962255 0.08673029 0.6173394 0.04361055
000310 2f 21 58 be 55 1b 32 3f 7f 82 bc 3d dd 61 94 be
       -0.21106409 0.69572955 0.09204578 -0.28980914
000320 61 ea 76 3e 96 0c 01 3f 64 3d 65 3e 2a e2 f3 bd
       0.24112846 0.5040983 0.223867 -0.11908372
000330 b3 1d 81 be 4c bb 55 bd f0 73 54 bd 20 f0 e4 be
       -0.2521797 -0.052180573 -0.05186838 -0.4471445
000340 69 99 a1 3d 4f 30 4b ba e0 2c da be ab 8e 84 bf
       0.07890589 -0.0007751034 -0.42612362 -1.0356039
000350 ba fc c0 be e4 fc b1 3d 3a 9a 9a be aa 32 12 3e
       -0.37692815 0.08690813 -0.3019579 0.1427714
000360 c7 8b b9 be 86 9e 03 3e bb 33 42 3e 23 23 aa bc
       -0.36239454 0.1285344 0.18965046 -0.020768708
000370 1d eb b6 3d 61 a3 21 be 12 25 1c bf cd 02 12 be
       0.08931563 -0.1578498 -0.60994065 -0.14258881
000380 26 52 71 be f0 e4 50 be c1 f5 07 be 09 a4 48 3f
       -0.23566493 -0.20399833 -0.13277341 0.783753
000390 b8 ec 0b 3f bf 97 bc be 93 5a bd be b6 a3 f1 be
       0.5465808 -0.36834523 -0.36983165 -0.47195214
0003a0 7d 0a c9 3e 46 04 e1 bb dd 47 00 3e e8 ae c1 bd
       0.39265814 -0.0068669645 0.12527414 -0.09457189
0003b0 d8 5d 74 be 30 17 50 bc 50 2d 77 3d 3c 85 51 be
       -0.23863924 -0.012700841 0.060345948 -0.20460981
0003c0 a2 24 df bd 88 d0 8c bc d9 4b 11 be a8 22 ac be
       -0.10895659 -0.01718928 -0.1418909 -0.3362019
0003d0 71 bb fb be d0 18 0d 3f 31 83 dc bd b2 69 cd 3e
       -0.49166444 0.55115986 -0.1076721 0.40119702
0003e0 74 97 a9 3d dc b5 d3 bd 0d d8 c7 3e 3c 38 1e 3b
       0.082808405 -0.10337421 0.3903202 0.0024142405
0003f0 62 90 9e be fc d6 67 3e 5e 13 9c be c6 c0 04 bf
       -0.3096953 0.22640604 -0.30483526 -0.5185665

layers.0.bias f4 [128]
000000 8d ae bf 3e 17 56 05 3e e6 e1 82 bd bf 53 fb bc
       0.3743786 0.13021122 -0.06390743 -0.030679582
000010 4f 29 60 be 26 d9 c9 be 7f 14 a8 be d0 ca 3a 3e
       -0.21890758 -0.39423484 -0.32828137 0.1824143
000020 f1 2a bc bc 9e 34 20 3e 71 5b f2 3e 17 bd 64 be
       -0.022969695 0.15645072 0.4733539 -0.22337757
000030 46 9a 95 3e 46 a8 b6 be df a5 cf bd 47 99 80 be
       0.29219264 -0.35675257 -0.10139059 -0.2511694
000040 a8 8c c5 be 7b bb 61 3e 95 29 9c be 12 9a 27 3e
       -0.38583875 0.22044174 -0.30500475 0.16367367
000050 d8 e5 2b be f4 ff 77 3e 27 fa 3a be 4a ed 02 be
       -0.16786897 0.24218732 -0.18259488 -0.12785831
000060 a3 98 87 3d c5 bd 83 3e 5a eb c3 bd 66 1a 87 bd
       0.0662091 0.2573072 -0.09566374 -0.06596832
000070 f8 1a ab 3e ef ac 7e 3e bc bc 1b 3e 5b bf 58 bc
       0.33419013 0.24870656 0.15208715 -0.013229216
000080 b3 b6 88 be 4d 34 22 3e 66 cb e3 3d 56 b1 12 bf
       -0.26701888 0.15840264 0.111227795 -0.57301843
000090 28 56 b7 be a4 4b 3f be c8 2f fb bd 1b 5a c9 bc
       -0.3580792 -0.18681198 -0.12264973 -0.024579098
0000a0 fe 13 dc 3d 5c 0e 4b be dd 51 cd bc 1b f1 8b bd
       0.10746001 -0.19829696 -0.02506345 -0.068330966
0000b0 71 5b 5d 3d 9e 19 2f 3e b4 7d b3 bc 76 92 46 be
       0.054042283 0.17099616 -0.021910526 -0.19391808
0000c0 db fb c0 3e 2a a7 9c be d2 c5 b9 be 87 ed 77 be
       0.3769215 -0.30596286 -0.36283737 -0.24211703
0000d0 37 72 1c bd 0c eb cc bc 8a 98 bc 3e 07 6a 9d 3e
       -0.03819486 -0.025014423 0.36835128 0.30744955
0000e0 0e cc 02 be bd 51 25 3e 7c 95 94 bd 78 fe c4 3d
       -0.12773153 0.16144462 -0.072550744 0.096188486
0000f0 5c e5 be 3e 34 0b cc bc c1 0e 82 be 6b 09 4d 3e
       0.37284362 -0.024907686 -0.2540188 0.20023124
000100 68 2b 88 bc 62 26 87 be 6d ea cc 3e 35 9e b9 be
       -0.01662226 -0.2639647 0.40022603 -0.36253515
000110 da 10 17 be c0 3b e3 3e 15 c7 4a be 91 0f b0 be
       -0.14752522 0.44381523 -0.19802506 -0.34386876
000120 9b 19 97 3e 80 98 42 3e 55 eb 21 ba d3 14 d7 3e
       0.29511723 0.19003487 -0.000617673 0.42008075
000130 94 e2 ad 3e 44 bd c5 3e f3 75 e0 be 7f 20 01 3e
       0.33961928 0.3862096 -0.43839988 0.12610053
000140 95 bb e9 3e 9d 5c 83 bd c9 01 8f be 3f 4f e9 bd
       0.45650926 -0.06414149 -0.2793105 -0.11392068
000150 a9 46 ff bd 31 3d b5 3e 4d 17 29 bc 8f d4 d6 3e
       -0.12464649 0.35398248 -0.010320497 0.41959044
000160 b9 33 90 bd 0b 86 89 be 22 c0 d0 3e 11 a2 81 be
       -0.07041115 -0.2686008 0.40771586 -0.2531896
000170 a3 c3 7c bd 71 04 41 3e 9d db 3d bc 1c 4c e1 3e
       -0.06171001 0.1884935 -0.011588004 0.4400338
000180 0e 9b a6 be 16 85 37 3e 28 69 a3 3d 85 57 3b 3e
       -0.32540172 0.17921862 0.07979041 0.18295105
000190 fa 3a 12 3e c8 77 e0 3e 6b 65 dd 3d a2 45 b9 be
       0.1428031 0.43841386 0.108103596 -0.36185938
0001a0 22 b7 5c be b1 a2 23 3e 12 6c cc 3e e8 2c a2 be
       -0.21554235 0.1598003 0.399262 -0.31674886
0001b0 a7 be b3 be 0d f5 8c 3e 12 44 87 be 4d b5 b9 3e
       -0.35106394 0.2753071 -0.2641912 0.36271134
0001c0 ea 83 4e 3e 4d 0e fb 3d 3f 6a ca be 94 48 d9 3e
       0.20167509 0.12258587 -0.39534184 0.42438185
0001d0 ad 42 04 be 8a d2 d5 be a3 99 73 be ad cb b4 3e
       -0.1291606 -0.4176219 -0.23789077 0.35311642
0001e0 8c d2 38 be 8d 37 99 be c4 b7 72 3e 96 96 9a be
       -0.18049067 -0.29925194 0.23702914 -0.30193013
0001f0 57 e5 49 3d d5 6b d5 bd 01 57 7c 3e a7 50 f2 bd
       0.04929098 -0.10420958 0.24642564 -0.118317895

layers.2.weight f4 [128]
000000 eb ad 7a 3f 70 ae 42 3f e5 77 76 3f 2d 40 7e 3f
       0.9792163 0.7604742 0.96276695 0.99316674
000010 3f 92 81 3f 07 4e 80 3f e6 56 85 3f 7b 70 95 3f
       1.0122756 1.0023812 1.0417144 1.1674951
000020 00 00 80 3f 2a 51 7a 3f 88 48 79 3f 78 b7 7e 3f
       1.0 0.97780097 0.973763 0.994987
000030 16 d6 75 3f 59 65 8a 3f 6d 5b 80 3f c5 d5 8a 3f
       0.96029794 1.0812179 1.0027901 1.0846487
000040 19 43 81 3f 3e 4b a0 3f 00 00 80 3f 81 da 7b 3f
       1.0098602 1.2522962 1.0 0.98380286
000050 00 00 80 3f dc 52 7c 3f 00 00 80 3f 00 00 80 3f
       1.0 0.98563933 1.0 1.0
000060 9d 08 76 3f c1 77 7e 3f 2a bb 85 3f b2 90 7f 3f
       0.9610689 0.9940148 1.0447743 0.9983016
000070 af c1 76 3f cf cc 5e 3f c5 8d 72 3f a1 4a 82 3f
       0.9638929 0.87031263 0.94747573 1.0179025
000080 99 1e 82 3f 1a a0 78 3f 21 b8 7c 3f 11 fe 7e 3f
       1.0165588 0.97119296 0.9871846 0.99606425
000090 00 00 80 3f 9b 52 86 3f 4e d8 4d 3f bd 90 87 3f
       1.0 1.0493959 0.8040818 1.0591046
0000a0 1f ef 43 3f 00 00 80 3f 4b 4d 7d 3f 00 00 80 3f
       0.76536745 1.0 0.98946065 1.0
0000b0 15 24 84 3f 7f c5 8e 3f 8a ad 7d 3f 00 00 80 3f
       1.0323511 1.1154021 0.99092925 1.0
0000c0 e5 23 59 3f 57 7e 77 3f 17 b6 7e 3f 97 f1 83 3f
       0.84820396 0.96677154 0.994966 1.0308102
0000d0 00 00 80 3f 00 00 80 3f 1f b6 75 3f 37 d3 84 3f
       1.0 1.0 0.9598102 1.0376958
0000e0 53 eb 93 3f 28 47 77 3f 66 54 53 3f e5 ba 77 3f
       1.155619 0.9659295 0.82550657 0.96769553
0000f0 d8 1f 76 3f 29 95 7f 3f e7 8f 7f 3f c5 1f cf 3f
       0.9614234 0.99836975 0.9982895 1.618157
000100 00 00 80 3f 26 5c 82 3f 3d 41 72 3f 6d 63 80 3f
       1.0 1.0184371 0.94630796 1.0030342
000110 ce 0b 63 3f bc 37 7a 3f fb 7c 80 3f fa 3e 8d 3f
       0.8868989 0.97741294 1.0038141 1.1034844
000120 30 d6 6e 3f 17 f4 7b 3f 00 00 80 3f 8c 77 77 3f
       0.93295574 0.98419327 1.0 0.9666679
000130 a6 64 8b 3f 01 6e 64 3f 00 00 80 3f 86 ec 71 3f
       1.089009 0.8923035 1.0 0.9450153
000140 1b 9a bf 3f c6 f5 99 3f 89 3c 7b 3f 00 00 80 3f
       1.4968904 1.2028129 0.98139244 1.0
000150 92 39 50 3f d6 7d 77 3f ae be 72 3f b1 cf 80 3f
       0.81337845 0.96676385 0.94822204 1.0063382
000160 00 00 80 3f 00 f2 57 3f 09 00 7f 3f fa 58 85 3f
       1.0 0.8435364 0.9960943 1.0417778
000170 91 ad 82 3f 68 4f 88 3f b5 f5 7f 3f 87 92 6e 3f
       1.0209218 1.0649233 0.99984294 0.93192333
000180 11 0f 78 3f b6 9d 7b 3f f3 55 77 3f 3b cc 7a 3f
       0.9689799 0.9828752 0.96615523 0.9796788
000190 fd 60 47 3f 59 27 59 3f 95 21 7a 3f a6 82 6f 3f
       0.7788237 0.84825665 0.9770749 0.9355873
0001a0 00 00 80 3f 85 64 74 3f 29 56 78 3f 00 00 80 3f
       1.0 0.9546588 0.9700647 1.0
0001b0 e5 57 87 3f 8f 67 71 3f b0 90 77 3f de 61 79 3f
       1.0573698 0.9429864 0.9670515 0.9741496
0001c0 83 d2 79 3f 04 e6 82 3f 00 00 80 3f 48 d7 79 3f
       0.9758684 1.0226445 1.0 0.9759412
0001d0 c8 ab 7d 3f 37 ff 81 3f 85 2a 8a 3f 45 a7 71 3f
       0.9909024 1.015601 1.0794226 0.9439586
0001e0 49 a9 8f 3f bd f9 50 3f 00 fd 76 3f d2 91 84 3f
       1.1223537 0.8163107 0.964798 1.0357001
0001f0 16 41 7a 3f 00 00 80 3f e3 23 a7 3f f7 c7 8e 3f
       0.97755563 1.0 1.3057827 1.1154774

layers.2.bias f4 [128]
000000 d0 10 af bd 2a 4e 3a bc 41 44 53 3d d1 29 b0 3c
       -0.085481286 -0.011371175 0.051578764 0.021504315
000010 e3 19 82 3d 0d 21 19 bd e7 82 c2 3d 73 a8 41 3c
       0.06352594 -0.037385035 0.09497624 0.011819947
000020 b5 bf 2a bc 38 f2 aa 3c 8f 6c 65 bd 9b e7 0d bd
       -0.010421683 0.020867452 -0.056011733 -0.034644704
000030 df d5 62 bd 15 79 66 3c 6e 39 53 3c 64 ce 9d 3c
       -0.055379745 0.014066954 0.01289211 0.019263454
000040 e6 f0 32 3d 9e 54 3f 3c 10 98 59 3c 2f 2d fa 3c
       0.04368677 0.011677889 0.013280883 0.030539123
000050 d8 ae 4b 3c 9f 55 aa 3b 76 31 42 bd 8f 1b 73 3c
       0.012431823 0.005198195 -0.04741045 0.014838113
000060 55 99 9c 3a b2 95 01 bd 03 b9 1c 3d 6d 0d 9a 3b
       0.0011947552 -0.0316369 0.03826238 0.0047013075
000070 14 67 d7 bb 08 c6 25 bb 49 4d f9 3c c8 41 ae 3c
       -0.006573567 -0.0025295038 0.03043236 0.021271601
000080 8a 85 82 3d f9 76 37 39 53 00 84 bb 74 50 56 bd
       0.06373127 0.00017496561 -0.004028359 -0.05232282
000090 7a 26 11 bd 55 d8 ce 3c 2d 6e 82 3d 87 af 37 3d
       -0.035437085 0.02524964 0.063686706 0.04484513
0000a0 88 d6 94 bc bd c2 45 3d cb fc 55 3d f0 5e c3 bc
       -0.018168703 0.04828142 0.052243035 -0.02384898
0000b0 45 3c e4 3c b3 1b ec 3c 85 92 96 3d e1 25 20 bc
       0.02786077 0.028821802 0.07352165 -0.009774656
0000c0 3f 45 bc bb d7 a9 98 3d 4c cd 39 3c b8 ae 7e 3d
       -0.0057455595 0.074542694 0.0113404505 0.062178344
0000d0 50 18 a6 bc 35 49 a0 bc 58 c4 a9 3c 5d 88 8f 3d
       -0.020275265 -0.019566158 0.020723507 0.07008431
0000e0 d9 66 dc 3c 25 79 0f bd e5 df b6 bc 86 c7 8d 3d
       0.02690451 -0.03502764 -0.022323558 0.06922822
0000f0 24 f7 02 bc 40 55 c6 3c 91 8b 67 bc 3f a5 f5 3b
       -0.007993493 0.024210572 -0.014132396 0.0074965055
000100 be 95 47 bc be b9 8c 3d a2 19 c4 bc bf 1c 1f bd
       -0.012181697 0.06871365 -0.023938004 -0.038845774
000110 74 08 8a 3d 90 95 38 3d 9f 7a 1e bd 94 77 ea bb
       0.067398936 0.04506451 -0.03869116 -0.007155368
000120 96 4d 64 bd 00 5b 77 bd 38 6b dc 39 56 32 20 bd
       -0.055738054 -0.06038952 0.00042041554 -0.039110504
000130 33 6d ba 3d d5 41 5c bc 9d e0 70 bd f1 85 d6 3c
       0.09102859 -0.01344343 -0.058807958 0.026186915
000140 76 a0 f0 bc e6 16 0a bd 66 20 ad bb b8 a6 97 bd
       -0.029373389 -0.033713244 -0.005283403 -0.07404846
000150 8d 79 3e 3d a8 d2 0d 3d be 66 20 bd c4 e2 ae 3c
       0.04650264 0.034624726 -0.039160483 0.021348365
000160 ef 12 ee 3b d8 08 7a 3d 34 9f 07 bd 71 5e bc 3c
       0.0072654407 0.06104359 -0.033110812 0.022994252
000170 fa dc 2b 3d bd 92 84 3c 56 f2 2b bd ed ee b4 3d
       0.041958787 0.016183252 -0.041979156 0.08834634
000180 a7 a1 86 3b c1 a3 08 bd 39 2a 45 3d 72 73 48 bd
       0.004108626 -0.033359293 0.04813597 -0.048938222
000190 73 d6 5d bc e8 10 b6 3c 45 a9 dd bb ac b4 23 3d
       -0.013539898 0.022224858 -0.0067645633 0.039967224
0001a0 11 7b 74 bd 4e c4 6f 3c bc 58 c8 3c 9f af 40 3d
       -0.059687678 0.014634205 0.024456374 0.047042485
0001b0 15 c4 d9 3c a9 67 5c 3d da f6 e1 3c 2f d6 79 3a
       0.026582757 0.053809796 0.027583528 0.0009530512
0001c0 4c 64 98 bc 93 e7 94 3d fc c4 c4 3a c3 05 09 bd
       -0.018602513 0.07270732 0.0015012319 -0.03345276
0001d0 f3 fe ce bc 16 64 9d 3c c0 c7 37 bd 46 aa 82 bc
       -0.025268054 0.019212764 -0.04486823 -0.015950333
0001e0 d2 22 9e bc fc 12 0d 3d d7 06 9d bd c3 b5 8e 3c
       -0.019303713 0.034441933 -0.0766732 0.017420655
0001f0 6b b9 8a bc f3 ae 2e bc 76 2c 13 3d 52 c5 ea 3c
       -0.016934117 -0.010661828 0.035931073 0.028658543

layers.2.running_mean f4 [128]
000000 15 d3 9c 3c 76 2f da 3b 3a 40 9e 2d 04 00 00 00
       0.01914362 0.00665849 1.7991043e-11 6e-45
000010 04 00 00 00 04 00 00 00 8c 01 00 00 95 f8 cc 41
       6e-45 6e-45 5.55e-43 25.621378
000020 00 00 00 00 f0 0d 03 3c d2 48 c6 3c 04 00 00 00
       0.0 0.007998928 0.024204645 6e-45
000030 de ca 74 3c 04 00 00 00 04 00 00 00 1e da 75 2a
       0.014940945 6e-45 6e-45 2.1836046e-13
000040 04 00 00 00 d2 ec f0 42 00 00 00 00 00 24 09 3c
       6e-45 120.46254 0.0 0.0083703995
000050 00 00 00 00 10 e7 4a 3c 00 00 00 00 00 00 00 00
       0.0 0.012384191 0.0 0.0
000060 36 54 5c 3b 63 92 57 3c 5f 30 16 43 04 00 00 00
       0.003361953 0.01315746 150.18895 6e-45
000070 70 fd 8b 3c bf 2c 72 42 32 c8 fe 3b 04 00 00 00
       0.017088622 60.543697 0.00777533 6e-45
000080 a7 00 00 00 33 b3 04 3c 96 56 ba 3b 04 00 00 00
       2.34e-43 0.008099365 0.0056865914 6e-45
000090 00 00 00 00 04 00 00 00 76 e0 f0 41 04 00 00 00
       0.0 6e-45 30.1096 6e-45
0000a0 18 20 c6 41 00 00 00 00 2d 0c 00 00 00 00 00 00
       24.76567 0.0 4.368e-42 0.0
0000b0 cd 55 39 3b 49 37 0f 3c 04 00 00 00 00 00 00 00
       0.00282799 0.008741208 6e-45 0.0
0000c0 e3 e3 9d 3c 0d 65 01 00 04 00 00 00 76 26 00 00
       0.019273704 1.28086e-40 6e-45 1.3797e-41
0000d0 00 00 00 00 00 00 00 00 da 4c 9a 3c 57 ca 80 3c
       0.0 0.0 0.018835474 0.015721483
0000e0 05 a3 ea 00 4c 3f 07 3c 89 48 b4 43 4d 15 a1 3b
       2.1547986e-38 0.008254837 360.56668 0.0049158693
0000f0 67 2e 9c 3c 2d 8b 88 02 48 8e cb 08 6a d2 27 3c
       0.019065095 2.0063287e-37 1.2251068e-33 0.010243038
000100 00 00 00 00 04 00 00 00 fb a6 a7 3c 04 00 00 00
       0.0 6e-45 0.020465365 6e-45
000110 72 d3 e5 42 6c e9 b9 3c 04 00 00 00 6e f4 b0 02
       114.91298 0.022694312 6e-45 2.6001171e-37
000120 17 e9 4e 42 8f 32 1f 3c 00 00 00 00 f5 f7 af 3c
       51.727627 0.009716644 0.0 0.02148054
000130 fa 42 8e 3c c5 79 a7 42 00 00 00 00 d0 51 d3 3b
       0.017365921 83.73783 0.0 0.006448962
000140 2b bd 91 41 82 59 c5 08 04 00 00 00 00 00 00 00
       18.217367 1.1877549e-33 6e-45 0.0
000150 d4 10 fb 41 14 48 94 3c 56 70 a9 41 8b d4 ba 41
       31.383217 0.018100776 21.179852 23.35378
000160 00 00 00 00 a8 01 52 44 09 ca aa 3c 04 00 00 00
       0.0 840.0259 0.020848291 6e-45
000170 0f 00 00 00 e3 13 4e 43 04 00 00 00 c2 53 b8 3c
       2.1e-44 206.07768 6e-45 0.022500876
000180 43 29 43 2a 64 21 16 3c 09 24 86 3b 02 42 19 3c
       1.7333795e-13 0.009163234 0.004093651 0.009354116
000190 5f 97 e8 41 28 a6 b7 3c 91 15 b5 3b 2c c7 fa 42
       29.073912 0.022418097 0.0055262526 125.38901
0001a0 00 00 00 00 54 de 05 3c b3 3f a7 3c 00 00 00 00
       0.0 0.008170683 0.020416116 0.0
0001b0 04 00 00 00 3e a7 66 3c d2 bf 5f 41 0a f0 97 3c
       6e-45 0.01407796 13.984331 0.018547077
0001c0 71 f5 28 3c 86 3d cd 3b 00 00 00 00 4a c5 b1 3c
       0.010312424 0.0062634377 0.0 0.02170052
0001d0 04 00 00 00 b3 c7 bd 42 04 00 00 00 f2 3b 94 42
       6e-45 94.89004 6e-45 74.11708
0001e0 04 00 00 00 d4 00 dc 41 33 94 46 3c 04 00 00 00
       6e-45 27.500404 0.012120294 6e-45
0001f0 8b 2e 22 3b 00 00 00 00 e0 77 4e 3c 04 00 00 00
       0.002474698 0.0 0.012601823 6e-45

layers.2.running_var f4 [128]
000000 7b d3 dc 3b 3e b8 55 3a b2 1e 0b 2e 04 00 00 00
       0.0067390776 0.00081527594 3.1632204e-11 6e-45
000010 04 00 00 00 04 00 00 00 1a 02 00 00 61 e6 94 42
       6e-45 6e-45 7.54e-43 74.44996
000020 04 00 00 00 ed 36 9a 3a 9b 82 30 3c 04 00 00 00
       6e-45 0.0011765637 0.010773326 6e-45
000030 dc 82 86 3b 04 00 00 00 04 00 00 00 f6 2b d1 2a
       0.004104955 6e-45 6e-45 3.7156362e-13
000040 04 00 00 00 41 4f e3 44 04 00 00 00 05 df a8 3a
       6e-45 1818.4767 6e-45 0.0012883848
000050 04 00 00 00 f1 d3 38 3b 04 00 00 00 04 00 00 00
       6e-45 0.0028202499 6e-45 6e-45
000060 6d ed 59 39 3f a1 50 3b 2e 4c 14 45 04 00 00 00
       0.0002078318 0.0031834391 2372.7612 6e-45
000070 05 f6 af 3b 74 18 52 44 98 b6 91 3a 04 00 00 00
       0.005369904 840.3821 0.0011117039 6e-45
000080 b8 00 00 00 92 1c 9e 3a 93 e1 1b 3a 04 00 00 00
       2.58e-43 0.0012062958 0.0005946394 6e-45
000090 04 00 00 00 04 00 00 00 51 40 a9 43 04 00 00 00
       6e-45 6e-45 338.50247 6e-45
0000a0 d5 a0 e4 42 04 00 00 00 1c 01 00 00 04 00 00 00
       114.314125 6e-45 3.98e-43 6e-45
0000b0 6e 42 1a 39 f3 29 b8 3a 04 00 00 00 04 00 00 00
       0.00014711331 0.0014050588 6e-45 6e-45
0000c0 62 d6 df 3b 6d ed 02 00 04 00 00 00 8e 74 00 00
       0.0068309763 2.68843e-40 6e-45 4.1812e-41
0000d0 04 00 00 00 04 00 00 00 33 c6 d5 3b b5 ee 94 3b
       6e-45 6e-45 0.0065238713 0.0045450577
0000e0 87 b0 84 01 61 3d a4 3a e8 af 59 46 c5 fa e8 39
       4.8742446e-38 0.0012530499 13931.977 0.00044437326
0000f0 aa 04 db 3b 01 67 2e 03 d6 d6 0c 09 34 e2 fc 3a
       0.0066839056 5.1252247e-37 1.6952902e-33 0.0019293488
000100 04 00 00 00 04 00 00 00 42 5f fc 3b 04 00 00 00
       6e-45 6e-45 0.0077017853 6e-45
000110 c3 d7 a8 44 62 2b 1b 3c 04 00 00 00 31 9c 69 03
       1350.7426 0.0094707925 6e-45 6.8651845e-37
000120 54 70 c6 43 2c 8f e3 3a 04 00 00 00 ed 03 0b 3c
       396.87756 0.0017361394 6e-45 0.008484823
000130 d0 b7 b5 3b c1 cd 42 44 04 00 00 00 fe 7a 48 3a
       0.005545594 779.2149 6e-45 0.0007647722
000140 85 40 0b 42 6d 54 8b 09 04 00 00 00 04 00 00 00
       34.813007 3.3542426e-33 6e-45 6e-45
000150 5d 4d 81 43 28 6c c5 3b e2 e3 a8 42 43 9b 7e 42
       258.6044 0.006024856 84.44508 63.651623
000160 04 00 00 00 64 47 a2 47 cc f3 02 3c 04 00 00 00
       6e-45 83086.78 0.007992696 6e-45
000170 18 00 00 00 cc f1 81 45 04 00 00 00 1a 89 18 3c
       3.4e-44 4158.2246 6e-45 0.009310031
000180 82 9e d9 2a 4f 60 ca 3a 8a 90 a1 39 4e e5 d2 3a
       3.865693e-13 0.0015440079 0.00030816003 0.0016090067
000190 6f 39 8c 43 50 6a 17 3c 09 37 13 3a e0 21 fc 44
       280.4487 0.0092416555 0.0005615806 2017.0586
0001a0 04 00 00 00 88 e8 a0 3a ad 28 fb 3b 04 00 00 00
       6e-45 0.0012276331 0.007664761 6e-45
0001b0 04 00 00 00 b3 d7 6e 3b 15 9a 3c 42 2c 47 cf 3b
       6e-45 0.0036444485 47.15047 0.006325623
0001c0 08 29 00 3b 32 1c 3d 3a 04 00 00 00 8f e0 0d 3c
       0.0019555707 0.0007213979 6e-45 0.008659496
0001d0 04 00 00 00 ed 21 7f 44 04 00 00 00 6c 68 45 44
       6e-45 1020.5301 6e-45 789.6316
0001e0 04 00 00 00 ea ef 80 43 e9 08 31 3b 04 00 00 00
       6e-45 257.87433 0.0027013368 6e-45
0001f0 e2 23 ec 38 04 00 00 00 91 61 3f 3b 04 00 00 00
       0.000112600406 6e-45 0.0029202441 6e-45

layers.3.weight f4 [128, 128]
000000 c7 42 0a bd bc 3c 76 3c 1f 0b 71 bc 64 bb 84 bc
       -0.03375509 0.015029129 -0.014712124 -0.016202636
000010 de cc 04 bc 20 66 10 ba ef 92 2a bd e8 00 de bc
       -0.008105485 -0.0005508382 -0.041644033 -0.027100042
000020 60 11 68 3d 9e 8a a4 bd cc aa 30 3c 83 fb 30 bd
       0.056657195 -0.08034252 0.010782909 -0.04320861
000030 6c 81 d0 3c 34 1f 00 be d1 e9 64 bc be 0b 30 bc
       0.025452338 -0.12511903 -0.013971762 -0.010744987
000040 e7 f5 b1 bc 4f 27 40 be 22 4b dd 3c ac 74 bb bd
       -0.0217237 -0.18764995 0.027013365 -0.09153113
000050 bc ff 6c 3d ed 40 84 3d b4 ad a7 bc 03 50 28 bd
       0.057861075 0.06457696 -0.02046857 -0.04109193
000060 51 c1 ec 3c 43 e6 91 bd 68 9f 4f bd 9b e4 11 bd
       0.028900774 -0.07123997 -0.05068913 -0.035618406
000070 ee fd 88 bd 57 23 a7 bd e6 f6 94 bc 18 2a 34 3d
       -0.06689058 -0.081610374 -0.018184137 0.043985456
000080 0d c6 d7 3c 8a 1c 9f 3a 5f 05 4c 3d 29 f7 6a 3d
       0.026339555 0.0012139243 0.04980981 0.057364617
000090 54 0d 90 3a 32 69 51 3d c6 f7 66 bd bb dd f2 3c
       0.00109903 0.051125713 -0.05638864 0.029646745
0000a0 58 aa aa bb ab 34 f9 bc 20 28 54 3d ef 9f 15 bb
       -0.005208295 -0.030420622 0.05179608 -0.0022830924
0000b0 89 3c e4 3d c0 cc a8 bd 04 f8 89 bd dc ea 26 3c
       0.11144359 -0.08242178 -0.06736758 0.010187831
0000c0 97 5e 2c bc 68 c3 13 be c6 95 ce 3a f7 30 af 3d
       -0.010520599 -0.1443001 0.0015761189 0.08554261
0000d0 1b 56 1d 3d 69 b0 cd 3c 7d ed 74 3c 4d da 9a 3d
       0.038412195 0.025108533 0.0149492 0.07561169
0000e0 40 9a 18 bd 74 6f 12 3d e9 50 cf bd 14 08 8e bd
       -0.03725648 0.03575082 -0.10122854 -0.069351345
0000f0 cc 98 a2 3d ea 47 24 bb c6 77 c9 bd cf 19 d6 3c
       0.079393 -0.0025067278 -0.09837298 0.026135353
000100 fe 96 5f bd 12 36 44 bd 31 da 12 bd 2c 97 a1 3d
       -0.054587357 -0.047903128 -0.035852615 0.07890162
000110 15 87 41 bd cf 3d 9d bd be 61 7b 3d 44 e5 13 3d
       -0.047247965 -0.07677805 0.06137251 0.036107317
000120 5c 99 cb bd 77 2e 5d bd 9d ec ce bc 48 b6 d5 bc
       -0.0994136 -0.05399939 -0.02525931 -0.026087895
000130 fe 48 ae 3b fe c9 95 bc 48 5a d5 bb 05 72 15 bd
       0.00531876 -0.018284794 -0.0065110065 -0.03648569
000140 62 8c c2 bc 72 9e 73 bd c2 59 1a bd fc 33 cb 3c
       -0.02374858 -0.059477277 -0.037683256 0.024805062
000150 0f 26 1f 3d 08 df 5a bd 9a 3b 7e 3d b4 f2 b3 3d
       0.038854655 -0.053435355 0.06206856 0.08786526
000160 3c c5 54 3c 27 33 db bd 01 63 c0 3c db 4a 34 bd
       0.012986477 -0.10703116 0.023484709 -0.0440167
000170 4e 37 1b 3c 3f d8 c1 bd ba 8d 8f bd 92 d4 f3 bd
       0.009473635 -0.09465074 -0.07009454 -0.11905779
000180 c3 3c 18 be 64 0f e6 3c 47 d5 b5 3d ff f6 b8 bd
       -0.14866929 0.02808351 0.0887857 -0.09031486
000190 4b d7 40 bd 71 6c 40 3c bf 32 44 bd 8b a1 be bd
       -0.04708032 0.011744604 -0.047899958 -0.093081556
0001a0 8e 15 89 bb b4 56 a2 3b 86 93 d4 bc 20 12 7b bd
       -0.0041834777 0.0049541835 -0.02594925 -0.061296582
0001b0 e3 53 26 bc 57 7a 28 bd b6 ba 25 3d 87 a7 b3 3c
       -0.010151836 -0.041132297 0.040461265 0.02193047
0001c0 93 06 85 3d cb 33 77 bc e5 ed 99 bd 69 5c 94 3c
       0.064953946 -0.015088032 -0.07516078 0.01811047
0001d0 12 83 b1 bd 06 9c 06 bd db 1f a9 3d 63 3a 0e be
       -0.08667578 -0.03286364 0.08258029 -0.1388946
0001e0 63 c1 f8 3d fd eb d8 3c 8c a6 9f bd 69 c9 1a 3d
       0.121462606 0.026479715 -0.07795438 0.037789736
0001f0 58 6e 01 bd da cf 47 bd 34 82 21 3e 4b 29 c0 bd
       -0.031599373 -0.048782207 0.15772325 -0.09382876
000200 b2 88 f7 bc 7c 11 91 bd b2 63 3c 3d e5 6a 41 bd
       -0.030216549 -0.07083413 0.045993514 -0.047221083
000210 44 b9 02 3d 9a 48 1a bc c9 86 c9 3d 0f f1 72 be
       0.031914964 -0.009416724 0.09840161 -0.23724769
000220 0b 7f 3e bd 3e e8 83 bd d9 1c 4f bd c0 cb fc bc
       -0.046507876 -0.06440781 -0.05056462 -0.030858874
000230 fd dc c0 3b e6 bf d6 bd 33 54 c2 3c 38 99 6e 3d
       0.005885719 -0.104858205 0.02372179 0.05825159
000240 63 ab 36 bd 62 03 d0 bd 33 08 71 3c c8 a2 57 3d
       -0.04459704 -0.10156895 0.0147114275 0.052645475
000250 d1 37 76 bd 46 b9 a9 bc 8b 2e 94 3c 33 f3 76 bb
       -0.060111824 -0.020718228 0.0180886 -0.003768158
000260 1b 1d 83 38 2c 90 ea bd 05 0d 66 3d 89 68 3a bd
       6.251988e-05 -0.1145328 0.05616476 -0.04550985
000270 83 09 3b bb 1e f2 f7 bb fa fc 91 3c 94 db 8a bd
       -0.0028539605 -0.0075667044 0.017820824 -0.067801625
000280 d0 97 c4 3c fb 35 11 3a 43 0f f2 bc b6 f5 09 bd
       0.023998171 0.0005539355 -0.029548293 -0.033681594
000290 a1 0a 29 bd d6 7d 63 bb f3 e2 c8 3d ae df fd 3c
       -0.041269902 -0.0034712455 0.09808912 0.030990448
0002a0 ac fd e7 3d 3f 25 1f 3b 7e 44 9b bc a8 b3 94 bc
       0.11327681 0.0024283675 -0.018953558 -0.018152073
0002b0 e9 c9 0c bd 73 db d1 bd 30 e8 37 3d a8 67 7c bd
       -0.034372244 -0.10246935 0.044899166 -0.06162229
0002c0 af c6 9d 3d be 71 ed 3c d1 0d a1 3d e3 3a b2 3d
       0.077039115 0.0289849 0.078639634 0.08702638
0002d0 65 20 5b 3c 95 03 2e bd 14 92 06 3d 6d 18 f2 bc
       0.013374423 -0.042483885 0.032854155 -0.029552663
0002e0 d5 13 ab bd cd b4 02 3b 31 77 00 be 8d f6 b1 3d
       -0.08353392 0.0019944191 -0.12545468 0.08689604
0002f0 25 cb 28 3b f5 2f 89 3d 56 da 7e bd 6c fb ae 3d
       0.002575585 0.066986 -0.06221994 0.08544049
000300 a0 67 8d ba 57 7c 99 bd cd cc 05 bc 9f 4d 01 bc
       -0.0010788329 -0.07494419 -0.008166504 -0.0078920415
000310 5e 2a d4 bb 38 77 b1 bc c5 60 5a 3d 95 6c 24 bd
       -0.006474777 -0.021663293 0.053314943 -0.040142614
000320 0d 53 bb 3b b1 69 5e bd 93 20 9b bd 46 a5 4a 3d
       0.0057166875 -0.054300014 -0.075745724 0.049474023
000330 26 46 91 bd 31 8c af bd 28 a9 a0 3d ff a7 b8 bd
       -0.07093458 -0.08571661 0.07844764 -0.09016418
000340 79 a5 be 3d 0f b0 0b 3d 75 c3 6b bd d2 a8 3f bd
       0.09308905 0.03410345 -0.05755945 -0.04679186
000350 95 06 26 bd 91 ed 0b 3d 4a 66 93 3d 44 f4 b4 3d
       -0.04053362 0.034162108 0.071972445 0.088356525
000360 96 15 84 bd 49 0c 45 bd fd 38 c5 3c 5f ef c7 3c
       -0.0644943 -0.04810742 0.024075026 0.024406133
000370 2b a3 bb 3c 22 ab 98 bd e5 c7 af bd 23 24 91 bd
       0.022904953 -0.07454516 -0.08583049 -0.07086971
000380 9b f2 48 bd fc 4f de bd 87 71 33 3d 6c 0c 03 bd
       -0.04905949 -0.108550996 0.04380944 -0.03199427
000390 b1 9a a6 bd 64 af 90 bd 86 a7 87 bd 8d 5b 95 bd
       -0.08134974 -0.07064703 -0.066237494 -0.072928526
0003a0 57 28 cb 3b 1d 47 96 bd 33 96 68 bd 02 7e 78 bd
       0.0061998772 -0.073377825 -0.056783866 -0.060667045
0003b0 49 b4 3d bd 8d 26 86 bc d7 f3 60 3d e1 e0 a3 bd
       -0.04631451 -0.016375804 0.054920044 -0.080018766
0003c0 64 27 4c bd cd 84 50 bc a8 76 92 bd 6b 8b 3a 3d
       -0.049842253 -0.012726975 -0.07151538 0.045543116
0003d0 5b fa 64 3d fb fc a7 3c 0d fd 29 bd 45 e8 2a be
       0.05590282 0.020506373 -0.041501094 -0.16690166
0003e0 d8 98 81 3d a9 3d db bd f5 3f d7 bc 9a ac dd bc
       0.06327981 -0.1070512 -0.026275614 -0.027059842
0003f0 76 36 bf 3b 7e 61 4d 3d 25 c1 e2 3d 94 09 19 be
       0.0058353497 0.050141804 0.11071996 -0.1494506

layers.3.bias f4 [128]
000000 8d 2b 11 bc db 80 91 3d 08 82 92 3d 94 1c d0 bd
       -0.008860481 0.07104655 0.07153708 -0.10161701
000010 56 44 a7 bd b5 c0 b9 3c 14 84 83 bd b7 51 87 3e
       -0.08167331 0.022674898 -0.06421676 0.2642953
000020 ac f6 a3 bd 6e 4a 43 bd 88 95 d9 bd 3c e7 e0 3c
       -0.08006033 -0.047678404 -0.10624224 0.027454011
000030 72 eb 64 bd 50 ef 38 3b 08 6f 14 3e 41 f0 0c 3e
       -0.0558886 0.0028218813 0.1449548 0.13763525
000040 ee a7 cf 3d 47 3f a5 3d d8 01 c6 3d 2d a9 96 3d
       0.10139452 0.0806871 0.096683204 0.073564865
000050 c2 c3 50 bd a7 6d 1b 3d b5 e5 8f 3c dd f0 cd 3d
       -0.05096794 0.03794637 0.017565588 0.10055707
000060 f0 10 ed 3d 2c b1 ec 3d 5f 36 8e bd 78 e5 1b bd
       0.11575496 0.1155723 -0.06943964 -0.038060635
000070 1e f3 ce bc a6 50 97 3c e8 98 91 3d 1f 39 3c 3d
       -0.025262412 0.018471073 0.07109243 0.045952912
000080 97 9f 8c 3d 90 02 4a bd 3a 0f 27 3e a1 c8 4a bd
       0.06866377 -0.04931885 0.16314402 -0.04950774
000090 b2 d7 84 3d 0b a1 56 3d c8 42 3b 3c 27 f5 f1 3c
       0.06486453 0.052399676 0.011429496 0.029535843
0000a0 a8 fc b4 3d 56 7b 8d 3d 76 bb b5 3c e8 b5 4b 3c
       0.08837253 0.0690829 0.022184115 0.012433507
0000b0 3a 3b 6f 3b ce 34 ba bd 64 b7 cb bd a4 7d 4c 3c
       0.0036503808 -0.09092103 -0.09947088 0.012481127
0000c0 45 95 6c 3d a0 c9 ab bd 69 9a 03 3d d5 e8 f6 bc
       0.057759542 -0.08388066 0.03212968 -0.03014032
0000d0 82 4d b7 bc cd ad 94 bd 4f db a9 bc 2a 0e fb bb
       -0.022375826 -0.07259712 -0.020734457 -0.0076616006
0000e0 0f 8a 3c bd 28 d7 08 bd f7 ef 10 bd 9b c2 fc bc
       -0.0460301 -0.033408314 -0.0353851 -0.030854514
0000f0 68 cf f3 3b ed 72 a9 3d 25 fe 25 bd 2e 3e aa 3d
       0.0074404962 0.082738735 -0.040525574 0.08312641
000100 d6 50 9f 3d 61 1e 04 bd f0 1c f2 bc 8d 67 cf 3d
       0.0777909 -0.032255534 -0.029554814 0.101271726
000110 b4 a6 0b 3d 64 83 7c bd 4a c7 3a 3b 78 43 66 bd
       0.034094527 -0.06164874 0.0028500133 -0.056216687
000120 6e 63 15 3c 4b 48 15 be 99 38 4f 3a b1 59 54 bc
       0.009117944 -0.14578359 0.0007904857 -0.012960837
000130 67 f3 a2 3a 95 0c c3 3c 19 9b 2f be d1 57 3d 3d
       0.0012432159 0.02380971 -0.17149009 0.046226326
000140 b1 23 8d 3d d5 9e a5 3d 40 5d b4 bd 81 52 f1 bc
       0.06891573 0.080869354 -0.088068485 -0.029458286
000150 c2 48 a0 3d cd 9c 3b 3d ac 37 3b 3d e8 1f 58 bd
       0.078263775 0.045803834 0.04570739 -0.052764803
000160 e1 f8 25 3d 18 b6 12 3e 0b f2 54 3d 88 77 88 bc
       0.040520553 0.14327276 0.051988643 -0.01665856
000170 81 1b 48 bd 71 27 1e bc 73 52 31 bc be e6 d7 3d
       -0.048854355 -0.009652958 -0.01082288 0.105420575
000180 b3 21 51 3c a2 af 03 3e 65 1c ae bd b2 3b 95 bc
       0.012764382 0.12859967 -0.085015096 -0.018216942
000190 d6 c3 35 3d 0b 4a 35 bd 4a d7 bc 3d f9 61 9c bc
       0.044376217 -0.044260066 0.09220751 -0.019089686
0001a0 2b 03 95 bd d0 21 12 bd 5a 05 38 bb b4 48 6f 3d
       -0.07275995 -0.035676777 -0.0028079362 0.058418944
0001b0 b6 63 1f 3e 16 35 eb 3d 1f f4 1d 3d 98 b3 3c bd
       0.1556538 0.11484735 0.03856289 -0.04606971
0001c0 3f 03 36 3d 26 34 0e 3e c2 06 48 3d 8b ef e2 bc
       0.04443669 0.1388708 0.04883457 -0.027702114
0001d0 23 f6 bf 3d 2a 39 bf 3d 70 ba b6 3d 4f cf c6 3d
       0.09373119 0.09337075 0.08922279 0.0970751
0001e0 bf e9 98 bd 72 8a 17 bd e8 f7 71 bc 1a 74 a5 bc
       -0.074664585 -0.036997266 -0.014768578 -0.020196963
0001f0 67 0d 4b bd 3a 2a 3d 3d 79 a9 86 3d 87 b0 b2 bd
       -0.04957333 0.04618285 0.06575293 -0.08725076

layers.5.weight f4 [128]
000000 c4 97 80 3f 2e ac 80 3f 2b 49 86 3f a6 ba 81 3f
       1.0046315 1.0052545 1.0491079 1.0135086
000010 87 31 83 3f c8 6e 79 3f 0a f3 7b 3f 7a 5f 8a 3f
       1.024949 0.97434664 0.98417723 1.0810387
000020 39 36 7e 3f 11 c5 75 3f 5f e7 7c 3f 1a 46 7c 3f
       0.9930149 0.96003824 0.98790544 0.98544466
000030 18 b8 77 3f 26 56 78 3f 09 9c 77 3f 81 4b 81 3f
       0.9676528 0.9700645 0.96722466 1.0101167
000040 65 e6 7d 3f 99 11 82 3f f4 f9 77 3f 56 cc 7c 3f
       0.9917968 1.016162 0.96865773 0.9874929
000050 54 a2 79 3f 54 aa 83 3f 7a 71 83 3f df 12 77 3f
       0.9751332 1.0286355 1.0269005 0.9651317
000060 c1 90 7d 3f 46 1d 89 3f 1d 41 7a 3f 96 6b 82 3f
       0.99049 1.0712059 0.97755605 1.0189083
000070 ba 51 7b 3f c0 bc 80 3f 12 d8 79 3f d5 14 85 3f
       0.9817158 1.0057602 0.9759532 1.0396982
000080 bf 83 78 3f ca d3 7b 3f 6f 48 8d 3f 97 07 72 3f
       0.9707603 0.9837004 1.103773 0.9454283
000090 66 d0 7d 3f 4f 74 7e 3f d4 aa 83 3f c2 e8 7a 3f
       0.99146116 0.9939622 1.0286508 0.9801141
0000a0 8a f0 80 3f 85 94 81 3f dc b3 78 3f d0 4a 86 3f
       1.0073407 1.012345 0.97149444 1.0491581
0000b0 dc 19 7a 3f 6c 80 79 3f 42 e8 79 3f 77 d5 7f 3f
       0.9769571 0.9746158 0.9762002 0.99935097
0000c0 eb 02 81 3f df 46 80 3f a5 5b 7d 3f 55 22 7a 3f
       1.0079015 1.0021628 0.98967963 0.97708637
0000d0 2b e1 7e 3f 19 56 82 3f 59 ac 7b 3f 8b 50 86 3f
       0.9956233 1.0182525 0.98309857 1.049333
0000e0 c3 a4 81 3f 98 42 7c 3f 2f 00 7a 3f 54 04 7d 3f
       1.0128406 0.98539114 0.9765653 0.9883473
0000f0 2f 40 80 3f d8 e0 80 3f 80 21 7d 3f 33 d9 7e 3f
       1.0019587 1.0068617 0.9887924 0.9955017
000100 9d ba 7c 3f f2 75 7c 3f 7a d0 72 3f fd 4e 80 3f
       0.9872225 0.9861747 0.9484936 1.0024105
000110 19 e4 90 3f 7e 1c 7a 3f 2b ef 78 3f 8f e0 81 3f
       1.131961 0.97699726 0.9723994 1.0146655
000120 54 dc 7c 3f 0e bf 7d 3f 67 ce 90 3f a0 04 7b 3f
       0.98773694 0.9911965 1.1312989 0.9805393
000130 e8 51 76 3f 34 ed 77 3f 7b e8 81 3f 3f 9f 8f 3f
       0.9621873 0.9684632 1.0149072 1.1220473
000140 98 20 7e 3f fa d1 7c 3f 69 d2 72 3f 9c 9a 7c 3f
       0.99268484 0.987579 0.9485231 0.98673415
000150 ca 5a 79 3f d6 01 7a 3f 66 bc 80 3f 20 ec 77 3f
       0.9740416 0.9765905 1.0057495 0.96844673
000160 e3 1e 7d 3f 48 2e 8d 3f d4 48 7b 3f 66 eb 7a 3f
       0.98875254 1.1029749 0.98158 0.9801544
000170 39 05 7a 3f cb a4 7a 3f 15 d6 80 3f 5b 1f 7a 3f
       0.9766422 0.97907704 1.0065333 0.97704095
000180 ce c6 7a 3f 64 68 93 3f 69 d3 7e 3f f0 7a 80 3f
       0.979596 1.1516232 0.99541336 1.0037518
000190 16 0e 7e 3f ac c9 77 3f 88 3e 7f 3f f0 4c 80 3f
       0.99240243 0.967921 0.9970479 1.002348
0001a0 15 74 81 3f 28 a9 7b 3f 41 35 7e 3f 97 56 76 3f
       1.011355 0.98304987 0.9930001 0.96225876
0001b0 f5 0f 83 3f c0 60 7c 3f 74 e6 7f 3f d5 50 7d 3f
       1.0239245 0.9858513 0.9996102 0.98951465
0001c0 67 b5 80 3f ef c4 81 3f 53 a3 7a 3f 21 b3 74 3f
       1.005536 1.0138224 0.97905463 0.9558583
0001d0 82 38 7e 3f e6 06 84 3f 17 8f 77 3f 1f 11 81 3f
       0.99304974 1.0314605 0.9670271 1.008335
0001e0 11 3f 80 3f 26 8e 7b 3f df 22 82 3f c1 df 7a 3f
       1.0019246 0.98263776 1.0166892 0.9799767
0001f0 2f 8b 80 3f 99 e2 80 3f 4d e5 87 3f 3a 0b 7e 3f
       1.0042475 1.0069152 1.0616852 0.9923588

layers.5.bias f4 [128]
000000 28 68 6f bb ba 72 87 3c 93 8d aa 3b d6 ae ff 3a
       -0.0036530588 0.016534198 0.0052048652 0.0019507061
000010 84 21 6d 3d e9 93 00 bb c9 4a bf 3b 13 c6 70 bd
       0.05789329 -0.0019619411 0.0058377725 -0.05878265
000020 57 84 53 bb 54 b5 9d ba 4d c3 d5 bc d5 75 32 bc
       -0.0032274926 -0.0012032189 -0.026094103 -0.010892351
000030 d8 cf d7 3c e4 4d 0b bc af e8 9a 3c 8f ab 82 3c
       0.026344225 -0.008502457 0.01890978 0.015950946
000040 71 4b cd bb 01 53 f4 3b 55 be d4 3b 16 aa 57 bc
       -0.006265097 0.007456184 0.006492416 -0.01316311
000050 11 ea ad 3b ac dd 9b bc 2d 5b f2 bc 0e d9 83 3b
       0.005307444 -0.0190266 -0.029584492 0.0040236777
000060 4a d9 22 3d a3 62 7a bd 04 4f ae 3b 83 80 cc 3c
       0.039758004 -0.061129224 0.005319478 0.024963623
000070 35 35 0b bc e0 73 c1 bc 17 7d 67 3c 46 b1 b9 bb
       -0.008496572 -0.023614824 0.014128945 -0.0056668846
000080 a9 67 02 3b 6e 28 be 3c 15 a3 3c 3d 50 08 16 bd
       0.0019898212 0.023212638 0.046053965 -0.03662902
000090 b1 07 e9 3c 22 ce 16 3d 49 8f 45 3c f2 a1 f0 3c
       0.02844605 0.036817677 0.012058088 0.029374097
0000a0 de 7d 75 bc 1c 01 91 3b 56 b3 49 bc d9 0b 47 3d
       -0.014983622 0.004425181 -0.012310823 0.048595283
0000b0 23 a6 75 3c 3e 0c fe 3b 07 c7 7e 3c 4f 9b c8 bb
       0.014993223 0.007752924 0.0155503815 -0.00612203
0000c0 fd 1a cf bc ff 7f f2 3b 6f eb 13 bb bd 59 3d 3d
       -0.025281424 0.007400512 -0.002257075 0.04622816
0000d0 59 f8 79 bc e9 35 77 3b 1f 74 81 bc cb 11 6a 3c
       -0.015256965 0.0037721342 -0.015802441 0.014286469
0000e0 a5 32 3a 3d 0f f0 13 3c 3a 42 c6 3b 95 c8 f5 bb
       0.045458455 0.009029402 0.0060503753 -0.007500718
0000f0 38 08 fa bb 23 f5 dc bc bb 39 b7 bc d1 35 ee bc
       -0.0076303743 -0.026972359 -0.022366395 -0.029078396
000100 f8 3d ec 3c e4 5d 5e 3b 81 70 ca bc 20 cc b5 3c
       0.028838143 0.0033930475 -0.02471185 0.022192061
000110 2b 2c d0 3c 00 0b fb 39 e2 65 c9 3b 70 6c be bc
       0.025411686 0.00047882646 0.0061461786 -0.023245066
000120 39 ae 17 3d 1b 3c e7 bb 3e 04 de bc 8e 4e 54 bc
       0.037031386 -0.0070567257 -0.027101632 -0.012958182
000130 f7 81 65 bb 34 fb 1b 3b 05 f9 38 3a 19 3e 64 bd
       -0.0035020092 0.0023800852 0.000705615 -0.055723283
000140 a8 db 76 bc 6a 24 9a 3c 0b ce 74 3c cf 9e 84 bc
       -0.015067019 0.018816192 0.014941703 -0.016189007
000150 d0 5f 8a bb db 3f d9 3c 3a f5 9f 3c 5e 70 4f 3d
       -0.0042228475 0.026519706 0.019526113 0.05064427
000160 a8 48 92 3c 0b 9b 30 bd 71 f3 fd 3c 46 81 d0 3b
       0.01785691 -0.04311661 0.030999871 0.006363067
000170 d3 8a 57 bc 67 62 0f 3d 94 52 bf bc 32 57 a3 3c
       -0.013155657 0.035005953 -0.023354806 0.019939039
000180 6f bf 1a 3c fc 35 8f bd 0e a6 ba ba 79 d6 c5 bc
       0.009445055 -0.069927186 -0.0014240162 -0.02415012
000190 39 ad f3 3c 01 45 16 bc 15 85 50 3c 2a 3d 79 3c
       0.029745685 -0.009171725 0.012727042 0.015212337
0001a0 46 4d 1e bc c5 66 a9 bb b5 b3 22 bd 6e 11 6e bc
       -0.009661978 -0.005169722 -0.039722163 -0.014530523
0001b0 23 f1 85 3d bb 3c 1b bc bc f2 10 bb 59 81 52 bb
       0.06540134 -0.0094749285 -0.0022117337 -0.0032120554
0001c0 67 70 db 3c ab 37 a2 bc e3 ba b7 3b 52 5b ca 3c
       0.026786996 -0.019801935 0.0056069954 0.024701748
0001d0 23 0f 15 3c 02 b4 63 bc 80 95 a0 3c 43 28 9d 3b
       0.009097847 -0.013897898 0.019602537 0.0047960593
0001e0 26 6e b1 bc bf 5e 6b 3c 47 87 14 3d 60 9b 81 3c
       -0.021658968 0.014365851 0.036261823 0.015821159
0001f0 b6 b0 0a bb 2f ab 1c 3c 26 c7 10 3b dd ea 8a bc
       -0.0021162457 0.009562298 0.0022091358 -0.016957695

layers.5.running_mean f4 [128]
000000 5b 50 9c 3e 12 d7 a5 3e 04 f9 89 3e 73 fa 6d 3e
       0.30530056 0.32390648 0.26947796 0.2324007
000010 be a2 af 3e 5e ef 90 3e 93 06 8f 3e fc f3 56 3f
       0.3430385 0.28307623 0.27934703 0.8396604
000020 e2 57 38 3e 1f 65 e2 3d 4f 09 36 3e cf 91 21 3e
       0.18002275 0.110544436 0.17776988 0.15778278
000030 39 ce 8a 3e d8 72 5c 3e 9a 5d 98 3e d2 68 a2 3e
       0.2711046 0.21528184 0.29758912 0.31720597
000040 ad a1 90 3e 4a 82 aa 3e 93 a9 c3 3e e9 4e 5c 3e
       0.2824835 0.33302528 0.38215312 0.21514477
000050 8e df 67 3e bc 4d 83 3e 1c 35 fa 3e 14 b6 5f 3e
       0.22643873 0.25645244 0.48868644 0.21846801
000060 a5 83 a9 3e 25 3a 04 3f fe f7 3f 3e 12 d7 64 3e
       0.3310825 0.5165122 0.18746945 0.22347668
000070 95 3a 58 3e 21 d0 86 3e bc 3c b4 3e 4c e0 08 3f
       0.21116097 0.26330665 0.35202587 0.5346725
000080 9c 66 61 3e 1d f2 5f 3e 6a f4 c9 3e 29 5d a9 3e
       0.22011799 0.21869703 0.39444286 0.33078888
000090 88 76 81 3e b6 21 bd 3e 58 6f a1 3e e2 43 a9 3e
       0.25285745 0.36939782 0.3153026 0.33059603
0000a0 fd 2e 9a 3e fa c6 88 3e 52 86 8c 3e 06 af 9a 3e
       0.30113974 0.26714307 0.27446228 0.30211657
0000b0 b3 28 c2 3e 80 15 de 3d aa 39 3f 3e 8a 67 94 3e
       0.37921676 0.108439445 0.18674341 0.28985244
0000c0 d1 4f a2 3e 84 f8 63 3e 75 dd 8f 3e 4e 20 67 3e
       0.3170152 0.2226277 0.28098646 0.22570917
0000d0 b2 d5 67 3e 88 19 4a 3e e1 99 26 3e 8a 4a a2 3e
       0.22640112 0.19736302 0.16269638 0.31697494
0000e0 16 91 f5 3e 18 df 35 3e 3a e5 a1 3e 2f f7 97 3e
       0.47962254 0.17760885 0.31620198 0.29680774
0000f0 16 d1 8e 3e 01 1e 9d 3e 49 34 ff 3d f8 94 83 3e
       0.27893895 0.30686954 0.124611445 0.25699592
000100 89 b4 af 3e 70 5a 71 3e c6 e0 81 3e 2f b8 83 3e
       0.34317425 0.23569655 0.253668 0.25726458
000110 cb 93 df 3e 46 89 71 3e 14 35 6a 3e 8c cb 12 3e
       0.43667445 0.23587522 0.2287181 0.1433546
000120 bf 84 9e 3e 18 d8 31 3e a9 9d 8e 3e 64 fd 49 3e
       0.30960652 0.1736759 0.2785466 0.19725567
000130 3d 65 4b 3e 6b 4a 3a 3e e5 49 d0 3e 4e cc f6 3e
       0.19862838 0.1819245 0.40681377 0.48202747
000140 f0 6d ba 3e 0e c9 4f 3e a4 f0 30 3e b1 84 a8 3e
       0.36412 0.2029154 0.17279297 0.32913736
000150 96 a5 82 3e c6 74 b4 3e 05 9e 9b 3e a1 8a 42 3e
       0.25516957 0.3524534 0.30393997 0.18998195
000160 5f 04 a9 3e dd 88 1d 3f e3 43 46 3e 52 0a 48 3e
       0.33011147 0.6153696 0.19361834 0.19535187
000170 e8 eb 4f 3e 47 69 32 3e 9a d2 29 3e ba 94 92 3e
       0.20304835 0.17422973 0.16584244 0.28629094
000180 4a e8 96 3e 8d 8d 4b 3f 38 01 2d 3e d3 65 81 3e
       0.29474097 0.79512864 0.16894996 0.25272998
000190 0f c6 98 3e a1 7b 27 3e 7f 6a 8f 3e a4 76 ac 3e
       0.29838607 0.16355754 0.28010938 0.33684266
0001a0 ac e6 29 3e 4b 83 7d 3e 56 c5 a2 3e 93 ad 8d 3e
       0.165919 0.24757116 0.3179118 0.2767149
0001b0 ad 3b 22 3f a0 bd ee 3e 80 6d 96 3e 5e fb 3f 3e
       0.6337231 0.46629047 0.29380417 0.18748233
0001c0 a6 94 c9 3e e9 e8 08 3f bd 68 b8 3e 4d 77 1a 3e
       0.39371222 0.5348039 0.3601741 0.15084572
0001d0 1a 7c 0d 3f 06 47 f3 3e bc 68 94 3e 24 bc 7c 3e
       0.5526749 0.47515124 0.28986156 0.24681145
0001e0 d8 60 34 3e 3b f8 22 3e d3 46 c3 3e be 44 a1 3e
       0.17615068 0.15915005 0.38139972 0.3149776
0001f0 ba 6d a8 3e e0 54 79 3e 3b f8 18 3f 38 89 23 3e
       0.32896215 0.24348783 0.5975377 0.15970314

layers.5.running_var f4 [128]
000000 99 da af 3e 8c 92 22 3e 4c ed 64 3e 38 0d b1 3e
       0.34346464 0.15876216 0.22356147 0.34580398
000010 ae 5d a5 3f bf 65 b6 3d 84 4b 6c 3f 6e 44 5b 3e
       1.2919214 0.08906125 0.9230273 0.21412823
000020 f0 78 a9 3e bc e5 e8 3d cb 45 10 3e 22 9c 1e 3d
       0.3310008 0.11371943 0.14089124 0.03872312
000030 4a 2f c9 3d bf a4 6e 3d f2 80 bd 3e 79 7b 86 3e
       0.09823473 0.058262583 0.3701244 0.26266077
000040 8a f8 b6 3d e2 46 e3 3d fb 9b 42 3e 0f 80 9f 3d
       0.08934124 0.11097504 0.19004814 0.07788097
000050 1a 05 be 3d 3e c9 a1 3e 56 bc 08 3e 6a d6 95 3e
       0.09278317 0.31598848 0.13353094 0.29265147
000060 02 e6 a5 3d 95 4e b3 3d 04 3c 90 3e f6 74 25 3d
       0.08100511 0.08755223 0.28170788 0.040394746
000070 89 4a 05 3f a2 08 01 3f 7b ca bd 3f 20 6a a4 3e
       0.52066857 0.504038 1.4827417 0.32112217
000080 f6 cf 88 3d 37 e4 39 3f 24 18 0b 3e 67 19 33 3d
       0.066802904 0.72613853 0.13583428 0.043725397
000090 bb b5 2c 3e 2c be da 3f 6d 92 23 3e 04 b2 6f 3f
       0.168662 1.7089286 0.15973826 0.93631005
0000a0 fe a1 b5 3d 65 17 1a 3f c6 c8 32 3e 97 b0 2b 3e
       0.08868788 0.6019195 0.17459401 0.16766582
0000b0 c5 22 70 3e 72 71 1e 3d b0 33 b8 3e af 25 2d 3f
       0.23450764 0.03868241 0.35976934 0.67635626
0000c0 5f 27 0e 3e c3 ee 25 3e 07 26 ae 3d 30 4d 9e 3e
       0.13882206 0.16204362 0.08503347 0.30918264
0000d0 9c cb b9 3e 74 85 dc 3e c3 8e 9f 3e f0 77 81 3e
       0.36288154 0.43070567 0.31163606 0.25286818
0000e0 85 f2 5b 40 7a 7e 9e 3e 1d d5 4e 3e 37 4c 1c 3e
       3.4366772 0.3095587 0.20198484 0.15263449
0000f0 45 94 07 3f 63 39 45 3d 3e 83 a1 3d cc e7 3d 3f
       0.52960616 0.04815043 0.078863606 0.7418182
000100 f2 47 a2 3d ca 0d e5 3e 6c 1d 42 3d a0 d3 b5 3d
       0.07923879 0.44737083 0.04739134 0.08878255
000110 44 4c 40 3e e1 37 3a 3f 8f 62 7e 3e 8e 22 ab 3d
       0.18779093 0.72741514 0.24842285 0.083562
000120 45 92 46 3f 66 76 ca 3d 95 45 38 3e 60 82 d2 3e
       0.7756694 0.09885864 0.17995293 0.41115093
000130 04 3d 82 3e 8d b3 31 3e e0 08 08 40 54 77 a7 3e
       0.25437176 0.1735365 2.1255417 0.32708228
000140 1b 56 28 3e b9 0f e8 3e 47 9a 78 3e c8 0e 3b 3e
       0.16439097 0.45324495 0.24277602 0.18267357
000150 8b 58 6a 3d 71 67 cc 3d 1c b9 d2 3e b7 34 bd 3d
       0.057213347 0.099806674 0.41156852 0.0923857
000160 e9 3d 31 3e e2 28 54 40 70 a8 ea 3d 5d d3 5b 3e
       0.17308773 3.3149953 0.11457908 0.21467347
000170 bc a2 62 3e 9a af af 3e 36 3b d1 3d 6b fa 73 3d
       0.2213239 0.3431366 0.10216372 0.05956499
000180 06 25 1a 3f ad 32 da 3e 0e 78 64 3d 55 1b 4c 3f
       0.60212743 0.42616788 0.055778556 0.79729205
000190 a8 b2 0d 3f 09 8b 7b 3d 76 78 c3 3d 47 c9 10 3e
       0.5535073 0.06141189 0.095444605 0.14139281
0001a0 4b 8f 99 3d 0a 02 ff 3d 86 a3 ba 3d f9 6b 48 3e
       0.07498034 0.12451561 0.09113221 0.19572438
0001b0 45 f5 7a 40 5c 95 5a 3e 2d dc 9c 3e 03 91 93 3e
       3.92122 0.21346039 0.3063673 0.28821573
0001c0 a9 34 1e 3e 0c ab 41 3e 5e 0a e7 3d a6 75 c0 3e
       0.15449776 0.18912905 0.11281274 0.3758976
0001d0 b7 f2 34 3e b2 bb 9a 3e 11 af 1c 3f 09 fe 46 3e
       0.17670713 0.30221325 0.6120463 0.19432844
0001e0 c7 e0 49 3e 2f de f3 3d e1 ac 81 3e 05 d5 94 3d
       0.19714652 0.119076125 0.2532721 0.07267193
0001f0 a0 df 00 3f 8e 23 dd 3d e0 49 c8 3e db 4e 85 3d
       0.50341225 0.10797797 0.39118862 0.06509181
