model/trained_model.pth (torch, 5387 bytes, 7 tensors)

layers.0.weight f4 [64, 5]
000000 67 ec 94 3b e0 b3 ac 3e b0 92 c1 3d 01 71 e0 3d
       0.004544783 0.33730984 0.094518065 0.10959054
000010 26 01 ae 3e a5 b9 84 3e c0 f4 6d 3d 80 82 d6 3d
       0.3398525 0.25922886 0.05809474 0.1047411
000020 3f 95 e8 3e d2 3c 9d bd e5 9a d3 3d 30 79 c7 3e
       0.45426366 -0.07677616 0.10332278 0.38959646
000030 bd bf 28 3d 14 29 29 3d 07 4d c2 be 78 4b e3 3e
       0.04119848 0.04129894 -0.37949392 0.44393516
000040 70 2b 42 3b 59 22 dd bb 49 d5 53 3e 30 43 7a bc
       0.0029627942 -0.0067484793 0.2068683 -0.015274808
000050 4c 7e fd bd 17 48 3a be 14 79 b4 3e a9 34 e5 bd
       -0.12377605 -0.18191563 0.35248625 -0.11191685
000060 21 23 96 be 19 03 9f 3d fd 67 c0 3e 18 a1 86 be
       -0.29323676 0.07764263 0.37579337 -0.2629478
000070 3c 24 af 3e 1c bd 0b 3e d2 e5 e2 be 98 5f 07 3c
       0.34207332 0.13646358 -0.44315964 0.008262537
000080 d1 24 6b be b0 b3 ca be 80 6b d1 3d 60 87 f2 bc
       -0.22963263 -0.39590216 0.10225582 -0.029605567
000090 2f 46 94 3e d3 25 cf be 2f 29 7f 3e d8 f7 94 3b
       0.28959796 -0.40458545 0.24918054 0.004546147
0000a0 4c b0 72 be 99 4d 4b be f7 22 c5 be 6a 89 84 3e
       -0.23700064 -0.1985382 -0.3850324 0.2588609
0000b0 98 85 c8 3e 20 a3 c0 3e c3 d8 3c 3e e6 8e 40 3e
       0.39164424 0.37624454 0.18442063 0.18804511
0000c0 c5 5b c4 3e a5 a4 b7 3d ad 5d a1 3d 9a 67 d6 3e
       0.38351265 0.0896695 0.07879195 0.41875917
0000d0 73 b3 8d 3e b1 d5 88 be 48 cd 70 3e b0 19 df 3e
       0.2767597 -0.26725534 0.23515809 0.43574286
0000e0 ca 3d e5 3d 79 6b 9d be 05 8b 12 be 0b f0 b1 be
       0.11193426 -0.30746058 -0.14310844 -0.3475345
0000f0 02 6e da 3e 84 8c 79 be ea d0 6b 3d 89 72 99 be
       0.42662054 -0.24370009 0.057572283 -0.29970196
000100 34 ea 1b bd f8 43 e3 be 3a 87 90 be 9c 4e cb be
       -0.03806515 -0.44387794 -0.2822817 -0.39708412
000110 0b 75 18 3d fe 6a 6d 3e 6a a9 8f be ff 28 b7 be
       0.037220996 0.23185346 -0.2805894 -0.35773465
000120 f2 2e aa be 61 c5 87 be 11 53 f3 bd a6 5d 9e 3d
       -0.3323894 -0.26517776 -0.11881078 0.07732706
000130 a5 f3 95 3d e0 a3 ca bd 3b 64 97 bc c1 e0 bf 3e
       0.07321862 -0.09894538 -0.01848041 0.3747616
000140 f5 60 df 3e 76 39 99 be 1a f4 a4 be 3b c6 b8 bd
       0.4362866 -0.29926652 -0.32217485 -0.090221845
000150 7f e5 94 be 75 59 a3 bd 2f 59 85 3e e2 0a 93 3d
       -0.29081342 -0.07976047 0.26044604 0.0717981
000160 d6 c1 82 3e 69 17 b2 3b 53 cb 38 3e 54 d6 85 3e
       0.2553851 0.0054349196 0.18046312 0.26140082
000170 62 6c d9 be f7 0e 92 3e 1f bf b3 be d3 42 3c be
       -0.42465502 0.28527042 -0.3510675 -0.18384866
000180 9f 26 ba 3d d2 c6 3d 3e 57 40 8e 3e da 68 af 3d
       0.09089398 0.18532875 0.27783462 0.08564921
000190 60 70 b9 be fd 8b 0b be b4 b9 fa 3c ec b0 5b 3e
       -0.36218548 -0.1362762 0.030606128 0.21454209
0001a0 89 31 43 3e c9 5c c3 3e 6c 66 16 bf f6 c9 21 3d
       0.19061865 0.38156727 -0.58750033 0.039499246
0001b0 bd fd ad be 10 52 2c be 19 cb b8 be 68 e4 f0 bd
       -0.3398265 -0.1682818 -0.3609245 -0.11762315
0001c0 ce 86 94 3d c2 9e d9 be 52 1b 81 3e be 71 4b be
       0.072522745 -0.42503935 0.25216156 -0.19867608
0001d0 9f bb a6 3e 88 a8 fb bd c2 79 ce 3c 0a 66 d9 3e
       0.3256502 -0.12288004 0.025204543 0.42460662
0001e0 b6 c6 21 be 0b 3d 94 3e e0 fd cb be 4e 2c ca be
       -0.15798458 0.28952822 -0.3984213 -0.39486927
0001f0 d9 08 84 be 39 3e 8f be c4 f1 00 3e 85 51 ae be
       -0.25788 -0.2797716 0.12592226 -0.3404657
000200 65 28 b5 be 5f 9d 63 be 67 21 46 3e 3d 8a 8a 3e
       -0.3538238 -0.22228001 0.1934868 0.27058592
000210 2e ca 01 be 00 0a 28 bd ed fe 12 3e 97 84 7e be
       -0.12674782 -0.04102516 0.14355059 -0.24855267
000220 45 95 c1 be 4b 4b cf be d4 da 48 3b da 4a 55 be
       -0.37809196 -0.4048713 0.003064801 -0.20829335
000230 e1 36 7d bd a2 eb ec 3e 9c e3 f1 bd ad 65 56 be
       -0.061819915 0.46273524 -0.11810991 -0.20937224
000240 f7 a7 07 3e 35 c6 f9 bd d7 a0 dc bd c6 cb b6 be
       0.13247667 -0.12196008 -0.10772865 -0.35702342
000250 f4 47 ea 3d 12 e4 a0 be 1a f9 93 be 2b cc a1 be
       0.11439505 -0.31424004 -0.28900987 -0.3160108
000260 c8 ec a5 3e 8b b9 25 3e 99 62 e7 3d 39 91 07 be
       0.32407212 0.1618406 0.11298103 -0.13238992
000270 dc 1a ac be fd fd 2e be 55 3c e2 be af ae d8 3e
       -0.33614242 -0.17089076 -0.44186655 0.42320773
000280 15 f1 b8 3e 74 88 c5 be e7 28 3b be d2 5f 88 3e
       0.3612143 -0.38580668 -0.18277322 0.26635605
000290 6a cf da 3e c1 e0 30 3e 7b cb d5 bd 40 92 b9 3e
       0.4273637 0.17273237 -0.104392014 0.36244392
0002a0 1f bf 95 be 3e 8a 07 be 6e 5b 88 3d fd 3f 88 bc
       -0.29247376 -0.13236329 0.06658064 -0.016632074
0002b0 9c 48 07 3d e9 84 4b bd f4 fb 4f 3e 22 b4 2a be
       0.03302823 -0.0496873 0.20310956 -0.16670278
0002c0 ab 77 90 3e cb 3b 9b be 7d a4 7d bd 4b 46 f0 3c
       0.282163 -0.30319056 -0.061924446 0.029330393
0002d0 80 89 96 bc 28 e6 d2 3d e0 61 3e be ca 3d 2c 3c
       -0.018376112 0.10297805 -0.18592024 0.010512779
0002e0 22 b0 16 be dc 69 28 3e 1b df 96 bd 28 d6 f4 3e
       -0.14715627 0.16446632 -0.07366773 0.47819638
0002f0 8c c1 a9 3e 80 80 ac bd a1 32 ad 3e c8 df c9 3e
       0.33155477 -0.08422947 0.3382769 0.39428544
000300 38 22 32 bd 1a 19 6b 3e f5 0c 6a 3d 5e b2 94 3d
       -0.043489665 0.22958794 0.057141263 0.07260583
000310 bc 45 9a 3e 43 49 3f bd c4 2b df be db d1 87 be
       0.30131328 -0.046700727 -0.43588078 -0.26527295
000320 94 fa 9e 3e 1b 1b 19 3e 35 76 b8 3e 17 88 b2 3e
       0.3105055 0.14951746 0.36027685 0.34869453
000330 0e ad 7d 3d fc 44 90 3e 27 ac e3 be bf ac 26 3e
       0.061932616 0.2817763 -0.4446728 0.16276835
000340 3c b7 b3 3e 78 d3 4f be bd c3 11 3e 69 85 96 be
       0.35100734 -0.20295513 0.14234824 -0.2939866
000350 8a 49 d2 3e 8d da 0d be 8e f9 25 3e f9 7b 08 be
       0.4107173 -0.13852902 0.16208479 -0.13328542
000360 9d 89 a0 3e 8e bf 90 be bd 20 22 be 0b 5d c0 3e
       0.3135499 -0.28271145 -0.15832801 0.37570986
000370 d5 4b 7c 3e 87 68 bd be 52 c3 8a 3e 8b 29 a2 be
       0.24638303 -0.3699381 0.27102143 -0.3167232
000380 06 4b d8 bd 58 27 43 3e 06 42 d5 3e d7 67 95 3e
       -0.105611846 0.19057977 0.41651934 0.29180786
000390 88 83 4d be 53 b7 cb be 49 a6 c3 3d df 1a 65 be
       -0.20069706 -0.39788303 0.09553201 -0.22373532
0003a0 f7 e4 5f be 80 b3 bf be c9 c9 36 3e d9 c1 91 be
       -0.21864687 -0.37441635 0.17850412 -0.28468207
0003b0 ef 8d 74 bd 4d a3 d8 be 2b 93 da be 79 ae 40 be
       -0.05970567 -0.4231209 -0.42690405 -0.18816556
0003c0 61 d9 a6 be 41 62 33 be 3c 35 95 be 89 f7 c5 be
       -0.32587722 -0.1751795 -0.29142177 -0.38665417
0003d0 4b dc 91 be ca 00 c6 3e 2b 1a f3 3d 8f d9 4d 3e
       -0.28488383 0.38672477 0.118702255 0.20102523
0003e0 87 7a 72 be 7a 11 97 3e 7f 57 b1 3e 02 4e 7e be
       -0.23679553 0.2950552 0.34637067 -0.24834445
0003f0 f2 88 cd bc 02 aa 73 3e a1 2e 87 3e ad 5f 99 3d
       -0.025089715 0.23795322 0.26402763 0.07488952

layers.0.bias f4 [64]
000000 24 f0 77 be ce 26 e7 3e 3a ff dd 3e f7 24 fb 3d
       -0.242127 0.45146793 0.43358785 0.1226291
000010 97 23 aa 3d 01 9e de be af f4 4d 3e 9b 34 1e be
       0.083075695 -0.43479922 0.2011287 -0.15449755
000020 fb 09 e3 be b0 bb cb be cd 5b 4c 3e c0 5d d1 be
       -0.44343552 -0.39791632 0.19956894 -0.40891838
000030 6b e3 15 3d ce a2 17 bd 60 77 7b 3d 14 7a 27 be
       0.036593836 -0.037020497 0.06139314 -0.16355163
000040 74 3e d0 3d 3a 2b b0 be 5b 9c 06 3e db 04 89 3e
       0.10168162 -0.3440798 0.13145582 0.26761517
000050 2a 69 87 bd f5 96 64 be 51 f0 7d be c8 2c 1a 3e
       -0.06611855 -0.2232321 -0.24798705 0.15056145
000060 92 be b1 be a4 5d 8a 3e a4 aa a8 3d 05 79 af be
       -0.34715706 0.27024567 0.08235672 -0.34272018
000070 17 05 86 be 59 3a df 3e 36 db 0e be 7a 62 e0 3e
       -0.26175758 0.43599203 -0.1395081 0.43825132
000080 4a 09 45 3e f4 89 7d be dc b0 ff bc a9 cb 16 3e
       0.19241825 -0.24759656 -0.031212263 0.14726128
000090 29 75 a5 3e 66 fd b2 be e3 5c 1c 3e 22 c9 72 3e
       0.3231595 -0.34958953 0.15269808 0.23709539
0000a0 af a5 39 3d 57 a7 87 bd ac af d1 be bd 66 91 be
       0.045324024 -0.066237144 -0.4095434 -0.28398696
0000b0 a4 44 a1 be 4a c2 37 3e 7a 35 0c be fd 2a 98 bb
       -0.3149768 0.17945209 -0.13692275 -0.0046437965
0000c0 05 28 34 bc ba 7f 77 3e 09 77 62 3d ef d3 cf be
       -0.0109958695 0.24169818 0.055289302 -0.4059138
0000d0 18 14 78 3e 55 6b d9 bd 2c da 19 be bb ad 29 be
       0.24226415 -0.10616175 -0.15024632 -0.16570179
0000e0 77 ca 58 bd 52 3d 3b be 4b 18 d9 be 5f 81 a3 bd
       -0.05292746 -0.1828511 -0.42401347 -0.0798366
0000f0 f7 e4 c5 be 2e 05 6b 3e 6e d0 ad be 07 29 0d 3e
       -0.3865125 0.22951195 -0.33948082 0.13785182

layers.2.weight f4 [64]
000000 88 ad 7d 3f a7 0f 8d 3f a6 d7 7f 3f f5 8c 7f 3f
       0.9909291 1.1020402 0.9993843 0.9982446
000010 13 dc 7d 3f ac 77 7f 3f 9f 39 9d 3f 5c 06 80 3f
       0.9916393 0.9979198 1.228321 1.0001941
000020 d9 ea 7e 3f 56 89 80 3f 41 91 80 3f 50 d9 7f 3f
       0.995771 1.0041912 1.0044328 0.9994097
000030 fb 72 7f 3f ab 78 7d 3f 29 6a 81 3f a3 e5 7d 3f
       0.9978482 0.9901225 1.0110523 0.9917852
000040 df 3e 7c 3f 66 40 80 3f 5a 96 80 3f 4a 09 80 3f
       0.98533434 1.0019653 1.0045884 1.0002835
000050 b7 a6 7f 3f 65 ff 7f 3f 8b d8 86 3f e3 b9 80 3f
       0.9986376 0.99999076 1.0534834 1.0056728
000060 91 65 80 3f 8c d7 7f 3f 53 34 7d 3f 00 00 80 3f
       1.0030996 0.99938273 0.98907965 1.0
000070 a7 d4 7b 3f 00 34 80 3f 48 f7 7e 3f 5d 3e 80 3f
       0.98371357 1.0015869 0.9959607 1.0019032
000080 31 bb 7e 3f 00 00 80 3f 86 7a 7c 3f d0 07 81 3f
       0.9950438 1.0 0.98624456 1.0080509
000090 df 63 7f 3f 52 9c 84 3f 13 a1 7f 3f e6 6d 80 3f
       0.99761766 1.0360205 0.99855155 1.0033538
0000a0 37 92 86 3f 98 ba 7f 3f a1 34 82 3f 66 f0 7c 3f
       1.0513371 0.99894094 1.0172311 0.9880432
0000b0 00 00 80 3f d8 02 80 3f aa 50 7b 3f 00 00 80 3f
       1.0 1.0000868 0.9816996 1.0
0000c0 00 00 80 3f de 1f 7b 3f 4e c1 7f 3f ea 5f 80 3f
       1.0 0.980955 0.99904335 1.0029271
0000d0 66 be 7f 3f 68 4a 7f 3f 00 00 80 3f 5e e8 83 3f
       0.998999 0.9972291 1.0 1.0305288
0000e0 97 88 80 3f 45 7a 8c 3f 57 ac 9e 3f 14 1c 80 3f
       1.0041684 1.0974814 1.2396344 1.0008569
0000f0 1e f6 7f 3f a2 d6 7e 3f e9 a0 80 3f 68 18 84 3f
       0.9998492 0.99546254 1.0049106 1.0319948

layers.2.bias f4 [64]
000000 ab ac ab 3e 90 b6 1d 3f 39 b2 fa bc 19 d3 02 3c
       0.33530173 0.61606693 -0.030602561 0.0079849
000010 fd 2b 39 be 11 10 c3 3d 2c 5f 1c bf 92 a4 14 be
       -0.18083186 0.09524549 -0.6108272 -0.14515904
000020 aa b6 12 3e 8a 92 2d 3e 4e 86 90 bd 07 54 05 bd
       0.14327493 0.16950431 -0.070568666 -0.032550838
000030 43 d5 85 bd 96 ad 0f 3e 3c 06 49 3e 15 24 3e 3e
       -0.06534817 0.14031062 0.19631284 0.18568452
000040 e2 70 98 be 72 67 4d 3e ea 0b 62 3e 10 87 cd 3d
       -0.29773623 0.20058993 0.22074857 0.10035527
000050 eb c7 ac 3e 6d 72 12 3e 8a 52 8a be 72 d0 00 be
       0.33746275 0.14301462 -0.27016097 -0.12579516
000060 ef 4a 50 be f1 dc 6c bd 65 2f 72 3e 97 7f 93 be
       -0.20341085 -0.057827894 0.23650892 -0.2880828
000070 d6 cb 8e 3e b9 f2 b0 3b dd ae 85 3d e3 23 1d 3c
       0.2788989 0.0054000285 0.06527493 0.009591076
000080 55 70 42 3e f9 ea 33 be e9 cf 83 3e 3f a9 bc bd
       0.18988164 -0.17570104 0.2574456 -0.09211969
000090 4c 28 65 be 2a f8 ed 3e 42 a4 89 3e f2 fc 21 be
       -0.22378653 0.46478397 0.2688313 -0.15819147
0000a0 4b 98 2d 3f 41 e5 28 be 7e ac 41 be 86 7a 52 3e
       0.67810506 -0.16493703 -0.18913457 0.20554551
0000b0 88 dd 84 3d 10 43 24 3e f2 84 66 3e a8 81 86 bb
       0.06487566 0.16041207 0.22511652 -0.0041048117
0000c0 0a af 2f 3e a2 92 a7 3e 7d fd e7 3d 85 f8 80 bd
       0.17156616 0.3272906 0.11327646 -0.06297401
0000d0 87 25 2d bd 9c 59 d0 3d 14 c3 90 3e 17 27 95 be
       -0.042272117 0.10173342 0.28273833 -0.29131386
0000e0 dc 02 1c be ef 06 40 be c1 21 36 3f fb e6 e4 3e
       -0.15235466 -0.18752645 0.71145254 0.44707474
0000f0 2f f6 04 3d 7b b2 8d 3e 00 0d ba 3e a3 03 d9 be
       0.03246134 0.27675232 0.36338043 -0.42385587

layers.2.running_mean f4 [64]
000000 28 f4 38 42 1a c5 cd 40 e6 85 34 41 ba c5 5d 3e
       46.238434 6.4303102 11.28269 0.21657458
000010 37 9a 90 3b 83 b2 20 42 74 17 8a 40 64 67 ca 41
       0.004412915 40.174328 4.315363 25.300484
000020 2a 71 17 41 93 2f bc 41 3e df 2c 42 38 6a 7b 3e
       9.465128 23.52323 43.21801 0.24552238
000030 33 f6 fe 3a 54 aa 8f 3e 49 10 55 3b 55 52 d0 41
       0.0019452035 0.28059638 0.0032510927 26.040201
000040 34 fa b0 3b 30 d4 b9 41 3c c8 b5 40 dd 77 74 41
       0.0054009203 23.228607 5.6806927 15.2792635
000050 c5 78 55 40 71 95 bc 1f 44 3f e2 3f cc 1b 45 42
       3.3354962 7.986833e-20 1.7675557 49.277145
000060 0a 7a af 40 34 39 26 3f c8 b0 e5 41 00 00 00 00
       5.4836473 0.64931035 28.711319 0.0
000070 be 87 23 42 a9 a2 bd 3c 27 95 ad 3b 73 dc 9e 3f
       40.88256 0.023148851 0.0052973214 1.2411026
000080 fb b7 5f 40 00 00 00 00 63 7f 15 41 1f e6 b7 41
       3.4956043 0.0 9.3436 22.987364
000090 d2 9e f5 3f 66 5a 21 3b b9 23 13 42 0d a1 c9 40
       1.9189093 0.0024620532 36.784885 6.3009095
0000a0 77 29 9e 41 a2 dd 69 29 1d b5 3f 3c 23 4f 2c 42
       19.770247 5.192863e-14 0.011700896 43.077282
0000b0 00 00 00 00 fc c2 23 41 0a 87 97 3c 00 00 00 00
       0.0 10.235104 0.018497009 0.0
0000c0 00 00 00 00 04 d0 bb 41 84 64 14 40 93 ec 8d 41
       0.0 23.47657 2.318635 17.740515
0000d0 0e bf 52 3c 4f 75 23 42 00 00 00 00 f8 e3 14 42
       0.012862934 40.86456 0.0 37.222626
0000e0 b6 09 1d 42 3f b7 67 40 a5 83 13 40 bf 55 eb 41
       39.259483 3.6205595 2.30491 29.416868
0000f0 7f 1e 2e 42 25 7f 3f 42 72 9e 2c 42 0a 2d 63 41
       43.52978 47.874165 43.15473 14.198496

layers.2.running_var f4 [64]
000000 ea 2a 8d 43 01 8b b7 40 c9 c4 a3 42 3d f5 17 3e
       282.33527 5.7357183 81.884346 0.14839645
000010 70 7a b7 39 a6 d1 31 43 fc d8 94 40 b5 8a 7f 42
       0.00034995703 177.81894 4.6514874 63.885456
000020 7e 9b c4 42 88 db 8b 42 07 c8 47 43 02 51 89 3f
       98.303696 69.92877 199.78136 1.0727847
000030 39 9a 8e 38 59 7e f2 3f 6e 2c 47 39 d8 cb 16 43
       6.799814e-05 1.8944808 0.0001899467 150.79626
000040 9e 6a 09 3a 5f 40 5c 42 6d 69 10 42 c2 31 05 42
       0.00052420225 55.062862 36.102955 33.29859
000050 62 ea 9d 41 d8 c9 a8 28 f8 8e 0f 41 9f fb a9 43
       19.739445 1.8739283e-14 8.9724045 339.9658
000060 cb 52 12 42 9f 2f 31 40 9b 49 b2 42 d8 c9 a8 28
       36.580853 2.7685316 89.14376 1.8739283e-14
000070 40 37 28 43 ba c6 1d 3c 59 d7 a8 3b 1c 49 3e 41
       168.21582 0.0096299 0.0051526246 11.892849
000080 f6 55 2c 42 d8 c9 a8 28 84 ee 02 42 07 a2 4d 42
       43.083946 1.8739283e-14 32.732925 51.40823
000090 57 f8 ad 40 14 5d 07 3b 0f 8b 07 43 6c 10 2c 42
       5.436565 0.0020654844 135.5432 43.016037
0000a0 e0 70 43 42 2e d3 1b 29 0d f1 cd 3c 62 95 79 43
       48.86023 3.4600083e-14 0.025139356 249.58353
0000b0 d8 c9 a8 28 cd 0b b1 42 5c a9 80 3d d8 c9 a8 28
       1.8739283e-14 88.52305 0.06282303 1.8739283e-14
0000c0 d8 c9 a8 28 af 3b ba 42 57 76 94 41 0f 0c 97 42
       1.8739283e-14 93.11657 18.557783 75.52355
0000d0 2f dc 42 3b f8 3a 32 43 d8 c9 a8 28 76 e4 12 43
       0.002973329 178.23035 1.8739283e-14 146.89243
0000e0 1f 07 4e 43 30 03 63 40 b3 59 96 40 3e 04 28 43
       206.02782 3.5470695 4.6984496 168.01657
0000f0 d6 48 82 43 54 66 9f 43 04 08 53 43 ef 0f b6 41
       260.56903 318.79944 211.03131 22.75778

layers.3.weight f4 [1, 64]
000000 ee 5b a3 3e 9f b0 45 3f a8 a4 91 bb d4 d4 d8 3d
       0.31906074 0.7722263 -0.0044446774 0.10587469
000010 e3 38 12 be db ab 9a 3d f5 01 71 bf fa 28 39 be
       -0.14279513 0.0755231 -0.9414361 -0.18082038
000020 c7 73 e5 3d 54 95 47 3e 03 2f 05 be 2a bb 39 bc
       0.112037234 0.19490558 -0.13006215 -0.011336127
000030 cb df b4 bc ad bc a9 3d 40 1f 85 3e 4c c6 0f 3e
       -0.022079369 0.0828794 0.26000404 0.14040488
000040 61 42 89 be 78 e8 58 3e bc cc 86 3e 7d 69 ea 3d
       -0.26808456 0.2118243 0.26328075 0.114459015
000050 01 9d b0 3e 15 37 1d 3e 2e 85 dd be da b0 41 be
       0.34494784 0.15353043 -0.4326567 -0.1891512
000060 e8 48 62 be 14 ce 42 bd 83 fe 49 3e bb 58 9e be
       -0.22098124 -0.047559813 0.19725995 -0.3092707
000070 64 71 71 3e de 62 6f 3d a3 33 aa 3b 43 7d 96 bd
       0.23578411 0.058443896 0.005194144 -0.073481105
000080 01 67 2c 3e 82 26 41 be 59 de 59 3e 8d c2 27 be
       0.16836168 -0.18862346 0.21276225 -0.16382809
000090 c0 23 69 be b9 c4 0b 3f 4c 0c 8a 3e 09 3e 37 be
       -0.22767544 0.5459705 0.26962507 -0.17894758
0000a0 45 74 42 3f f8 09 34 be bc 95 89 be dc 01 18 3e
       0.75958663 -0.17581928 -0.2687205 0.1484446
0000b0 24 a3 8e 3d f4 48 43 3e 99 41 2f 3e 34 66 90 bb
       0.0696471 0.19070798 0.17114867 -0.004406715
0000c0 e3 9a 3c 3e c7 ef 91 3e 8f 44 d9 3d b9 5a d1 bd
       0.1841846 0.28503248 0.1060878 -0.10222382
0000d0 48 d8 e8 3b 21 f8 93 3d b3 68 9b 3e 3e f4 cc be
       0.007105861 0.07225061 0.30353317 -0.40030092
0000e0 78 ff 55 be b0 49 fb be f9 50 83 3f de 50 ec 3e
       -0.20898235 -0.49079657 1.0259086 0.46155447
0000f0 49 09 14 bd 0e fb 87 3e 8f db c4 3e 30 43 01 bf
       -0.036141668 0.26558727 0.3844876 -0.50493145
