model/trained_player_model.pth (torch, 288566 bytes, 31 tensors)

layers.0.weight f4 [128, 5]
00000000: 12f8 f0ba 3234 ac3e a255 423e 2c74 adbe
00000010: 42dd 513d 8072 4b3d 3314 6ebe 594b fe3c
00000020: f0fe ac3e be9d e23d 89ad 6e3e f379 65be
00000030: f6d8 773e ef31 113d d3fa e2bd b38c fbbc
00000040: fd82 57be 35bf 653d 96dc 0a3c 3147 093e
00000050: 5c54 31be 9628 c8bd 6de1 4fbe 089a c4bd
00000060: 50da 03be 5106 a33e 0f31 e0bd 7d46 d73e
00000070: a0de 5bbd c775 dbbe a034 94bd 1a2c f2bd
00000080: aa1b 923e ef7b 1d3f 37f9 babd 8c4a 35bd
00000090: 0383 bfbe fc7b a5be f233 3d3e 92f2 833e
000000a0: cb82 17be e018 643e 8be7 cbbe 49d6 bcbe
000000b0: 61b8 933e e0fa 963e 9b44 a3bb 957c a63d
000000c0: acaf 12bf 588a b73e 6cc2 c63d a744 5e3c
000000d0: 8e93 ed3e aae1 a7be 012d 853e 7655 bf3e
000000e0: 7332 f7be e97e 9e3e ecac f63b fd9a 6e3d
000000f0: a970 c03d 6945 ae3e e659 a9bd e81b 2ebe
00000100: e5ce 0abb 89f5 dfbd 7614 743c f3e5 9f3e
00000110: 0779 e5bd a631 9ebc 89b8 d73e f6db e9be
00000120: e149 58be 3aac 7f3e 5223 203d 817a 1d3f
00000130: a36e 103e 6258 4b3d 1b9c d5be d4a5 dfbe
00000140: 0622 813e 3196 e2be 4c1b cf3e 77dd d6bc
00000150: 3717 da3e 5499 853d 8bd6 8c3e c37c 84be
00000160: 7040 c4be 6bd8 33bd 44eb dbbe b7f1 1fbe
00000170: 7621 883e 2fd4 8a3c 26e2 9f3d 665f 6a3e
00000180: 0b7e 863e b907 28bd 1229 ebbe 8c8a 19be
00000190: 696f 4c3e 64f4 afbe d1a9 de3e b746 d3bd
000001a0: d16a 873e 2363 6d3e 1a2c c13e 431e 3b3d
000001b0: f585 cf3e 16ca 513e 1e52 7bbe afd1 a2be
000001c0: 0904 e03e 8911 db3d 5250 23be dd12 d9be
000001d0: fd10 163d 0461 ae3e 738e 863e 49a0 a8be
000001e0: eb11 afbe 92ec 63bd 21c0 b23d 6a59 cabe
000001f0: 2f07 0e3f 884e f13e 6567 00bf 7bd9 4dbe
00000200: ac70 973d 79aa 9f3d 00c6 d3be d7ba 22bb
00000210: 9db6 d83e fc25 c63d a720 2cbe 4fe3 71be
00000220: 565d efbe 7732 323e 5df3 973e 1992 8e3e
00000230: 87dd 7ebe 4c43 e1bb 971b 0abd 0b9d cfbd
00000240: c22f ccbe b0ed cfbe 7af3 983d 3dfd b1bc
00000250: 9d55 d6be fab4 52be c05a 5bbe 9357 2a3d
00000260: fc47 9fbd b2a0 acbe 576d 08be 2f90 74be
00000270: c96a cabe 1e9d 2a3d 4497 a53e eaf0 99be
00000280: 3c91 573e 1ac5 a13e a3a4 41be f6eb 90be
00000290: 25bb cf3e 1149 6b3e 2eff 7abe 868f a53e
000002a0: c5bf 0cbf ec2c bd3b 33c3 423e 5e65 29be
000002b0: b564 99bd 3dc6 ec3d 0836 7ebe cf53 e3be
000002c0: 8a41 c7be e990 7e3e 5883 8bbe 90a6 453e
000002d0: 460f e73e 15d4 ac3e fb05 7fbe 14a1 c13e
000002e0: bfe2 c33e 7618 423e 0ad4 51be 61a1 0cbe
000002f0: 736f cb3e 8700 9fbd a236 7e3e 46c0 cdbe
00000300: 3960 a9be 65a4 2e3d d47b c83d ff39 a33e
00000310: 6462 e5be 9eaa a33e a863 b13b ea60 0fbd
00000320: f46b fc3e c1b7 933e 34cd d23e 8ba4 1c3e
00000330: 3498 8f3e c3be 35be 2490 ba3e a6ee 01be
00000340: 3283 e6be 299e f83d 0cd6 e03e 055e c4be
00000350: 518b cabe c7f4 d1bc 29e5 583e 8559 6a3e
00000360: 49ff 8bbe f511 9f3d e262 61bd 43cc 2ebe
00000370: f01b 673e 6a1a cb3e be8f 3a3e 2a01 dc3e
00000380: 4651 363e cc93 c43e 4c23 d03d 5425 8b3d
00000390: 588d 7cbe caba 7fbe f7f1 863e acf0 05be
000003a0: 7e5e 993e 96cc a7be bc39 fdbd f40c 10bd
000003b0: 2dd1 77be a151 fcbd fc5e 4b3d 03e3 e3bc
000003c0: 8632 fabd 21da 5ebe b2b5 e7be 5f8a 6e3e
000003d0: f0d4 6ebe 31c0 393f 1a16 8ebb 9147 97be
000003e0: 50fa 6e3e eed8 e63d 3c49 f7bd 2895 833c
000003f0: 5516 d03e 4c17 04bf 9871 06be 3bfa a73e
-0.0018384478 0.33633572 0.18977979 -0.33877695 0.0512364 0.049669743 -0.23249893 0.031041788
0.33788252 0.11065243 0.23308386 -0.22409801 0.24203858 0.03544801 -0.11082997 -0.030706739
-0.21046062 0.056090552 0.008475443 0.13406064 -0.17317337 -0.09773366 -0.20300837 -0.09599692
-0.12876248 0.31840757 -0.10946857 0.42045966 -0.05367911 -0.42863294 -0.072366 -0.11824818
0.2853673 0.6151723 -0.09129565 -0.044260547 -0.37404642 -0.32321155 0.18476847 0.25771004
-0.14795987 0.22275114 -0.3982509 -0.36882237 0.28851607 0.29488277 -0.0049825436 0.08129231
-0.57299304 0.35847735 0.09705052 0.013566173 0.46401638 -0.32789356 0.26010898 0.3736989
-0.48280677 0.309562 0.007527938 0.058253277 0.09396488 0.3403733 -0.082691 -0.17002833
-0.0021180448 -0.10935504 0.014897456 0.31230125 -0.11204725 -0.019310784 0.42132977 -0.4567563
-0.21121933 0.24968043 0.039096184 0.6151505 0.14104705 0.049644835 -0.41720662 -0.43681204
0.2522127 -0.44255212 0.40450513 -0.02622865 0.42595837 0.06523386 0.27507433 -0.25876436
-0.38330412 -0.043907564 -0.4295293 -0.1561955 0.2658803 0.01694688 0.07806806 0.22887954
0.26268038 -0.04102299 -0.45929772 -0.14994258 0.19964375 -0.34366143 0.43488935 -0.10316222
0.26448682 0.23182349 0.3772896 0.045683157 0.4053189 0.20487246 -0.24543044 -0.318006
0.4375308 0.10696704 -0.15948609 -0.42397204 0.036637295 0.34058392 0.26280555 -0.32934788
-0.34193358 -0.055645533 0.08728052 -0.39521343 0.5547971 0.47130227 -0.5015777 -0.20102493
0.07394537 0.07796187 -0.41362 -0.0024830604 0.42326823 0.09675214 -0.16809331 -0.23621868
-0.46750897 0.17402063 0.2967786 0.2784584 -0.24889193 -0.0068744775 -0.033717718 -0.101373754
-0.39880186 -0.4061103 0.074683145 -0.021727199 -0.41862193 -0.2057685 -0.21421337 0.041587424
-0.07777402 -0.3371635 -0.1332296 -0.23883127 -0.39534596 0.041653745 0.3234197 -0.30066615
0.21051496 0.3159569 -0.1891046 -0.28305024 0.40572467 0.22977091 -0.24511406 0.32336062
-0.5498012 0.0057731774 0.19019775 -0.16542575 -0.074899115 0.115612485 -0.24825299 -0.44399878
-0.3891719 0.24859966 -0.27248645 0.1930182 0.4512884 0.33755556 -0.24904625 0.37818205
0.3825893 0.18954644 -0.20491043 -0.13733436 0.39733467 -0.077637725 0.24825528 -0.40185755
-0.33081225 0.042637248 0.09789243 0.31880185 -0.4480163 0.31966108 0.0054134913 -0.035004534
0.49301112 0.2885113 0.41172183 0.15297143 0.2804581 -0.17748551 0.36438096 -0.12688693
-0.4502197 0.12139542 0.43913305 -0.3835298 -0.39559415 -0.025629414 0.21181168 0.22885711
-0.27343205 0.07767097 -0.055025943 -0.17070107 0.22569251 0.3966859 0.18218896 0.42969638
0.17804441 0.3839401 0.10162982 0.06794229 -0.24663293 -0.24973598 0.2635648 -0.1308009
0.29954904 -0.32773274 -0.123645276 -0.035168603 -0.24200888 -0.12320257 0.04965113 -0.027818209
-0.12216668 -0.21762897 -0.4525581 0.23294972 -0.23323417 0.72558886 -0.004336131 -0.29546788
0.23337674 0.11271845 -0.12074515 0.016062334 0.40642038 -0.5159805 -0.1312927 0.32808098

layers.0.bias f4 [128]
00000000: f3db ba3e 4fcb c9bb 2cf6 5b3e 3dfe cbbe
00000010: a2d7 cabe 0a24 5f3b 899e 48be bc8f 33be
00000020: 9b4b c5be e57c cdbe 2b3f 883d 9cc4 bfbe
00000030: 0c05 4abd 3e9d 0bbe 2516 b0bd 18b3 57be
00000040: 776f 03bb 9c4c 463e 2090 e3bc 9edc 5a3e
00000050: 160b c03c 9656 623e f316 303e d009 4b3c
00000060: 4342 61bd 44a9 b5bd e708 203d 8b8f dd3e
00000070: 360f 3a3e c7f7 cabe 6cd5 d4be e175 543e
00000080: 5c2d 353e 02a1 e2be 8630 02be ccdc e13e
00000090: 2232 d43e 0f8e 50bc 2cc4 883e 392e 3ebe
000000a0: 7b1e 923d adf0 323d 83ea d2be 8a81 863e
000000b0: 1a46 3f3e b029 943e 42c5 e13d c9f9 c0be
000000c0: 8ad2 4f3e 0e90 16be 1033 933e b47b e63d
000000d0: 7fef 933e be78 a6be 9ea5 92be 3149 febd
000000e0: a2c9 cf3e a1bf 3ebe 8ff3 83be 9cc0 a7be
000000f0: 676d e7bd 91e0 353e 307d c1be 9e8b 603e
00000100: b923 873e 158c d63e a9a9 363e d863 24be
00000110: 7f91 c9be c50c 83bc 1a8e cabe 8a9e 90be
00000120: d6b5 613e c5dc 9dbe 7d4a 5ebe 1745 ef3d
00000130: 80e0 66be b5f0 32bd 29e6 5abe 7b75 a2be
00000140: e1a3 cf3e 89b3 703e e094 e73c dc63 1a3e
00000150: 5c8a 29bd 211d 9fbe 8647 c4bc 39f2 e63d
00000160: d954 ac3e 077c 923e 8991 1e3e 97d7 c1be
00000170: 655b 3b3e bc81 adbe 3101 143e 25de 97be
00000180: 02af e0be db3f c63e 17e2 ba3e 0f47 b4be
00000190: 4a8e 1dbe 3def ce3c c782 123e 9654 c43e
000001a0: 7e33 863e bf39 653e 5cea 76be 1136 80be
000001b0: 41e2 b33e 4e8d a53e 41e0 953e 448f 8f3e
000001c0: 081a d33e 5dbc 60be d624 cd3e 171d b73e
000001d0: d2e7 11bf 67e2 f1bb a001 aa3d e5af a93e
000001e0: cc11 063d 4900 c2be a764 1dbe 95c6 853d
000001f0: 0887 76be b3eb 60bd aa05 753e 9d0f 69bd
0.36495933 -0.0061582695 0.21480626 -0.39842406 -0.3961764 0.003404858 -0.19591726 -0.17535299
-0.38534245 -0.4013435 0.06652673 -0.3745469 -0.04932122 -0.13634202 -0.08597974 -0.21064413
-0.0020055452 0.19365162 -0.027778685 0.21373221 0.023442786 0.22103342 0.17196254 0.012392476
-0.054994833 -0.088701755 0.03907099 0.43273577 0.18169865 -0.39642164 -0.41569078 0.20748092
0.17693084 -0.44263464 -0.12713823 0.44113767 0.41444498 -0.012729182 0.26712167 -0.1857232
0.0713472 0.043686558 -0.41194543 0.26270705 0.18679085 0.28938055 0.11023952 -0.3769057
0.20295158 -0.1470339 0.28749895 0.11254063 0.2889366 -0.32513994 -0.2864198 -0.12416304
0.4058352 -0.18627788 -0.25771758 -0.32764137 -0.11300164 0.17761447 -0.37790823 0.2192826
0.26394442 0.4190375 0.17838158 -0.16053712 -0.39368817 -0.0159973 -0.3956154 -0.28245956
0.22042021 -0.30832496 -0.21708103 0.116831 -0.22546577 -0.043686587 -0.21376862 -0.31730255
0.40554717 0.23505987 0.028269231 0.15077156 -0.041391715 -0.3107691 -0.023959886 0.11276669
0.33658484 0.2861025 0.15485205 -0.37859794 0.18296583 -0.33888042 0.1445358 -0.2966167
-0.4388352 0.38720593 0.36500618 -0.35210463 -0.1538631 0.025260562 0.143077 0.38345784
0.2621116 0.2238531 -0.24112839 -0.2504125 0.35133556 0.3233437 0.29272655 0.2803899
0.41230798 -0.21946855 0.40067166 0.3576438 -0.56994355 -0.0073817256 0.08301091 0.3314201
0.032731816 -0.37890843 -0.15370427 0.06532017 -0.24074948 -0.05491228 0.23927942 -0.056899656

layers.2.weight f4 [128]
00000000: 259a 7d3f e0f5 783f 0000 803f 49c5 783f
00000010: 0000 803f 6959 7b3f 01c6 823f 87c9 7a3f
00000020: e79b 723f e7e2 7e3f 5def 763f cceb 813f
00000030: 4d91 763f 0000 803f 3e89 803f 3caf 813f
00000040: 3d00 7c3f cea8 753f ef4b 7d3f a4f4 813f
00000050: 652f 773f 4697 7b3f 0000 803f 5ea0 7b3f
00000060: 71d1 813f ee59 733f 0000 803f 9038 7b3f
00000070: 0000 803f 2329 833f 0000 803f 0000 803f
00000080: a448 763f f4bd 823f 0000 803f bd71 7a3f
00000090: 7bfd 763f a006 813f 1f35 7d3f 1d30 7c3f
000000a0: b5ff 763f 84d8 7d3f 48f6 7a3f 0000 803f
000000b0: ff01 793f e792 7f3f 6c74 853f 0000 803f
000000c0: 86f5 7f3f dccf 803f 7000 833f 848a 7a3f
000000d0: 3d11 813f 0000 803f 0000 803f fc7b 803f
000000e0: 33c2 793f 7c97 763f 0000 803f 0972 7d3f
000000f0: ad36 7e3f 0000 803f ab74 893f cfdc 783f
00000100: 0000 803f d8e4 823f 0000 803f 607b 773f
00000110: 88e8 7c3f 0711 823f 0000 803f 1485 783f
00000120: 0dc8 813f 0000 803f 0000 803f 94cc 7d3f
00000130: ba3e 813f 9d38 863f 0abb 853f f0e9 7f3f
00000140: 5be2 803f 96a9 7a3f 216b 753f b81c 763f
00000150: 33e8 6e3f 3827 823f 94bb 883f 0ab4 753f
00000160: d1ab 753f 0000 803f 889d 813f 0000 803f
00000170: 6197 963f ba9e 763f 26e8 7a3f 0000 803f
00000180: e23f 913f 7937 7b3f aa14 803f 0b1c 7f3f
00000190: 2389 7a3f 8f44 873f 7cae 803f 3ee6 803f
000001a0: ede7 7f3f 0000 803f 19b7 793f 0000 803f
000001b0: 1ec3 8a3f ebcb 743f a51c 893f 9ee0 763f
000001c0: c7eb 7f3f 97da 793f 19b1 893f 2a03 843f
000001d0: c2b3 803f 39fa 793f 9d54 7b3f 4883 773f
000001e0: 12f7 7f3f 0000 803f 623e 913f 0000 803f
000001f0: fb80 753f 5071 793f 3cb0 7c3f b66c 7e3f
0.9906333 0.97250175 1.0 0.97176033 1.0 0.98183304 1.0216676 0.97963756
0.9476914 0.99564976 0.9645899 1.0150084 0.9631546 1.0 1.0041883 1.0131602
0.98437864 0.959607 0.9894399 1.0152783 0.96556693 0.982777 1.0 0.98291576
1.0142041 0.95059097 1.0 0.9813318 1.0 1.0246929 1.0 1.0
0.9620459 1.0214219 1.0 0.978298 0.9648053 1.0080147 0.9890918 0.98510915
0.9648393 0.991585 0.98032045 1.0 0.9726867 0.9983353 1.0426154 1.0
0.99984014 1.0063434 1.0234509 0.9786761 1.0083386 1.0 1.0 1.0037837
0.9756195 0.96324897 1.0 0.9900213 0.9930218 1.0 1.0738729 0.9721193
1.0 1.0226088 1.0 0.9667263 0.98792315 1.0161446 1.0 0.9707806
1.0139176 1.0 1.0 0.99140286 1.0097268 1.0486027 1.0447705 0.99966335
1.0069078 0.9791502 0.9586659 0.9613757 0.9332306 1.0168219 1.0682244 0.9597784
0.95965296 1.0 1.01262 1.0 1.1764947 0.9633595 0.9801048 1.0
1.134762 0.9813152 1.0006306 0.99652165 0.97865504 1.0567797 1.0053248 1.0070264
0.99963266 1.0 0.9754501 1.0 1.0840795 0.95623654 1.0711867 0.9643649
0.9996914 0.97599167 1.0757171 1.0313466 1.0054858 0.97647434 0.98175985 0.96684694
0.99986374 1.0 1.1347163 1.0 0.95899934 0.97438526 0.9870641 0.9938463

layers.2.bias f4 [128]
00000000: 59c9 ff3c cbf6 c43d ad09 b9bc 01a3 753c
00000010: cfeb cabb c493 abb9 8cd3 1e3d fbdf cc3c
00000020: f93a 4f3c ef9d 5dbc f650 a3bc 61ba f1bc
00000030: 89e1 46bd 0c59 2ebb e0f8 babc bd90 0fbd
00000040: 4dfa b53c 41a4 c4bb 4879 be3c e35d a0bc
00000050: 0719 cfbb 5e50 ea3a 7782 a4bb 0f6a a03c
00000060: 7179 863c e0a5 d8bd 9184 1a3c f1e3 163d
00000070: 8aa7 663c 2753 973d ec00 1c3d 9f19 a93c
00000080: 1727 79bc ea4c 03bd aea3 57bd abc5 673d
00000090: 3fd2 ccbc 53c7 cbbc b5ea 073c fab3 133d
000000a0: 3148 763c 1180 663c c739 a53b 7a41 98bc
000000b0: 904a 313d 5877 1abd 546b cf3b 8b16 07bb
000000c0: 4f86 373d be15 b1bd fbb8 7e3b f146 57bd
000000d0: e08c 4f3c f452 19bb e57e e2bb be55 db3d
000000e0: 01a5 26ba 17ce 073c 3643 c93c de58 3bbd
000000f0: fd92 15bd 7a69 153c 32e2 b53d 88fb 04ba
00000100: b650 b13c 321d cdbd aa92 993d 6daa aebb
00000110: e9d6 e93c c81d c239 340f b4bb 1a90 243d
00000120: 2bc9 8f3d c5b9 953b f985 823c 7257 94bc
00000130: fa69 9b3d 86a2 ef3d 8f52 8d3d 9c1c 283d
00000140: 2fae 17bd ccad 1abd a592 ee3c 5abf 5bbc
00000150: 0493 893c f2c5 743d 8e4b 0cbd 9284 d13c
00000160: bedc fd3c f133 b6bc 94f6 9cbb 9a7c 91bc
00000170: 3c61 103e 9159 473d 64b6 85bc e0f1 c43b
00000180: d20f f6bd 0952 2a3c a084 90bb 54c9 303c
00000190: c77a 2c3d c2cd 64bd f66b b13d 2266 65bb
000001a0: c4aa 6b3d 4d38 453c 34cf dbbb 4dd4 083d
000001b0: 7bd9 083e 351f ec3c 8752 aebd b937 f33c
000001c0: ef8b 0a3c fc96 3c3c 8bfc 8cbd 87f2 a1bd
000001d0: ff7f 343c 8fc4 213c 9c34 92bd f372 babc
000001e0: eb80 823d 6df4 bfbc b3ed 25be f452 54bb
000001f0: 8bb3 4fbb 93b3 4e3d 7910 893d 50e8 c8bc
0.03122394 0.096173845 -0.022587622 0.014992476 -0.0061926614 -0.00032725756 0.038775966 0.025009146
0.0126483375 -0.013526424 -0.019936066 -0.029507818 -0.04855493 -0.002660337 -0.022823751 -0.035050143
0.02221408 -0.006001026 0.02325119 -0.019576019 -0.006320122 0.0017876734 -0.0050204354 0.019581823
0.01641533 -0.10578513 0.00943102 0.036838476 0.01407803 0.07388907 0.038086817 0.0206421
-0.015207074 -0.032055773 -0.05264633 0.056584995 -0.025002597 -0.024875319 0.008295705 0.03606031
0.01503186 0.014068619 0.005042288 -0.01858591 0.043284 -0.03771147 0.006329933 -0.0020612802
0.04480582 -0.08646725 0.0038867581 -0.05255789 0.012667865 -0.0023395391 -0.0069120997 0.107097134
-0.0006356985 0.008288882 0.024568181 -0.045739047 -0.036517132 0.009119386 0.08881034 -0.00050728815
0.021644931 -0.10015334 0.07498677 -0.005330375 0.02854486 0.00037024752 -0.0054949764 0.04017649
0.070207916 0.0045692646 0.015933024 -0.018108103 0.07588573 0.11700921 0.069005124 0.04104291
-0.03703135 -0.037763402 0.02912266 -0.013412321 0.016793735 0.059759088 -0.034251742 0.02557591
0.030989047 -0.022241564 -0.0047901366 -0.01775961 0.14099592 0.0486694 -0.016322322 0.006010279
-0.12014736 0.010395535 -0.0044103414 0.010790188 0.042109277 -0.05586029 0.0866317 -0.0035003503
0.0575359 0.012037349 -0.00670805 0.03340559 0.13364212 0.028823474 -0.085118346 0.029689657
0.008456214 0.011510607 -0.06884106 -0.079075865 0.011016845 0.009873523 -0.07138941 -0.02275989
0.063722454 -0.023431981 -0.16203956 -0.0032398077 -0.003169271 0.050464224 0.06692595 -0.024524838

layers.2.running_mean f4 [128]
00000000: 2112 9c41 facd 3b3e 0000 0000 3f52 093e
00000010: 0000 0000 f635 6402 a6fb 9c3c ae16 a43e
00000020: 8822 7141 4ae4 0f41 be12 0241 8f21 6f3d
00000030: d46a 9d41 0000 0000 62c4 8e3d f841 d140
00000040: 4d8f 483f 8729 6841 a592 a33d 786e 5941
00000050: 5504 d63e cf17 e941 0000 0000 521f 0603
00000060: 15f3 8040 3a34 bd3d 0000 0000 c5b9 c43e
00000070: 0000 0000 b814 0c26 0000 0000 0000 0000
00000080: 5df3 d841 b9a9 b012 0000 0000 7916 343e
00000090: 5a87 0242 4836 1d3c 25c6 f83d 412b c12e
000000a0: 5f89 de41 bbe6 9d41 1843 853e 0000 0000
000000b0: 0245 ee41 0548 a740 654b 030d 0000 0000
000000c0: 868d b41f 3025 eb40 26bf 1935 8248 813e
000000d0: 50b4 6603 0000 0000 0000 0000 938a c43f
000000e0: 78e5 e541 e045 0a42 0000 0000 2ee0 8900
000000f0: fbe6 c73a 0000 0000 17c0 cc40 2f6d e741
00000100: 0000 0000 37c4 0041 0000 0000 2999 7a41
00000110: fd38 853e 2674 b03c 0000 0000 44fb 1b41
00000120: b79a b840 0000 0000 0000 0000 ce71 410b
00000130: f56d bc40 bd2f f440 26fe c240 e952 0000
00000140: d458 fc40 f84e 763e 9e87 4e3e a590 7b41
00000150: e463 c641 f5cd 5a3e d270 233f 8571 9041
00000160: 205c 8d40 0000 0000 3404 d303 0000 0000
00000170: ebd5 1d41 be65 8541 22ab b741 0000 0000
00000180: 07d5 0841 1ee3 e140 2bc0 aa3b c7a4 7a3f
00000190: 76a1 8f3e 805f 0e41 0efb f140 72a8 1801
000001a0: 4d0b cf3e 0000 0000 35e1 e440 0000 0000
000001b0: 89f9 fd40 e6fc 9741 42e7 0b41 b9b1 d73e
000001c0: 966c 4040 d678 393f 9e7e 0a41 76f1 6b41
000001d0: 7da5 e30a 245e 843e 19d3 a441 1456 e240
000001e0: d9f7 aa41 0000 0000 780c 1e41 0000 0000
000001f0: 286c b841 7cd8 ab41 f906 8e3e 0ceb c040
19.508852 0.18340293 0.0 0.1341028 0.0 1.676628e-37 0.019162964 0.32048553
15.0709305 8.993235 8.129576 0.058381613 19.677162 0.0 0.06971051 6.539303
0.7834366 14.5101385 0.079869546 13.58947 0.4180018 29.136625 0.0 3.9415015e-37
4.029673 0.09238477 0.0 0.3842298 0.0 4.8600336e-16 0.0 0.0
27.11883 1.1149001e-27 0.0 0.17586698 32.63218 0.009595461 0.12147168 8.784307e-11
27.817076 19.737661 0.2602775 0.0 29.783695 5.2275414 4.0458245e-31 0.0
7.6467096e-20 7.3482895 5.72751e-07 0.25250632 6.7797914e-37 0.0 0.0 1.535479
28.737045 34.568237 0.0 1.2661883e-38 0.0015251333 0.0 6.3984485 28.928312
0.0 8.047904 0.0 15.662393 0.2602004 0.021539759 0.0 9.748844
5.768886 0.0 0.0 3.7256065e-32 5.8884225 7.6308274 6.093524 2.9743e-41
7.8858433 0.24053562 0.20168921 15.722814 24.798775 0.21367629 0.63844025 18.05543
4.4174957 0.0 1.240243e-36 0.0 9.864726 16.674679 22.95856 0.0
8.552009 7.0589743 0.0052108965 0.9790768 0.28052872 8.898315 7.5618963 2.8038844e-38
0.4043831 0.0 7.152491 0.0 7.936711 18.998486 8.743959 0.4212778
3.0066276 0.72450006 8.655912 14.74645 2.1921555e-32 0.25853074 20.603075 7.0730076
21.37102 0.0 9.878044 0.0 23.05281 21.480705 0.27739695 6.0286922

layers.2.running_var f4 [128]
00000000: 83d3 d742 882c 113f 8e9b a802 9d7b d13e
00000010: 8e9b a802 d60d 9803 251e 073d 7008 fd3f
00000020: af67 3f42 7c02 9e41 8355 4541 a149 c53d
00000030: 5d90 ee42 8e9b a802 6ea6 c43d 1626 6142
00000040: 1adf de40 f5c2 9842 bed2 363e 9e25 ad42
00000050: c737 1f40 837c 2243 8e9b a802 59e0 1004
00000060: 2fec b841 365e 443e 8e9b a802 554c 3740
00000070: 8e9b a802 5f1e 2027 8e9b a802 8e9b a802
00000080: d696 0243 f2b9 1b13 8e9b a802 b907 753f
00000090: af3c 2943 587a 483c 2443 a63e d828 4e2f
000000a0: ce81 0943 4dd1 d742 6fbe a83f 8e9b a802
000000b0: 0ba7 3043 40e0 db41 1f39 880d 8e9b a802
000000c0: 2277 b01f 7414 0e41 a075 de35 e8d5 8e3f
000000d0: 1420 4304 8e9b a802 8e9b a802 8f38 3141
000000e0: 060e 1843 2285 4843 8e9b a802 bf85 c802
000000f0: a612 a239 8e9b a802 7804 4a41 0df6 1743
00000100: 8e9b a802 e7f6 1242 8e9b a802 f18e 0743
00000110: 5336 a93f d6a8 1d3d 8e9b a802 e835 9042
00000120: 3394 fd41 8e9b a802 8e9b a802 cf46 0f0b
00000130: 1d91 fe40 c141 bb41 6e9c 9741 b49b a802
00000140: 203e c740 66c4 703f a9b9 213f 0553 1443
00000150: 4619 e742 4d9c 733f a51f b340 bcbd 8842
00000160: 2d46 b441 8e9b a802 2180 f903 8e9b a802
00000170: 13c2 1842 0730 8342 d5f9 0643 8e9b a802
00000180: b786 0742 6b0e 6942 697e 6c3b 2ca3 0a41
00000190: 5cd7 d93f 5349 8841 12c9 6c41 a572 bc02
000001a0: 4c6c 0940 8e9b a802 4122 6c42 8e9b a802
000001b0: e6f4 4641 b229 f942 0f90 0e42 1a50 2840
000001c0: f4b1 8e41 8150 8b40 55fd ba41 d2d8 0442
000001d0: c01c c30a a25a a73f 3845 8e42 9ed0 f940
000001e0: 5f13 aa42 8e9b a802 6b6e df41 8e9b a802
000001f0: 0b6f 1f43 44f0 c242 85e4 d23f a517 1e42
107.91311 0.56708574 2.4774665e-37 0.40914622 2.4774665e-37 8.936934e-37 0.032987732 1.97682
47.851254 19.751213 12.333377 0.09633184 119.28196 2.4774665e-37 0.096020564 56.287193
6.964734 76.380775 0.1785383 86.57347 2.4877794 162.48637 2.4774665e-37 1.7030134e-36
23.115324 0.19176564 2.4774665e-37 2.864034 2.4774665e-37 2.2220925e-15 2.4774665e-37 2.4774665e-37
130.5892 1.9655429e-27 2.4774665e-37 0.9571491 169.23705 0.0122362 0.324731 1.8750101e-10
137.50705 107.90879 1.3183116 2.4774665e-37 176.65251 27.484497 8.3953985e-31 2.4774665e-37
7.473599e-20 8.879993 1.6574522e-06 1.1159029 2.293687e-36 2.4774665e-37 2.4774665e-37 11.076308
152.05478 200.52005 2.4774665e-37 2.9464125e-37 0.00030912942 2.4774665e-37 12.626091 151.96114
2.4774665e-37 36.741116 2.4774665e-37 135.55836 1.3219703 0.038491093 2.4774665e-37 72.105286
31.697363 2.4774665e-37 2.4774665e-37 2.759407e-32 7.955214 23.407106 18.951382 2.477475e-37
6.2263336 0.9404968 0.6317392 148.3243 115.54936 0.9516037 5.597613 68.370575
22.534266 2.4774665e-37 1.4664322e-36 2.4774665e-37 38.189526 65.5938 134.9759 2.4774665e-37
33.881557 58.26408 0.0036086089 8.664837 1.7018847 17.035803 14.799089 2.768992e-37
2.147235 2.4774665e-37 59.03345 2.4774665e-37 12.43479 124.581436 35.640682 2.629889
17.836891 4.353577 23.373697 33.21174 1.8788632e-32 1.3074534 71.13519 7.806716
85.037834 2.4774665e-37 27.928915 2.4774665e-37 159.43376 97.46927 1.6475989 39.52309

layers.3.weight f4 [128, 128]
00000000: 263e e6bd 3f99 e73c fa88 503d ba45 eebc
00000010: c749 7fbc b2c1 8dbd 7af2 483d 49a3 023d
00000020: 361a 243c ea68 863d d36f 0d3c 517f 53bd
00000030: 424b 433d d8f1 a4bd a530 24bd 4de0 29bc
00000040: 86c5 4a3d 4c4b 833a 14fa 1abc f3b8 e0bd
00000050: 8d47 afbd 2113 b0bb e60a 933c 4726 44bd
00000060: 1f5f ba3d f5a0 af3d 3ac1 403d 097a 3cbd
00000070: 630c 4ebd cd29 673c 87d3 4aba d327 913d
00000080: b9fc a4bd 9338 d2bc 4caa 683d 0e03 82bd
00000090: 968e 84bc fd22 7d3d a065 ddba 4c38 54bd
000000a0: 4af6 c6bd e555 efbd cd20 21bd 4daa 3cbd
000000b0: 8389 753c 4901 6bbd d8b2 eebd 9d07 8dbd
000000c0: d07c c1bc e306 3bbd 2437 cdbc 451c f8bd
000000d0: b5ec 763d 4d79 303d 71ff 613d 7a88 d43b
000000e0: d23e debd 05a2 78bd 9460 863d 9dcd f73c
000000f0: e826 8f3d 06bf ad3d c257 08bd 4acb 02bd
00000100: 8b7d 9e3d 55e3 f1bd 1e57 5f3b c0b4 09bd
00000110: a5b1 18bb 751f 643d a813 4e3d 6c2d dcbd
00000120: ad5f 9ebd a129 b4bb f56e 62bd 3447 7f3c
00000130: 11cb 07bd 277c dcbc 8e97 30bd e4f8 b7bd
00000140: 4ebb 353b d4ad 0d3d 0c50 083d 3eb5 a5bc
00000150: 3bca 28bd b09d 04bd 4935 0ebd f7cb 29bd
00000160: f928 2e3d 62f7 a0bc 47bd f23c 7897 743d
00000170: cb31 2ebd 0fc5 b7bd 7b89 783c 6a15 a23c
00000180: 832d 91bc 2a42 0fbe 8fb4 41ba 8c1b aebd
00000190: aa9f d33b 6655 a2bb 55d3 9a3b 598e 4cbd
000001a0: 1e87 d1bd 2878 7abd 8672 3a3c f0f9 633d
000001b0: 52ad 8cbd 1d96 c0bd cd77 f33c 14b2 c53c
000001c0: 929d c03c 2146 cf3c 9e3a f2bc 454b c03b
000001d0: fb94 36bd 6372 233d 4597 243d 66d7 f1bd
000001e0: 896e 03bc c81e e8bc d969 173d e981 b3bb
000001f0: 02a3 423d 7e88 233d 29b1 2abd 92c6 50bb
00000200: 9a8e 81bd 30d1 1dbd 3a08 fabc b767 8bbd
00000210: 0093 f93a c9fe 04bc 237c b5bc fc6d 67bd
00000220: 7618 0f3d 3970 a2bc d30f 8c3b a343 9bbd
00000230: 18df c73d 4649 0bbc 300f 89bd 6f4b 113d
00000240: 377f 273d 6344 113d 9740 533c 9291 9f3d
00000250: 1c8d 17bd b9fa 093d 09ec 87bd aad9 0a3d
00000260: 65bb 78bd 50f8 49bc 30bf cabc 8669 3ebd
00000270: 9d09 0a3d 9983 b53d 129e 5d3c 7261 8ebd
00000280: 564c 3b3d 2224 be3d 269b 09bd f528 99bd
00000290: 0d21 80bd 4bd4 933d 4f8b 26bd 6708 9a3d
000002a0: fad2 7d3d 3c83 843d 8a96 9a3c dc5f 973d
000002b0: 0d9d be3d f16b 273d 628d 523d 6e26 733c
000002c0: ca6d 3dbd 52f2 4d3d b5d1 e93c 7451 b33d
000002d0: 8414 663d eb6a 6fbd 5e0c 293c 60dc 49bd
000002e0: 8728 483d eacb 943d 6c71 813b 70de 4b3d
000002f0: bba6 583b b52e 223d b976 bf3d 33d0 0d3d
00000300: 580b 053d 3560 0f3d 22e2 02b9 269c e13d
00000310: 2cc7 4e3d 8a88 c83c 888b dc3c b86d d23d
00000320: eef0 c43d 9e9f 353d 1203 613d d84c e63a
00000330: 0a07 82bc 6d34 53bd 0a34 bd3d 3d2d 1dbd
00000340: 1c0e 6bbd 5105 6cbd de6f 8d3c 403a a13d
00000350: 939a f23c 287d d3bb 0cc0 253d f049 83bd
00000360: 202e 43bd f8a3 89bd 6435 29bc 3e8f b33d
00000370: 0ebe 673c 6469 5ebd 28fd 69bc 2dff 5abd
00000380: 37ee 333c 1c94 ed3c 0cff aa3d a212 07bd
00000390: e899 8cbd 976a 5dbd 13fa 923d 732e 773d
000003a0: 350f b6bc 3c21 20bd d112 923d 0605 913d
000003b0: f229 113d 5caf 273c 1e86 b6bd 8655 20bd
000003c0: 56d2 bd3d 3adb 8cbd ec9a 25ba a91e 8bbd
000003d0: 95b7 9c3d 9ee7 4f3d 03ea 7fbd 9748 a73c
000003e0: c453 c23d 7c07 8dbd 4e01 30bc eee9 b33c
000003f0: f9d6 7abd ffc1 643d 31f8 8a3d 7401 73bd
-0.112423226 0.028271316 0.05091188 -0.029085983 -0.015581555 -0.0692171 0.04905937 0.031894002
0.010016015 0.065629795 0.008632618 -0.05163509 0.047679193 -0.080539405 -0.040085454 -0.010368419
0.04950478 0.0010016947 -0.009459037 -0.10972776 -0.08558569 -0.005373374 0.017949533 -0.047888067
0.09100174 0.08575622 0.047059275 -0.04601482 -0.05030478 0.014109087 -0.00077372085 0.07087674
-0.080560155 -0.025661742 0.056803033 -0.06348239 -0.016181272 0.061800946 -0.0016891249 -0.0518115
-0.09714945 -0.11686305 -0.039337922 -0.04606085 0.014986399 -0.057374272 -0.116552055 -0.06886218
-0.023619086 -0.045660865 -0.025050707 -0.12114767 0.060284335 0.04308443 0.05517525 0.006485996
-0.10851826 -0.06070139 0.065613896 0.030249411 0.06989843 0.084837005 -0.033286817 -0.031932153
0.07738789 -0.11810938 0.0034079025 -0.033619642 -0.0023299244 0.055694062 0.050311714 -0.10750851
-0.077330925 -0.0054981266 -0.055281598 0.015580941 -0.033152644 -0.02691467 -0.043113284 -0.08983019
0.002773005 0.034589604 0.033279464 -0.020228025 -0.041208487 -0.032376945 -0.034718785 -0.04145428
0.042519543 -0.019649211 0.02963127 0.059714764 -0.042527955 -0.08973133 0.015169497 0.019785602
-0.017721897 -0.13990083 -0.0007389271 -0.08501348 0.0064582424 -0.004954028 0.0047249 -0.04994044
-0.1023085 -0.061149746 0.011379844 0.05565828 -0.06868996 -0.09403632 0.029720211 0.024132766
0.023512635 0.025301995 -0.029568966 0.005868348 -0.044575673 0.03990401 0.040183324 -0.11808662
-0.008021959 -0.02833499 0.03696618 -0.005478133 0.047518738 0.03992509 -0.04167286 -0.0031856638
-0.06326027 -0.038529575 -0.0305215 -0.068068914 0.0019041002 -0.008117386 -0.02215392 -0.056501374
0.034935437 -0.019828903 0.0042743473 -0.0758126 0.09759349 -0.0085013565 -0.0669235 0.03547233
0.040892806 0.03546561 0.012893817 0.07791437 -0.036999807 0.033686373 -0.06636817 0.033898987
-0.06072559 -0.012327269 -0.024749368 -0.046487354 0.033700574 0.08862991 0.013526456 -0.0695218
0.045727096 0.092842355 -0.033595227 -0.07478515 -0.06256304 0.07218226 -0.0406602 0.07521134
0.06196878 0.064703435 0.01887061 0.073913306 0.09307299 0.040874425 0.051404364 0.014840705
-0.04624728 0.050279923 0.028542379 0.0875577 0.05617191 -0.058451574 0.01031789 -0.04928243
0.048866775 0.07265456 0.0039502885 0.04977268 0.0033058363 0.039595325 0.093488164 0.034622382
0.03248152 0.03500386 -0.00012482007 0.11016111 0.050482914 0.02447917 0.026922002 0.102748334
0.09616266 0.044341676 0.05493457 0.0017570509 -0.015872497 -0.05156367 0.09238441 -0.03837322
-0.057386503 -0.057622258 0.017265256 0.078724384 0.029614722 -0.006454129 0.040466353 -0.06410587
-0.04765141 -0.06720728 -0.010327671 0.08767556 0.014144434 -0.054299727 -0.014281549 -0.05346601
0.010982088 0.029001288 0.083494276 -0.032976754 -0.06865293 -0.05405673 0.07176604 0.06034703
-0.022224048 -0.039094195 0.07132495 0.07081036 0.035440393 0.01023468 -0.089122996 -0.03914406
0.09268634 -0.06877752 -0.00063173356 -0.06792957 0.07652203 0.050757997 -0.06247903 0.020420356
0.09488633 -0.06886193 -0.010742499 0.021962132 -0.06124017 0.05584907 0.0678562 -0.059327558

layers.3.bias f4 [128]
00000000: 19f0 cebc 3560 3d3d 0baf 093d 76ff 903b
00000010: 5ea9 c53c 8df4 25be 6a0d 63bd 1a3c 26bd
00000020: 91b2 60bc d3ec 40bd d364 54bd da8b 2d3d
00000030: a15c 8cbd 4df2 973d 18c3 edbd 5d4c c43d
00000040: ff09 5cbd e4c1 d73d 56aa 113d 5117 36bd
00000050: f4c1 27ba 870b 5fbc 7772 993d 274e 6abc
00000060: 0bf6 04bd 33f3 54bd c164 163d c044 cd3d
00000070: 1d9d 42be b9d5 2d3d 79c1 2bbd 6d09 cbbd
00000080: 42b1 7ebd 0565 2abd 9a45 91bd b7d5 a0bd
00000090: 2dc7 9cbd ab87 30bd 1bd2 003d c68f 28bd
000000a0: 4478 a53d a3fa 39bd c80c 0bbd e223 25bd
000000b0: d50a 153d ca9e 4fbd c713 c6bd e8ea 54bd
000000c0: bc0d aebd ec39 64bc fa08 c9bc d42e 8a3d
000000d0: 0957 f63d 983c 423d 3036 70bd fe55 233c
000000e0: c75e cbbc 8b0c 673d 5de4 1bbc 6db8 c6bc
000000f0: 5fbf 1d3d e205 793d 7093 a83d 353b 48bd
00000100: 7685 7c3c 9983 97bd c42a b23d e204 89bb
00000110: 4075 b3bd 77d2 1bbc 460c 04be 946e 413d
00000120: cfab 5cbd 00e2 57bd 12ce 6fbc edaf ac3c
00000130: 05af 24bd 9b86 e13c 571d aabd 5f5f 2dbd
00000140: ec4b b1bc d079 7abd 78ac cbbc 66c8 0bbd
00000150: e75d 1fbe ccbf 43bd 3580 1e3d 0af6 54bc
00000160: ab78 a2bd 3921 ab3d e573 223e ca75 103b
00000170: 2a5a 29bd 9c15 bfbd 814e ce3d 5dc3 0a3d
00000180: 9456 b83d 0e97 4f3c 81f7 863c 8459 cfbd
00000190: 4cdf 32bd fece 7e3d d020 1d3d a177 b23c
000001a0: 6769 083d 7d55 81bd b3eb 63bd 57d8 babc
000001b0: ba48 0c3c 7b45 03be 3adc 9b3d 1338 53bd
000001c0: 0a15 f43d 219c 0bbd 01f5 f5bc 9bfd 80bc
000001d0: 0b10 323d eced 5f3d 23f3 cabd c73f 4f3d
000001e0: 1928 563c e381 cc3c 1176 62bd df29 eabd
000001f0: 46b3 4f3d e8b6 5fbd 7676 a4bd a153 f6bc
-0.025260972 0.04623433 0.0336142 0.0044249846 0.024128612 -0.1620657 -0.055432715 -0.04058466
-0.013714449 -0.047100853 -0.051853966 0.0423697 -0.06853605 0.07419262 -0.11609477 0.09584878
-0.05372047 0.105350286 0.035562836 -0.04445583 -0.00063994457 -0.013613588 0.074925356 -0.0143008595
-0.032461207 -0.051989745 0.03671718 0.10022879 -0.19005246 0.04244015 -0.041932557 -0.09913907
-0.062180765 -0.041600246 -0.070933536 -0.07853263 -0.07655177 -0.043098133 0.031450372 -0.041152738
0.080795795 -0.04540504 -0.033947736 -0.040317424 0.036387283 -0.050688542 -0.09671741 -0.051981837
-0.084987134 -0.013929825 -0.024540413 0.06747213 0.120283194 0.047421068 -0.058645427 0.009969233
-0.024825467 0.056408446 -0.009514895 -0.024257863 0.038512584 0.060796626 0.082312465 -0.04888459
0.015412679 -0.07398147 0.08699563 -0.0041814903 -0.08762598 -0.009510628 -0.12895307 0.047224596
-0.053874787 -0.052705765 -0.014636533 0.021079982 -0.040205974 0.027530005 -0.083063774 -0.04232728
-0.021642648 -0.061151326 -0.024862513 -0.03412666 -0.15563165 -0.047790334 0.038696487 -0.012998113
-0.07933172 0.08355946 0.15864523 0.0022042864 -0.041345753 -0.093302935 0.10073567 0.03387772
0.090008885 0.012670292 0.016475441 -0.101244956 -0.043669984 0.062209122 0.03836137 0.02178556
0.033303645 -0.06315134 -0.055644702 -0.022808237 0.008562261 -0.12819473 0.07610364 -0.05156715
0.119180754 -0.034084443 -0.030024054 -0.015745929 0.04347233 0.05467026 -0.09909656 0.050597932
0.013071083 0.024964279 -0.05528838 -0.114337675 0.050708078 -0.054617792 -0.08030407 -0.030069174

layers.5.weight f4 [128]
00000000: c3c0 7f3f f23c 7f3f 6486 7a3f a978 7c3f
00000010: 75b0 7e3f 5d2e 863f c128 7c3f 045d 7e3f
00000020: 0022 783f 29c0 7b3f 358f 7d3f 0659 7c3f
00000030: ce23 813f 9c5a 7e3f 2862 813f ef50 7f3f
00000040: 3096 823f 21a7 793f 84f3 7d3f 9545 803f
00000050: 13c1 7b3f f818 803f 2f5e 823f 08b2 7e3f
00000060: 10c2 7a3f b0c3 813f f2ce 7c3f 1100 833f
00000070: 150c 853f e25a 7c3f fb5f 7d3f 79ca 823f
00000080: 7ae9 813f e48a 7e3f c2fb 823f 5519 7d3f
00000090: f971 803f 329c 7e3f 41fb 7e3f 277a 7c3f
000000a0: 08ed 7b3f a36e 803f 64e4 7a3f 613e 7e3f
000000b0: 1137 793f 6c39 7b3f b46d 923f 3d28 7d3f
000000c0: df98 793f a9f7 7b3f 4e8e 813f d44f 773f
000000d0: ac32 813f 0159 7f3f 9140 803f 2534 803f
000000e0: ff0b 7f3f 8e36 813f 5232 7d3f bdc1 7d3f
000000f0: 1675 823f 6d85 823f 4353 853f fd7b 7a3f
00000100: 38ee 7e3f bfb1 803f cd5c 7e3f 9544 813f
00000110: 77fe 873f ca53 823f 6ca0 773f 0273 803f
00000120: 5ddb 803f cd9e 7b3f 26e8 793f 55a8 7c3f
00000130: 74ca 7a3f da3e 803f 72e1 7b3f 9a0a 793f
00000140: 628e 7e3f 1784 863f bcab 7e3f afbb 7f3f
00000150: 70b3 7f3f f357 7e3f f4a0 7c3f 563f 823f
00000160: 897b 7b3f 74f7 7c3f d802 8b3f 3e35 7b3f
00000170: d134 853f 575c 7c3f 40a0 7e3f 99bd 7e3f
00000180: e931 813f fe87 7f3f 8bc1 793f 90aa 7b3f
00000190: 6061 7c3f f495 7e3f 41c0 7a3f fa97 7e3f
000001a0: 7e51 853f 428a 7e3f 014c 803f 5dc9 7e3f
000001b0: 1330 803f 80d7 7d3f 8575 763f b7fe 7f3f
000001c0: bffc 7a3f f2ab 7d3f a7cc 7e3f 734a 833f
000001d0: 5b47 853f 5bcb 7f3f c735 793f f8c5 813f
000001e0: 9dc6 7b3f 414b 7d3f 0b9d 803f 261c 813f
000001f0: fdec 803f b4f9 7d3f 7547 833f e781 803f
0.99903506 0.9970237 0.97861314 0.9862161 0.99488 1.0482899 0.98499686 0.9936068
0.9692688 0.9834009 0.9904664 0.9857334 1.0089052 0.9935701 1.010808 0.9973287
1.0202084 0.97520643 0.991997 1.0021235 0.9834148 1.000762 1.0184993 0.99490404
0.97952366 1.0137844 0.98753273 1.0234395 1.0394312 0.98576176 0.9897458 1.021804
1.0149376 0.9943068 1.023308 0.9886678 1.0034782 0.99457085 0.99602133 0.9862389
0.98408556 1.0033764 0.98004746 0.9931393 0.9734965 0.98134494 1.1439729 0.98889524
0.9749889 0.98424774 1.0121553 0.96606183 1.0093589 0.99745184 1.0019704 1.0015913
0.9962768 1.0094774 0.9890491 0.99123746 1.0191982 1.0196968 1.0416034 0.9784544
0.9958224 1.0054244 0.9936035 1.0099055 1.0624532 1.018182 0.9672916 1.0035098
1.0066944 0.98289186 0.97619855 0.98694354 0.9796517 1.0019181 0.9839088 0.972818
0.9943601 1.0509061 0.99480796 0.9989576 0.99883175 0.9935295 0.98683095 1.0175579
0.98235375 0.98815084 1.0860243 0.98128116 1.0406743 0.985784 0.9946327 0.99508053
1.0093356 0.9981688 0.9756095 0.9830713 0.9858608 0.9944756 0.97949606 0.9945065
1.0415494 0.99429715 1.0023195 0.99526006 1.0014671 0.9915695 0.9627307 0.9999804
0.9804191 0.9909049 0.99531025 1.0257095 1.0412401 0.9991967 0.9734768 1.013854
0.98349935 0.98942953 1.0047926 1.0086715 1.0072323 0.9920914 1.0256182 1.0039643

layers.5.bias f4 [128]
00000000: 6ab8 d439 da5f e13b ea86 013b 2290 00bc
00000010: 84a3 eb39 870e d1bc 9fa9 0c3d 143f ab3c
00000020: 66f8 18bb ca9e e23c 6d7e b53c 4b15 053d
00000030: 3596 32bc 1ed1 cf3c e0a3 f63c 126c 3f3c
00000040: 2c97 17bc c331 f6b9 de48 833c f131 003c
00000050: cb74 803a 41bf c53c 353a d63c 1cd2 0ebc
00000060: ee08 433c aec0 a0bc 6d9e 52ba 85b2 46bb
00000070: 19c8 b53a b5bf ddbb 10e8 a7bb d2bd edbb
00000080: 6c69 e53c 7b96 e73c d3c1 ebbb ae25 163c
00000090: 3a31 813c 8e05 d83c 709a b0bb 3007 13bc
000000a0: 5ba5 053c b0d7 c8bb a575 003d 5a33 0ebc
000000b0: 2219 963b add6 0e3b 81a1 043d cfec 323c
000000c0: b775 5e3c 1b31 c63b 919b dd3c aa40 693c
000000d0: 5145 43bd a014 cb3c 418e f63c 1a00 fabb
000000e0: a8e7 bc3c d048 6b3c cc9b 963c 0185 62bb
000000f0: bb8f 0c3d 2aca 803c 9afc 443c 4281 113d
00000100: c72e b13c 697c 13bc 702e 27bc 67d4 1d3d
00000110: d102 88bc f45d 413c 360d e9bc d481 de3b
00000120: 9594 c2bb 472d 3b3c 274b 30bb c8f6 ff3c
00000130: 7a32 c6bc d39e 6e3c 0da0 88bc 3f20 613c
00000140: 946b 833c 4159 6e3c 6ab5 823a 4317 8a3c
00000150: f0f4 fa3c 2959 6b3c ec73 25bc bbb8 a33b
00000160: aaab 8fbb e755 9a3c 4318 78bc 8f88 023c
00000170: eaf9 4dbc 430e f03b 0408 a7bb 9c9b 63bc
00000180: 6b10 9c3c 3709 fc3c 6464 e1bc 1581 3ebc
00000190: 167c e63c 6fc1 013b c116 b8ba bb02 323c
000001a0: 37ef 623c 5110 933c 44df d43b c6a7 c73c
000001b0: 4119 923c df97 05bb cae5 563b 5cd4 60b9
000001c0: 4074 e63c 8ff2 8b3c 7a95 0b3c 4e56 ff3b
000001d0: f96a 153d 6277 99b9 d82d 903c 7200 813c
000001e0: f305 2f3c b2e0 ff3c 2574 0ebd 77dd 5e3c
000001f0: 1781 0cbc 5875 e13b 5a33 24b9 bde4 613c
0.0004057319 0.0068778815 0.0019764253 -0.007846864 0.00044944522 -0.025519622 0.03434145 0.020904101
-0.0023341416 0.027663607 0.022155011 0.03249101 -0.01090007 0.02536827 0.030107439 0.011683481
-0.009252351 -0.00046957852 0.016025957 0.007824407 0.0009800432 0.024139049 0.026150802 -0.008717086
0.0119039845 -0.019623127 -0.00080344715 -0.0030318808 0.0013868838 -0.006767238 -0.0051240996 -0.0072552944
0.02800437 0.028269997 -0.0071947365 0.009164257 0.015770543 0.026369836 -0.005389504 -0.008973882
0.0081571 -0.0061292276 0.031362195 -0.008679235 0.004580633 0.0021795437 0.032380585 0.010920717
0.01357787 0.0060483343 0.027051719 0.0142366085 -0.047673527 0.024790108 0.030097129 -0.0076294066
0.023059681 0.014360622 0.018384837 -0.003456414 0.03431676 0.0157214 0.0120231155 0.03552366
0.02162875 -0.00900183 -0.010203943 0.03853264 -0.016602905 0.011802185 -0.028448682 0.006790379
-0.0059381225 0.011424369 -0.0026900263 0.031245604 -0.024193991 0.014564234 -0.01667788 0.013740598
0.016042508 0.014547647 0.0009972278 0.016856795 0.030634373 0.014364519 -0.010098439 0.004996387
-0.0043844776 0.01883979 -0.015142503 0.007967128 -0.012571791 0.007325919 -0.005097391 -0.013892081
0.019050797 0.030766113 -0.02751369 -0.011627455 0.02813534 0.0019799133 -0.0014044867 0.010864909
0.013850979 0.017952116 0.006496342 0.024371993 0.017834308 -0.0020384712 0.0032790774 -0.00021441415
0.028131604 0.017083434 0.008519525 0.0077922707 0.03647897 -0.0002927138 0.017599985 0.015747283
0.010682571 0.031235073 -0.034778733 0.013602606 -0.008575699 0.0068804435 -0.00015659389 0.013787446

layers.5.running_mean f4 [128]
00000000: 257f 003f cd52 e33e af29 0d3f 40c8 8d3e
00000010: 7b02 dc3e ba7e a63e 61d6 d33e 7280 733e
00000020: 19a5 c43e 8970 e13e 2a8f 293e f02d 103f
00000030: 76ff c83e 3e01 ed3e a422 0c3f 889c 193f
00000040: 8a7f c33e f915 f03e 3934 803e 56e3 e13e
00000050: d297 033f bd65 6e3e afe7 103f 2cbc da3e
00000060: 8ea4 c03e cddf cc3e 4fef d93e a66b c73e
00000070: fadd d53d 6981 d93e 0749 c63e 525d cb3e
00000080: 9b1d aa3e 487c c03e d4a1 e03e 4e96 3f3e
00000090: 713a bf3e b13c 203f 9d5b d33e f1db 943e
000000a0: c132 ab3e 6923 de3e adcc 533e 705b 553e
000000b0: f80c a83e e503 9b3e 622e 9a3e 07a0 a63e
000000c0: 6f8f 833e 23d3 d03e 41e9 ea3e da2c b43e
000000d0: 16ee fe3e 3887 173f 677f b33e 1ec6 f13e
000000e0: eb0c d43e 4deb b83e 3687 933e bfd4 db3e
000000f0: 8809 143f fea1 cf3e f7f7 e13e 483e 9a3e
00000100: 5574 bc3e 3420 b73e 9630 c53e d929 403f
00000110: 179b bb3e 56f3 b93e 450c 483e 573d ff3e
00000120: 04ee 893e 2b47 003f a309 0a3f 437b c93e
00000130: dd35 c03e d015 0e3f 95cb 633e f0e2 e83e
00000140: 793f a93e 78e5 7c3e 981e a23e b6d1 8d3e
00000150: 8d0e 983e 0029 8d3e d0ea c73e f446 b03e
00000160: e04b 243e 411a c13e 06b6 e53e b024 023f
00000170: 6e40 ee3e ddaf 8e3e 7732 6b3e 9976 c83e
00000180: 482f ff3e fd46 c43e 9419 b13e b088 7b3e
00000190: b934 7b3e 2567 ce3e 76c5 843e af61 aa3e
000001a0: 80df c23e 7afe b03e 522a d83e 82d4 403f
000001b0: cb4b be3e 0659 553e 2c50 b03e 9d40 b03e
000001c0: edce f53e 104d 9a3e ef13 853e 6fdf f83e
000001d0: 88ca 253f ec50 ab3e a054 323e 1b82 963e
000001e0: d382 783e 2a3f a63e 3a74 a33e af48 8c3e
000001f0: e508 fe3e 0bca e93e 0973 053f 5cc6 e13e
0.5019401 0.4439911 0.5514173 0.2769184 0.42970642 0.3251856 0.41374496 0.23779467
0.3840721 0.4403117 0.16558519 0.56320095 0.392574 0.4629001 0.5474036 0.6000447
0.38183242 0.46891764 0.25039843 0.44118756 0.51403534 0.23280998 0.5660352 0.4272169
0.37625545 0.40014496 0.4256539 0.38949317 0.10442729 0.42481545 0.3872759 0.39719635
0.33225712 0.3759482 0.43873465 0.1870968 0.37349275 0.6259261 0.41280833 0.29074052
0.3343716 0.4338639 0.20683546 0.20835662 0.32822394 0.3027641 0.30113512 0.32543966
0.2569537 0.40786085 0.45881084 0.3519047 0.4979102 0.591907 0.35058138 0.47221464
0.41416106 0.3611702 0.28814095 0.4293575 0.57827044 0.40553278 0.44134495 0.30125642
0.36807504 0.35766757 0.3851363 0.75063854 0.36641762 0.36318463 0.1953593 0.49851486
0.26939404 0.50108594 0.53920954 0.39351854 0.37541094 0.55502033 0.22245629 0.4548564
0.33056238 0.2469691 0.31663966 0.2769906 0.296986 0.27570343 0.39046335 0.34429133
0.16044569 0.37715343 0.44865435 0.5083723 0.4653353 0.27868548 0.2296847 0.39152983
0.4984076 0.3833541 0.34589827 0.24563861 0.24531831 0.40313068 0.259319 0.33277652
0.38061142 0.3456915 0.42219788 0.7532426 0.371672 0.20834741 0.34436166 0.34424296
0.48009434 0.3013692 0.2599177 0.48607966 0.64762163 0.33460176 0.17415094 0.29396138
0.24268655 0.32470065 0.3192461 0.27399203 0.4961616 0.4566196 0.52128655 0.4409665

layers.5.running_var f4 [128]
00000000: 79df c43e 21f2 de3e 92e0 263f edf8 523e
00000010: d4ff 093f d670 e33e 0b69 f13e 0051 0a3e
00000020: f8d2 823e b7fb f83e 3892 9f3e 2c02 0d3f
00000030: e595 eb3e 0a16 d63e a8b3 243f 888a 163f
00000040: 745c 633e ab47 cb3e df3a 123f 01e2 103f
00000050: 41c9 493f f579 8a3e 243e f03e 9b25 083f
00000060: eabc a23e 9dc2 aa3e e9de fa3e cfca 5e3e
00000070: ccc8 183d 4104 bf3e 1073 d83e a0fe f53e
00000080: 91f9 3f3e fd70 d03e e62e 113f a12f a13d
00000090: d82c d13e eef0 5c3f d0ae d23e ced3 1c3e
000000a0: e072 833e e135 1c3f af89 493e bc33 3a3e
000000b0: ad61 8f3e f4e4 353f fffa 2f3e 4ddc 803e
000000c0: 8ee6 303e 85ac c63e 3b77 1e3f 6b05 a13e
000000d0: 1cac 323f 0d07 193f 6c0c af3e 9ac2 203f
000000e0: 39c7 da3e bf0d 713e 2ae8 e33e 7b92 ec3e
000000f0: d069 103f d52c f13e 698d 7c3e 94af a13e
00000100: 0113 ae3e 4faa cf3e 73ab c23e 5d5b 8b3f
00000110: 06b3 583e feda 553e 9f4e 173e 9fed b53e
00000120: 56c9 503e caee be3e c92a e73e 7064 f73e
00000130: fd58 0d3f aeb2 ef3e 9d80 913d aef5 223f
00000140: aba3 613e 0f44 cd3d 2df3 863e a38a 513e
00000150: 6fd7 693e 512e 053e d871 493f 8d2e 2d3e
00000160: 089f 003e 4144 933e 44ab 2e3e 629e d13e
00000170: 7323 da3e d0ab 5c3e 55b6 b93d 5482 d03e
00000180: 9e34 bc3e dd01 b93e 4788 963e a72c d23d
00000190: f7ba 4f3f 5a87 003f 3814 8a3e dd2d b33e
000001a0: 78e0 693e e2b4 563e 64dc 113f a677 5f3f
000001b0: 3f5b 913e 8f94 473e b46c 973e 5ab7 553e
000001c0: fb70 023f 613e 5a3e ea11 183e c2a7 353f
000001d0: 9c6a 693f 7cfd c53e 69d6 c43d 383f 463e
000001e0: 0f49 0e3e 91fc 363e 182c b23e 1cff 3f3f
000001f0: 81d5 093f d1bf 0d3f 30db 483f 47b5 173f
0.38451746 0.43544105 0.6518642 0.2060277 0.5390599 0.44422024 0.47150454 0.13507462
0.2555158 0.48629543 0.31166244 0.5508144 0.46012798 0.4181369 0.64336634 0.5880513
0.22203237 0.39703116 0.5712108 0.56594855 0.78822714 0.2704617 0.4692241 0.5318238
0.31784755 0.33351603 0.48998192 0.21757053 0.03730087 0.37307933 0.42275286 0.48045826
0.18747546 0.40711203 0.56712186 0.078704126 0.40854526 0.8630513 0.41148996 0.15315172
0.2567358 0.6101971 0.19681428 0.18183798 0.28004208 0.7105248 0.17185591 0.25168076
0.1727545 0.38803497 0.6190068 0.31449446 0.6979387 0.59776384 0.34189165 0.6279694
0.4273012 0.235404 0.44513065 0.46205506 0.5641146 0.47104517 0.24663319 0.31579268
0.33998874 0.40559623 0.3802143 1.0887257 0.21162042 0.2088432 0.14776085 0.35532853
0.20389304 0.37291557 0.4514983 0.48318815 0.5521391 0.4681601 0.07104609 0.6365613
0.2203509 0.10022747 0.26357403 0.20463042 0.22836088 0.1300595 0.78689337 0.16912289
0.12560666 0.2876301 0.1705752 0.4094115 0.4260517 0.21549916 0.0906798 0.40724432
0.36758894 0.36134234 0.29400846 0.10262423 0.8114466 0.5020653 0.2696855 0.34995928
0.22839534 0.20967439 0.56976914 0.87291944 0.28389928 0.19490264 0.2957512 0.20870724
0.50953645 0.21312858 0.14850584 0.70959103 0.911783 0.38669956 0.09611208 0.19360054
0.13895057 0.17869784 0.34799266 0.7499864 0.53841406 0.55370814 0.78459454 0.5926098

layers.6.weight f4 [128, 128]
00000000: 1b07 2ebd f730 55bb e6f7 61bb 4e26 b7bd
00000010: e8bc a1bd 499b 983d cf77 3d3d ff0c c0bc
00000020: 035b 623d a7b2 65bc 5d32 dbbc 31a2 5e3d
00000030: 2bf5 913d bf1c 18bc 83b3 43bd 819d 523c
00000040: 3e16 d73d 8dea 0cbd 769f 563d 2a9a 533c
00000050: 124b ddbc 6218 ab3d 2678 873d bdae 413d
00000060: 9084 3e3d b8ba 58bd 62e5 0e3d ad1e a03d
00000070: 9a8f 7c3c ae5e 633c 6c62 1abd baf4 493d
00000080: 251d ce3c 275c 99bc 7b41 fbbb 9feb 61bc
00000090: 43a2 823d 3f64 b83d 0028 8cbd bc48 b0bd
000000a0: fb40 143c 37b3 713d 492a 983c 74ed 7ebc
000000b0: b332 503d 1b67 9d3d dc08 c03c 6914 f2bc
000000c0: c504 4bbc 05dc 26bd 6227 703d f444 a73d
000000d0: 6b3a 973c 5d25 87bd 4eba 133c 77b7 c9bd
000000e0: 7bb8 aeba 1f93 39bd f945 a43d 1ed1 213d
000000f0: 3c15 a33d a567 b7bd dcdb b43d 4308 443d
00000100: e0f4 a7bb 6347 f73c 3cff 7b3d 5762 b13d
00000110: f713 17bd 993d d13d 4420 ce3b bbb1 42bd
00000120: 86fb b4bd 5f17 a3bc 109d 403d 4991 563d
00000130: 8dc0 bbbd 40f6 cfbc f77b a63d 146c 84bd
00000140: 7966 f63c b19c edbb 5822 1fbd c4fe 7d3d
00000150: 74c4 bfbc 3c9b c83c 80c3 83bd 36a3 0f3d
00000160: c548 a63d dc3d 6cbd 08b7 81bd 330d 8cbd
00000170: 6965 8fbd c760 893d 01f9 e13c 6483 72bd
00000180: 755f 90bd 4982 f93c 0244 e03c d9fe 90bd
00000190: 29c4 0b3c 603a 423d 157f b3bd 2703 a8bd
000001a0: 4948 0a3d 89f7 823d a9dc 1fbd 1dbc 00bd
000001b0: 9e73 a03d f663 253d 1584 4b3d 7896 abbc
000001c0: 7408 07bd 4914 2e3c f4ca a13d fdd5 8f3d
000001d0: 3141 06bc fe76 a33b 7da8 883c 6482 0fbd
000001e0: c67e c5bc f6c9 f2bc 42c0 943d e0d0 42bd
000001f0: ec79 583c f044 aebd d69c 50bd 82f1 9dbd
00000200: d7eb a03d db7b 95bd 118b 963d 8d2a 01bb
00000210: b431 84bc 41a6 abbc b001 a0bd 656c 063d
00000220: 2c32 963d 120f 9b3d 9559 f5bc fe9d 5cbd
00000230: 1922 6d3d 7a58 463d 5518 9d3d 171f 13bd
00000240: fd1e 16bb 8b45 dfbc 5ee5 853d eedb ac3d
00000250: 8271 a9bd dd89 a03d 8c78 a8bd 7596 dc3d
00000260: 9097 093c 73ba a6bd 29d4 0bbd 3da5 91bd
00000270: 1cd9 893d 5310 e1bc ee96 273d af79 963d
00000280: 96c7 61bd 3d77 b1bd 9288 d13d 0a2d 3cbd
00000290: 6630 ea3c 0ed3 aa3b 778c ea3c d3c1 1fbc
000002a0: 25d6 a3bd dfcf 883d 8097 37ba 9a73 f6bc
000002b0: 376c 553d c959 b0bd f9c6 3cbd 5eba 9fbb
000002c0: d69a 553d a7f2 943d 9a7c 82bd 38c4 6fbd
000002d0: f056 8f3d 24ce 293d 375c 8d3d 1903 ad3d
000002e0: e5aa c13c 1e1c aabd cb04 55bc 4a54 9cbd
000002f0: 68f2 3d3d a07d 19bd 525d 593d 12ad 6b3d
00000300: a7bd 19bc 6287 1fbd ef76 99bb 61d0 613d
00000310: d4eb aabd 0374 4d3d 482d 23bd 7e90 42bd
00000320: b4f3 a23d a1c0 90bb bcfc 013d d7d8 52bd
00000330: 0b86 3a3b 8911 8cbd 3cdf 8fbd c025 d53c
00000340: 1d7f 8a3d fd67 eabc 49d7 8bbc 6376 773d
00000350: 60a6 893c fbcb a9bd 1097 7cbd d182 deba
00000360: bc2b 6d3d 26ed 74bd adff 273d 9d77 a03c
00000370: c4e4 383d b46a 823a 2894 e2bc ee3d 273d
00000380: 5e91 99bc c881 e83b bc95 893c 4353 a7bd
00000390: b2d3 96bd 38af 563d f8b0 883d 641c 95bd
000003a0: 9300 df3c 8c1a 00bd 70f9 7abd 54d6 ff3c
000003b0: becb 2fbd 7bd1 103d c3c7 9f3d 7067 2bbc
000003c0: 6856 8cbd 4e88 6d3c 3479 02bd 96a8 b53d
000003d0: 5778 8a3c b281 873d 5870 87bc aaaf 21bd
000003e0: a1ba 743d e8dc 83bd 61e8 62bc 8643 6ebc
000003f0: de62 933c d71f 9f3d 532b 063d 9838 2d3d
-0.042487245 -0.0032530406 -0.0034480034 -0.08942853 -0.07897359 0.07451493 0.046256837 -0.023443697
0.055262577 -0.014019645 -0.026757414 0.054353897 0.0712684 -0.009284197 -0.047778618 0.012854935
0.10502289 -0.034403373 0.052398168 0.012915174 -0.027013335 0.0835426 0.06614713 0.047285784
0.04651314 -0.052912444 0.034886725 0.07818351 0.015415097 0.013877554 -0.03769152 0.049305655
0.025160382 -0.0187207 -0.007667718 -0.013789087 0.06378605 0.090034954 -0.06843567 -0.08607623
0.009048696 0.059008803 0.01857485 -0.015559543 0.0508296 0.076856814 0.023441724 -0.029550748
-0.012391274 -0.04073717 0.05863131 0.08167449 0.018460473 -0.06598923 0.0090165865 -0.09849446
-0.0013330126 -0.04530632 0.08021159 0.03950607 0.079630345 -0.089553155 0.08830997 0.04785944
-0.005125627 0.030185407 0.061522707 0.08661335 -0.036884274 0.10216827 0.0062904675 -0.04753278
-0.08837037 -0.019908605 0.047024786 0.05238465 -0.091675855 -0.025385976 0.08129113 -0.06465927
0.03007816 -0.007251345 -0.038851112 0.06201054 -0.023409106 0.024488084 -0.06433773 0.03506776
0.081193484 -0.05767618 -0.063337386 -0.06838455 -0.07001764 0.06707912 0.027584555 -0.059207335
-0.07049457 0.030457633 0.027376179 -0.07079858 0.008530655 0.047418952 -0.08764473 -0.08203726
0.033760343 0.0639487 -0.039028797 -0.0314294 0.07834552 0.040378533 0.04968651 -0.020945773
-0.032967046 0.010624954 0.07900038 0.07023237 -0.008194254 0.00498855 0.016681904 -0.03503646
-0.024108302 -0.029637318 0.07263233 -0.04756248 0.013212662 -0.085092425 -0.05093082 -0.077120796
0.07857483 -0.07299014 0.073507436 -0.00197092 -0.016136982 -0.0209533 -0.07812822 0.032818217
0.07333788 0.07571234 -0.029949943 -0.05386161 0.057893846 0.04842422 0.076706566 -0.03591832
-0.0022906654 -0.02725484 0.06537889 0.08440386 -0.08273603 0.07838795 -0.082261175 0.10770885
0.008397952 -0.08141031 -0.03413788 -0.07111595 0.067308635 -0.027473604 0.040915422 0.07347428
-0.05512198 -0.08665321 0.10231127 -0.04594139 0.028587531 0.005213148 0.028631432 -0.009750801
-0.07999829 0.06680273 -0.0007003471 -0.03008442 0.052105155 -0.08610875 -0.046088193 -0.0048745116
0.052149616 0.07272845 -0.06371422 -0.05853674 0.06999004 0.041456357 0.06902354 0.084478565
0.02364106 -0.08306144 -0.013001631 -0.07633264 0.046373755 -0.03747332 0.053067513 0.0575381
-0.009383596 -0.03894747 -0.0046833674 0.055130366 -0.08345762 0.050159466 -0.039838105 -0.04750108
0.07956639 -0.0044174944 0.031735167 -0.051476326 0.0028461243 -0.06839282 -0.070250005 0.026018977
0.06762526 -0.028614039 -0.01707043 0.060415637 0.016802967 -0.08290859 -0.061667502 -0.0016976242
0.057903036 -0.059796475 0.041015316 0.019588286 0.045140043 0.0009950013 -0.027658537 0.040830545
-0.018746074 0.0070955493 0.016795032 -0.08170178 -0.073645964 0.052413195 0.06674379 -0.07280806
0.027221953 -0.031275317 -0.06127304 0.03123013 -0.042918913 0.035356026 0.078017734 -0.010461673
-0.06852418 0.01449783 -0.03185387 0.08870046 0.016903086 0.06616534 -0.016533062 -0.039474167
0.059748296 -0.06438619 -0.013849349 -0.014542466 0.01799148 0.07769745 0.03275616 0.0422903
