model/trained_model.pth (torch, 5387 bytes, 7 tensors)

layers.0.weight f4 [64, 5]
0	0xbdf38aad	-0.11891685
1	0xbea456f6	-0.32097596
2	0x3e7fc260	0.24976492
3	0xbcd3f75d	-0.025874788
4	0x3e32c6ff	0.17458723
5	0xbdeb33d3	-0.11484494
6	0xbdb6f41d	-0.0893328
7	0xbf137e19	-0.57614285
8	0xbd0244f1	-0.03180403
9	0xbd83afd0	-0.06430018
10	0x3e45cb2b	0.19315784
11	0xbeb3a9a8	-0.35090375
12	0xbee2026b	-0.4414247
13	0xbec3bc86	-0.3822977
14	0x3df6ac03	0.120445274
15	0x3ed5ad7b	0.41733918
16	0xbe540906	-0.20706567
17	0xbe95e18b	-0.29273638
18	0xbeccd480	-0.40005875
19	0x3c38fd76	0.011290899
20	0x3dfad8a5	0.12248353
21	0xbd71a72c	-0.05899732
22	0xbe21cdad	-0.15801115
23	0xbf068789	-0.5255056
24	0x3d85f83d	0.06541488
25	0xbede34f0	-0.43399763
26	0xbd30cf63	-0.04316653
27	0x3e2bce69	0.16777958
28	0xbf0f216b	-0.55910367
29	0x3c90ef9d	0.017692382
30	0x3e85c723	0.26128492
31	0x3e3fe816	0.18740878
32	0x3d84f748	0.06492478
33	0xbe90abf1	-0.2825618
34	0xbe5b6dfc	-0.21428674
35	0xbebede43	-0.37278947
36	0xbc57f287	-0.013180382
37	0xbf960051	-1.1718847
38	0xbf1034a1	-0.56330305
39	0x3d51be8b	0.051207107
40	0x3e54c8e5	0.2077976
41	0xbe98c23d	-0.29835692
42	0x3e0d76d1	0.13814856
43	0x3e9793bd	0.29604903
44	0xbe2a1218	-0.16608465
45	0xbed5908e	-0.4171185
46	0xbe9b4596	-0.30326527
47	0xbeba3a26	-0.3637249
48	0xbed134e9	-0.4086068
49	0xbbb0ad65	-0.005391764
50	0x3d44f316	0.048083387
51	0xbaa3395a	-0.0012453005
52	0xbb695eb0	-0.0035609417
53	0x3e8284e7	0.2549202
54	0x3f461d3f	0.77388376
55	0x3d395be3	0.045253646
56	0xbe7171c1	-0.2357855
57	0x3e8e6f8e	0.27819484
58	0x3ec0f9b0	0.37690496
59	0xbecdfcf9	-0.40232065
60	0xbec9b08e	-0.39392513
61	0xbe80857e	-0.25101846
62	0x3e44bef2	0.19213465
63	0x3e79cca7	0.24394475
64	0xbe44f9c2	-0.192359
65	0x3e9b8d48	0.30381227
66	0xbd11b413	-0.035572123
67	0xbe82b1fa	-0.2552641
68	0xbeb254e6	-0.34830397
69	0xbd625b16	-0.055262648
70	0x3e405e92	0.18786076
71	0xbe881288	-0.26576638
72	0x3ee00640	0.43754768
73	0x3ee56fa7	0.44811746
74	0xbe50fdc8	-0.2040931
75	0xbed1c8e3	-0.40973577
76	0xbecae79b	-0.39629826
77	0xbea52107	-0.3225176
78	0x3eeedaf2	0.46651417
79	0xbd0881f4	-0.033327058
80	0x3eda4ee3	0.4263831
81	0xbd853d2d	-0.06505809
82	0x3e309c95	0.17247231
83	0xbe3357b4	-0.17513925
84	0xbec022dd	-0.375266
85	0xbe88ef62	-0.26745135
86	0xbe6dfd17	-0.23241077
87	0xbeaf3615	-0.3422095
88	0xbf0ce863	-0.55042094
89	0x3bd0e853	0.0063753515
90	0xbe8eae22	-0.27867228
91	0xbdaecc56	-0.08535068
92	0x3eab03f6	0.3340146
93	0xbf1bd390	-0.60869694
94	0xbd95e874	-0.073197275
95	0xbe6cb07b	-0.23114197
96	0xbcae2d52	-0.021261845
97	0x3e7c7fa7	0.2465807
98	0xbe5a21cd	-0.21301956
99	0xbe1e008e	-0.15429899
100	0xbeca79fe	-0.39546198
101	0xbec11fce	-0.37719578
102	0xbed2612e	-0.41089767
103	0xbe3acc4c	-0.18241996
104	0xbe2fbad6	-0.17161116
105	0x3dca12c6	0.09866862
106	0xbe9381d5	-0.2880999
107	0x3e943d81	0.28953174
108	0x3ec40c20	0.382905
109	0xbea0d46c	-0.31412065
110	0xbeba08d3	-0.36334857
111	0xbece6033	-0.4030777
112	0xbe6ab995	-0.22922356
113	0xbd85aa33	-0.065266035
114	0x3c10f5e8	0.008847691
115	0x3de3fa21	0.11131693
116	0xbe4b9d3a	-0.19884196
117	0x3f09f538	0.538898
118	0x3ef670cd	0.48132935
119	0xbdba4160	-0.090945005
120	0x40286653	2.6312454
121	0x3e2b5932	0.16733244
122	0x408ff194	4.4982395
123	0xbf0ff737	-0.56236595
124	0xbcd59285	-0.026070843
125	0x3eb03abe	0.34419817
126	0xbf24c29e	-0.6435946
127	0xbee26bd4	-0.4422289
128	0x3d7c5db1	0.06161279
129	0x3cbc6464	0.022997089
130	0xbe8dce37	-0.27696392
131	0xbe11d7e4	-0.14242512
132	0x3e777b5a	0.24168149
133	0xbeb493ec	-0.35269105
134	0xbd9261e6	-0.07147579
135	0xbd5dd665	-0.05415954
136	0xbeeb2b42	-0.4593144
137	0x3e35a270	0.17737746
138	0x3d68764c	0.05675344
139	0xb9d9ff50	-0.00041579688
140	0xbe0eae43	-0.13933663
141	0xbf47e82b	-0.78088635
142	0x3ea56f1e	0.32311338
143	0xbe4d5ac9	-0.20054163
144	0xbedbc12f	-0.42920825
145	0xbe03eff0	-0.12884498
146	0xbe2dc7f9	-0.16970815
147	0xbe81a9aa	-0.25324756
148	0xbedea0c3	-0.43482026
149	0x3d063cd5	0.032772858
150	0x3e8f2dd6	0.27964658
151	0xbeb033ff	-0.3441467
152	0x3f01dcef	0.5072774
153	0x3f05b850	0.52234364
154	0xbeb8a338	-0.36062026
155	0x3ec95847	0.39325163
156	0xbe3eb2f5	-0.18622954
157	0xbe9d18c6	-0.30682963
158	0x3ea7f289	0.32802227
159	0xbdc7dfcd	-0.097594835
160	0xbd558db6	-0.0521371
161	0xbe093cd4	-0.1340211
162	0x3f09e524	0.53865266
163	0x3eba471c	0.36382377
164	0xbdfec495	-0.12439839
165	0x3eb637a7	0.35589334
166	0xbda44104	-0.08020213
167	0xbdd645a0	-0.10462499
168	0xbacf97dd	-0.0015838105
169	0xbeb14b97	-0.34627983
170	0x3ec43116	0.383187
171	0xbed2198c	-0.41035116
172	0xbd997252	-0.07492508
173	0x3ea21c7d	0.3166236
174	0xbe72c744	-0.23708826
175	0xbbd20839	-0.0064096716
176	0xbeb1d77c	-0.34734714
177	0xbe1d5b6e	-0.15366909
178	0x3ed5d4fb	0.41764054
179	0xbdd6c1a7	-0.10486155
180	0x3e4021b3	0.18762855
181	0xbea266c4	-0.3171903
182	0xbcca239f	-0.024675189
183	0xbe08db65	-0.13364942
184	0x3d8098f4	0.062791735
185	0xbc665922	-0.014059337
186	0xbe1972ce	-0.14985201
187	0x3e7dc4a5	0.24782045
188	0x3ea5ff19	0.32421187
189	0xbd49adeb	-0.049238127
190	0x3e993daf	0.29929873
191	0xbef5abc9	-0.47982624
192	0x3dfcf7f9	0.123519845
193	0xbd07cc89	-0.033154044
194	0x3dd89384	0.105750114
195	0xbe4fd532	-0.20296171
196	0xbe9e14fc	-0.30875385
197	0x3eca0d69	0.39463356
198	0xbe588ef5	-0.21148284
199	0xbc640b28	-0.0139186755
200	0xbdac6dd3	-0.08419385
201	0x3e6290ee	0.22125599
202	0xbf61e874	-0.8824532
203	0xbfa0021c	-1.2500644
204	0x3d04430b	0.0322905
205	0x3e3421a8	0.17590964
206	0xbdab256b	-0.08356746
207	0xbe1c5fee	-0.1527097
208	0xbe7585b1	-0.2397678
209	0x3b1acfbd	0.0023622357
210	0xbf814ca1	-1.010151
211	0x404492d7	3.0714624
212	0xbf714edc	-0.94260955
213	0xbee79512	-0.4523092
214	0xbf1c60ff	-0.61085504
215	0x3e2dce6e	0.16973278
216	0x3e041825	0.12899835
217	0x3e8b7dbd	0.27244368
218	0x3ee32572	0.44364506
219	0xbd8e5130	-0.06949079
220	0x3d308c87	0.043102767
221	0xbe46a5d9	-0.19399203
222	0xbd19e3dc	-0.03757082
223	0x3e75b493	0.23994665
224	0xbe1b696b	-0.15176933
225	0x3ee71291	0.45131353
226	0xbe51ab01	-0.20475389
227	0x3f207233	0.62674254
228	0x3e03af4e	0.12859842
229	0xbd9e2238	-0.077213705
230	0xbeebef29	-0.46080902
231	0x3ebdaa7c	0.37044132
232	0xbebcc232	-0.3686691
233	0xbcc89f76	-0.0244901
234	0xbe0c4f5e	-0.13702151
235	0xbe0d44b1	-0.13795735
236	0xbe3266f7	-0.1742209
237	0xbe8fd1e3	-0.28089818
238	0x3e96ce4f	0.29454276
239	0xbe93bb51	-0.2885385
240	0x3eda1f1c	0.4260186
241	0xbe1a18ea	-0.15048566
242	0x3e31a2b1	0.17347218
243	0x3ec4fd99	0.3847473
244	0xbe2b0fa3	-0.16705184
245	0x3e37a56b	0.17934196
246	0xbeeea456	-0.46609753
247	0xbedafbd8	-0.42770267
248	0x3dfb65c9	0.12275273
249	0x3d4b4eed	0.049635816
250	0x3e45f197	0.1933044
251	0xbd41490d	-0.047188807
252	0xbe812693	-0.25224742
253	0xbebdacdf	-0.37045953
254	0x3c9f9f53	0.019485151
255	0xbe9787bf	-0.29595754

layers.0.bias f4 [64]
0	0xbd78bc30	-0.060726345
1	0x3e0b07a0	0.13577127
2	0x3eb18313	0.34670314
3	0x3d50758d	0.050893355
4	0xbeb3ee31	-0.35142663
5	0xbc68ee07	-0.014216906
6	0x3f045740	0.5169563
7	0xbe81b0c6	-0.2533018
8	0x3ef553c0	0.4791546
9	0x3e9b3911	0.30316976
10	0xbe071ec6	-0.13195333
11	0x3e820c00	0.2539978
12	0x3eabb7c7	0.33538648
13	0xbe741391	-0.23835589
14	0xbd84eca3	-0.06490447
15	0x3ecd7ec2	0.4013577
16	0xbe102529	-0.14076675
17	0x3edc155a	0.4298504
18	0xbe49d0d7	-0.19708572
19	0xbe8cda9a	-0.2751053
20	0xbdc6d6b8	-0.09708923
21	0xbea9111e	-0.33020872
22	0x3eb7beb9	0.35887697
23	0xbe1a74c5	-0.15083607
24	0x3e8d7234	0.27626193
25	0xbdc71ba0	-0.09722066
26	0xbe887713	-0.26653346
27	0x3e22e8e8	0.15909159
28	0xbd93ffff	-0.07226562
29	0x3e2c4910	0.16824746
30	0x3ef623c3	0.4807416
31	0xbdaa6616	-0.083202526
32	0xbe8ae5c3	-0.2712842
33	0xbe48e94b	-0.19620244
34	0x3e29308e	0.16522428
35	0xbec6c0e2	-0.38819033
36	0x3de1655a	0.110056594
37	0x3e60974a	0.21932712
38	0xbd81be6e	-0.0633515
39	0x3e9e0e7b	0.30870423
40	0x3ef643f2	0.48098713
41	0x3d8fa771	0.07014359
42	0x3efdeed7	0.49596283
43	0x3f16e365	0.58940727
44	0x3f028f52	0.5099994
45	0xbe2257f5	-0.15853865
46	0xbe98b53f	-0.2982578
47	0xbee5eb7b	-0.4490622
48	0xbe00d635	-0.12581713
49	0x3ed0635f	0.40700814
50	0xbe536560	-0.2064414
51	0xbe8a0049	-0.26953343
52	0x3e5ada58	0.21372354
53	0xbecf835d	-0.4052991
54	0xbe4fb589	-0.20284094
55	0xbebb1a26	-0.36543387
56	0x3ed42f52	0.41442353
57	0xbedaedae	-0.4275946
58	0xbe8e320e	-0.27772564
59	0x3ebb5405	0.3658754
60	0xbbe71970	-0.007052593
61	0xbd8e45e1	-0.06946922
62	0x3f760a44	0.96109414
63	0xbeafd1d8	-0.34339786

layers.2.weight f4 [64]
0	0x3f7f85f4	0.9981377
1	0x3f896557	1.0734051
2	0x3f791ac3	0.9730646
3	0x3f774840	0.9659462
4	0x3f8d90aa	1.1059773
5	0x3f95e3b9	1.171012
6	0x3f75c07a	0.9599682
7	0x3fe2b76b	1.7712225
8	0x3f7f33c8	0.99688387
9	0x3f77735b	0.96660393
10	0x3f8c8a7b	1.0979761
11	0x3f84ed06	1.0384834
12	0x3f8763b7	1.0577306
13	0x3f800000	1.0
14	0x3f80f821	1.0075723
15	0x3f78ab76	0.9713663
16	0x3f800000	1.0
17	0x3f7f45e0	0.99715996
18	0x3f92d2c0	1.1470566
19	0x3f800000	1.0
20	0x3f800000	1.0
21	0x3f8992d4	1.0747933
22	0x3f787631	0.97055346
23	0x3f805ba8	1.0027971
24	0x4041126b	3.0167491
25	0x3f7fafdf	0.99877733
26	0x3f800000	1.0
27	0x3f7a1bba	0.9769856
28	0x3f8332a9	1.0249835
29	0x3f7d3ef1	0.98924166
30	0x3f847465	1.0348021
31	0x3f825d84	1.0184789
32	0x3f8009a7	1.0002946
33	0x3f89675b	1.0734667
34	0x3f7e10bf	0.992443
35	0x3f80e41b	1.0069612
36	0x3f785760	0.97008324
37	0x3f860898	1.0471373
38	0x3f7dfe85	0.9921649
39	0x3f7905dc	0.97274566
40	0x40016de9	2.0223334
41	0x3f794927	0.97377247
42	0x40025891	2.0366557
43	0x3f815070	1.0102673
44	0x3f7735bf	0.96566385
45	0x3f8aaab5	1.0833346
46	0x3f87df23	1.0614971
47	0x3f80678c	1.00316
48	0x3f7f98ef	0.99842733
49	0x3f7586ac	0.9590862
50	0x3f9396ec	1.1530433
51	0x3f80c76e	1.0060861
52	0x3f7c6d49	0.98604256
53	0x3f81cb2f	1.0140132
54	0x3f8407d2	1.0314887
55	0x3f800000	1.0
56	0x3f829ee2	1.0204737
57	0x3f7fba15	0.99893314
58	0x3f927a91	1.1443654
59	0x3f774d6c	0.9660251
60	0x3f800000	1.0
61	0x3f99f3d2	1.2027533
62	0x3f85ce5c	1.0453601
63	0x3f8808c0	1.062767

layers.2.bias f4 [64]
0	0x3d6e88d9	0.058235977
1	0x3d351a44	0.044214502
2	0x3d8e0f1e	0.06936477
3	0x3c900a14	0.01758293
4	0x3be3ee31	0.006955885
5	0x3da34f62	0.079741254
6	0x3c317308	0.010830648
7	0xbd37d969	-0.044885073
8	0x3dca2eee	0.098722324
9	0xbc62ec09	-0.0138502205
10	0xbda024d3	-0.07819524
11	0xbd187beb	-0.037227552
12	0x3d9ed6da	0.077558234
13	0x3d4dfa9c	0.050287828
14	0x3ce99d7c	0.028517477
15	0x3cad28ef	0.021137683
16	0xbd874f44	-0.066069156
17	0xbd7640f3	-0.060120534
18	0x3cdc7d54	0.02691523
19	0x3d9065b3	0.070506476
20	0x3d99257b	0.07477852
21	0xbd8c7add	-0.06859372
22	0x3d6bc964	0.057565108
23	0xbd5e7a95	-0.054316122
24	0x3d67ce7a	0.056593396
25	0x3d30a81b	0.043129068
26	0x3db8d123	0.09024265
27	0xbc4385db	-0.011933769
28	0x3da9d945	0.08293394
29	0x3b7cfbe8	0.0038602296
30	0xbb8a33ed	-0.004217616
31	0xbb6e5f13	-0.0036372587
32	0x3c6d71b4	0.014492441
33	0xbd5c4810	-0.05377966
34	0x3d9532a5	0.0728505
35	0x3da24741	0.07923747
36	0xbd1e8336	-0.03869935
37	0x3d4bf63c	0.049795374
38	0xbd95c2bc	-0.07312533
39	0xbd6049df	-0.05475795
40	0x3d959a68	0.07304841
41	0x3d7b26ca	0.06131629
42	0x3c1edc21	0.0096960375
43	0x3d3f9f32	0.04678268
44	0x3e1a86b6	0.1509045
45	0xbc824bba	-0.01590525
46	0xbd3a1248	-0.04542759
47	0x3d827362	0.06369664
48	0xbd7d899b	-0.06189881
49	0xbd79c958	-0.060983032
50	0x3c397ff4	0.01132201
51	0x3e101d73	0.14073734
52	0x3bf9eed1	0.007627346
53	0xba842c70	-0.0010084044
54	0x3d929fc1	0.07159377
55	0xbdac70c2	-0.08419944
56	0xbb934741	-0.004494578
57	0x3daeec13	0.08541121
58	0xbd5d98e3	-0.054100882
59	0xbab45e9f	-0.001376111
60	0xbc29e44c	-0.010369372
61	0x3d90f12b	0.07077249
62	0x3906fc12	0.0001287314
63	0x3daf3185	0.08554367

layers.2.running_mean f4 [64]
0	0x00000004	6e-45
1	0x3dac2d82	0.084071174
2	0x3e5b5a51	0.21421172
3	0x3d00d00c	0.03144841
4	0x00000004	6e-45
5	0x00000004	6e-45
6	0x40b2370b	5.569219
7	0x00000004	6e-45
8	0x3e9812d4	0.29701865
9	0x3e3fcf5e	0.18731448
10	0x00000004	6e-45
11	0x3e20bcfd	0.15697093
12	0x3e54af83	0.20770077
13	0x00000000	0.0
14	0x00000004	6e-45
15	0x3e7df2d1	0.24799658
16	0x00000000	0.0
17	0x3e88839e	0.26662916
18	0x00000004	6e-45
19	0x00000000	0.0
20	0x00000000	0.0
21	0x00000004	6e-45
22	0x3e630e0c	0.22173327
23	0x00000004	6e-45
24	0x40a37c2a	5.1089067
25	0x00000004	6e-45
26	0x00000000	0.0
27	0x3dc94e8c	0.09829435
28	0x00000004	6e-45
29	0x3dd4e56c	0.10395321
30	0x3e9875bd	0.29777327
31	0x00000004	6e-45
32	0x00000004	6e-45
33	0x00000004	6e-45
34	0x3dd11239	0.10208554
35	0x00000004	6e-45
36	0x3d8b422f	0.06799733
37	0x3e0b1b1d	0.13584562
38	0x00000004	6e-45
39	0x3e434fc8	0.19073403
40	0x40cc74d2	6.3892603
41	0x3d318df0	0.043348253
42	0x42a5fb7b	82.99117
43	0x408281ee	4.0783606
44	0x3ea250f3	0.31702384
45	0x00000004	6e-45
46	0x411cf61f	9.810088
47	0x00000004	6e-45
48	0x00000004	6e-45
49	0x3e80c0da	0.25147134
50	0x00000004	6e-45
51	0x00000004	6e-45
52	0x3e0737f0	0.13204932
53	0x00000004	6e-45
54	0x00000004	6e-45
55	0x00000000	0.0
56	0x3e833206	0.25624102
57	0x00000004	6e-45
58	0x4033348b	2.800082
59	0x3e677b94	0.22605735
60	0x00000000	0.0
61	0x412c7762	10.779146
62	0x3f19844c	0.59967494
63	0x00000004	6e-45

layers.2.running_var f4 [64]
0	0x00000004	6e-45
1	0x3b8e1f97	0.004337262
2	0x3ce97379	0.028497444
3	0x3a21024e	0.0006142006
4	0x00000004	6e-45
5	0x00000004	6e-45
6	0x425291aa	52.64225
7	0x00000004	6e-45
8	0x3d5d874d	0.05408411
9	0x3cb28175	0.021790246
10	0x00000004	6e-45
11	0x3c79fb68	0.015257694
12	0x3cd96f82	0.026542429
13	0x00000004	6e-45
14	0x00000004	6e-45
15	0x3d1c5d7a	0.038175084
16	0x00000004	6e-45
17	0x3d322a71	0.043497507
18	0x00000004	6e-45
19	0x00000004	6e-45
20	0x00000004	6e-45
21	0x00000004	6e-45
22	0x3cfa2215	0.03053383
23	0x00000004	6e-45
24	0x42409efb	48.155254
25	0x00000004	6e-45
26	0x00000004	6e-45
27	0x3bc49ea7	0.006000358
28	0x00000004	6e-45
29	0x3bdbe8ec	0.006711116
30	0x3d5f3c3b	0.0545008
31	0x00000004	6e-45
32	0x00000004	6e-45
33	0x00000004	6e-45
34	0x3bd41427	0.006472129
35	0x00000004	6e-45
36	0x3b3c2f51	0.0028714726
37	0x3c39aa9d	0.011332181
38	0x00000004	6e-45
39	0x3cb9152c	0.022593103
40	0x4290c8c5	72.39213
41	0x3a98f3ff	0.0011669396
42	0x465baea9	14059.665
43	0x41c8942c	25.07235
44	0x3d7a578a	0.06111864
45	0x00000004	6e-45
46	0x43481798	200.09216
47	0x00000004	6e-45
48	0x00000004	6e-45
49	0x3d20dcf4	0.039273217
50	0x00000004	6e-45
51	0x00000004	6e-45
52	0x3c316c86	0.010829097
53	0x00000004	6e-45
54	0x00000004	6e-45
55	0x00000004	6e-45
56	0x3d268874	0.040657476
57	0x00000004	6e-45
58	0x418428a6	16.519848
59	0x3d01fdf3	0.031736325
60	0x00000004	6e-45
61	0x436feaf3	239.91777
62	0x3e5db411	0.21650721
63	0x00000004	6e-45

layers.3.weight f4 [1, 64]
0	0x3dd30a7e	0.103047356
1	0xbeea7ea5	-0.45799747
2	0xbde6677d	-0.112502076
3	0xbc9c3b82	-0.019071344
4	0xbeeac1d8	-0.45851016
5	0xbf1d4a3d	-0.61441404
6	0xbd452fc6	-0.048141263
7	0xbfb4855b	-1.4103197
8	0x3e7987d7	0.24368225
9	0xbd808e20	-0.06277108
10	0x3f00effc	0.5036619
11	0xbec161c4	-0.37769902
12	0x3ed3cce4	0.41367257
13	0x3da9013d	0.08252189
14	0xbe07d867	-0.13266145
15	0xbdcd88df	-0.10035872
16	0xbdde0bbd	-0.10842083
17	0xbe89c7ee	-0.26910347
18	0xbf0ac5a7	-0.54207844
19	0x3decf50e	0.11570178
20	0x3dfb5180	0.12271404
21	0xbecb7d59	-0.3974407
22	0x3df4da5b	0.119557105
23	0x3e02f599	0.12789
24	0x4032ba2e	2.7926135
25	0xbd9da3ce	-0.07697259
26	0x3e17a481	0.14808847
27	0x3e36a7b2	0.17837408
28	0x3e856d9f	0.26060197
29	0xbe52e3ed	-0.2059476
30	0x3ebeec09	0.37289456
31	0xbe5ffcdd	-0.21873803
32	0x3da6ebbc	0.081504315
33	0xbec5d2dc	-0.38637435
34	0xbe728793	-0.2368453
35	0x3e1b3497	0.1515678
36	0x3dcd905f	0.10037302
37	0xbec827ef	-0.39092967
38	0x3c6f5acb	0.014609049
39	0xbe24f8c1	-0.16110517
40	0xbfe11623	-1.758488
41	0xbe20c217	-0.1569904
42	0xbfdf5ae5	-1.7449614
43	0x3ea4ab71	0.3216205
44	0x3dd595d1	0.10428966
45	0x3ed21652	0.41032654
46	0xbee8145e	-0.4532804
47	0x3e0b5f62	0.13610604
48	0x3e113d46	0.1418353
49	0xbd50b36a	-0.050952353
50	0xbf111f1c	-0.56688094
51	0x3e5c0121	0.21484806
52	0x3e5bab90	0.21452165
53	0xbe2716df	-0.16317318
54	0xbe867e8b	-0.2626842
55	0xbe0d7dbe	-0.13817498
56	0x3ea40af8	0.32039618
57	0x3e0cd4f1	0.13753106
58	0xbf19b0e7	-0.60035557
59	0xbd287142	-0.041123636
60	0xbc8b64bb	-0.017015805
61	0x3f3a46bc	0.7276418
62	0x3ec9be54	0.3940302
63	0x3ebda687	0.37041113
