model/trained_player_model.pth (torch, 288566 bytes, 31 tensors)

layers.0.weight f4 [128, 5]
0.07137808 0.28480646 0.23371978 -0.030233126 0.09447408 0.37215745 0.08731686 0.40545267
-0.3828105 0.1753335 0.2914657 -0.18920165 0.13134389 0.095426746 -0.24398592 0.2953285
-0.20938964 0.47506225 -0.20745951 -0.104809284 -0.17041707 0.41278115 0.059122227 -0.2593835
0.31094176 -0.020610852 -0.28741354 0.09111445 -0.15133335 -0.44012246 0.07225382 -0.033031803
0.407721 0.13959686 -0.16770558 0.08306097 -0.017075013 -0.13925306 0.32088667 -0.18391113
0.02099076 -0.12542391 -0.13475259 -0.20150194 0.4704054 0.1147321 -0.041797142 -0.42163324
-0.21157698 0.007557183 0.043512546 0.18584293 -0.38442314 0.2758097 0.07178724 -0.11554098
0.25757614 -0.08829659 -0.45430908 -0.0759154 0.32927456 -0.011475998 0.3324899 0.15608819
-0.09813276 -0.12409475 0.38323689 0.019695653 0.1280693 -0.104651414 0.23067884 -0.32632807
-0.29846016 -0.17823124 0.004354632 0.22967745 0.18672264 -0.508226 0.16012965 -0.034097522
-0.16517273 0.00015417123 0.09767876 -0.09980216 0.3870501 0.48299626 0.030014427 0.4837133
-0.28564888 0.17942744 0.018203948 0.39251196 -0.47137567 -0.021926941 -0.25326127 -0.45361364
-0.12032427 0.1225232 -0.28548467 0.41938326 0.2962453 -0.19041468 -0.4205393 0.012305319
0.030440627 0.11836685 -0.41246125 -0.09906625 0.37972233 0.06894688 -0.31929728 0.37484133
-0.40672398 -0.390455 0.2529974 -0.22299841 0.266806 -0.28275114 -0.23533747 -0.07864587
-0.28616998 -0.1031934 0.3940406 -0.18905544 -0.09016528 0.41978613 0.08103954 0.6892524
0.39919925 0.06951707 0.33547762 -0.31700423 0.10160918 0.16611959 -0.16537824 -0.36173388
0.15384004 0.0017041742 0.4056159 -0.113275826 0.3334234 -0.57134706 -0.028776541 0.13071461
-1.0080285 -0.32194716 -0.06843391 0.3250966 0.3538414 -0.21366166 0.44682732 0.4164205
0.17081937 0.0084155975 0.37057048 -0.41686592 -0.066522926 0.30425698 0.19513164 -0.35642612
0.14538251 -0.14190991 0.3892603 0.21033753 -0.09797373 -0.40129343 0.32991683 0.24968816
0.14594574 0.37848663 0.11405684 -0.07533473 0.42721242 0.2859583 -0.20212232 -0.051986784
-0.393675 0.36564913 0.28565282 -0.25461632 0.14766349 0.04123312 0.43688786 -0.38703543
0.21765167 0.4687942 0.23424178 0.116936855 0.422356 -0.11233459 -0.29702765 0.37417614
0.24769053 -0.26122922 -0.097252026 -0.39610356 -0.03265687 0.090193205 -0.011080413 -0.43996552
0.33548728 -0.44347355 0.2662861 0.05904098 0.054330647 0.2889283 -0.27999026 -0.38139847
0.13168868 0.441615 -0.34343132 -0.0106270835 0.345312 -0.13523582 0.38215888 0.43889794
-0.31927925 0.037183743 0.23152922 0.06822669 -0.1412442 0.34301585 -0.0054800785 -0.29596806
0.013504132 -0.24440143 -0.021089688 -0.05531468 0.16353299 0.3948451 0.050021555 0.17184018
-0.27816448 -0.09782268 -0.036294106 0.11978444 -0.023112202 0.19556482 -0.4289564 -0.25581977
-0.009287326 -0.38913116 -0.32957497 -0.08361856 -0.35200885 -0.39514154 0.44382665 -0.013526494
0.4146462 -0.13102731 -0.38486502 -0.09588395 0.3704235 -0.16435952 0.45025823 0.24532036
00000000: ac2e 923d 27d2 913e 3d54 6f3e 76ab f7bc
00000010: a07b c13d 6c8b be3e 2fd3 b23d 7e97 cf3e
00000020: bdff c3be a08a 333e fe3a 953e 14be 41be
00000030: 037f 063e 196f c33d 72d7 79be 4c35 973e
00000040: 3d6a 56be 5c3b f33e 4470 54be 40a6 d6bd
00000050: d081 2ebe 0d58 d33e 262a 723d eacd 84be
00000060: c233 9f3e 17d8 a8bc de27 93be 369a ba3d
00000070: 21f7 1abe bb57 e1be d0f9 933d 5b4c 07bd
00000080: cfc0 d03e 7bf2 0e3e 03bb 2bbe df1b aa3d
00000090: e6e0 8bbc 5b98 0ebe 424b a43e 3353 3cbe
000000a0: d0f4 ab3c 206f 00be 95fc 09be 8656 4ebe
000000b0: fad8 f03e aaf8 ea3d 7b33 2bbd 50e0 d7be
000000c0: a3a7 58be 3fa2 f73b 363a 323d 9c4d 3e3e
000000d0: 1cd3 c4be ee36 8d3e 3005 933d c0a0 ecbd
000000e0: 05e1 833e d8d4 b4bd 339b e8be 8979 9bbd
000000f0: ad96 a83e d305 3cbc 1e3c aa3e 95d5 1f3e
00000100: d4f9 c8bd 6325 febd a037 c43e c758 a13c
00000110: 9924 033e 7b53 d6bd 1337 6c3e 7914 a7be
00000120: c5cf 98be 4082 36be 4db1 8e3b 9130 6b3e
00000130: 3834 3f3e 191b 02bf 07f9 233e d8a9 0bbd
00000140: 0a23 29be 06a9 2139 cd0b c83d 1365 ccbd
00000150: 6e2b c63e 494b f73e d1e0 f53c 45a9 f73e
00000160: 9240 92be d4bb 373e 7220 953c 54f7 c83e
00000170: 2758 f1be 21a0 b3bc 76ab 81be 0c40 e8be
00000180: 926c f6bd 72ed fa3d 0c2b 92be 67b9 d63e
00000190: 77ad 973e 11fc 42be ed50 d7be 409c 493c
000001a0: 9f5e f93c 526a f23d 1f2e d3be 3fe3 cabd
000001b0: f76a c23e 0634 8d3d ef7a a3be 34eb bf3e
000001c0: 203e d0be b8e9 c7be e088 813e b259 64be
000001d0: cc9a 883e c2c4 90be 4efc 70be 1611 a1bd
000001e0: df84 92be 1057 d3bd b1bf c93e c097 41be
000001f0: 93a8 b8bd 35ee d63e 0ff8 a53d d872 303f
00000200: d863 cc3e f75e 8e3d b9c3 ab3e 614e a2be
00000210: 7918 d03d 411b 2a3e ea58 29be 2f35 b9be
00000220: 3e88 1d3e 995e df3a e3ac cf3e 28fd e7bd
00000230: 79b6 aa3e cd43 12bf c8bc ebbc 0dda 053e
00000240: 1407 81bf 42d6 a4be 1427 8cbd 1073 a63e
00000250: b32a b53e 1fca 5abe 8dc6 e43e 1135 d53e
00000260: 46eb 2e3e 93e1 093c 6abb bd3e 736f d5be
00000270: 2c3d 88bd 92c7 9b3e 97d0 473e 7c7d b6be
00000280: 27df 143e d550 11be 204d c73e b962 573e
00000290: 73a6 c8bd 5576 cdbe dcea a83e 41ae 7f3e
000002a0: cd72 153e 00c9 c13e a296 e93d 1849 9abd
000002b0: 96bb da3e 2069 923e 27f9 4ebe 18f0 54bd
000002c0: c58f c9be 5d36 bb3e 1641 923e 125d 82be
000002d0: 1935 173e 0fe4 283d c4af df3e 8229 c6be
000002e0: 14e0 5e3e cb05 f03e 14dd 6f3e 977c ef3d
000002f0: 0c3f d83e ad0f e6bd 0214 98be 0494 bf3e
00000300: 96a2 7d3e d6bf 85be 122c c7bd 16ce cabe
00000310: 36c3 05bd 37b7 b83d 9f8a 35bc 2943 e1be
00000320: fdc4 ab3e f70e e3be a756 883e f4d4 713d
00000330: d089 5e3d 69ee 933e e25a 8fbe a946 c3be
00000340: 66d9 063e 5c1b e23e 3bd6 afbe 381d 2ebc
00000350: bccc b03e 427b 0abe 54aa c33e 3bb7 e03e
00000360: 9278 a3be fb4d 183d ff15 6d3e 6fba 8b3d
00000370: 52a2 10be c69f af3e 3b92 b3bb 2089 97be
00000380: 6f40 5d3c 5e44 7abe 48c4 acbc a591 62bd
00000390: 3175 273e 2329 ca3e 67e3 4c3d dff6 2f3e
000003a0: 936b 8ebe 4257 c8bd 21a9 14bd 8b51 f53d
000003b0: cd55 bdbc 2542 483e 2ca0 dbbe cffa 82be
000003c0: de29 18bc 333c c7be 0dbe a8be 3540 abbd
000003d0: 813a b4be fe4f cabe 3f3d e33e 3a9e 5dbc
000003e0: 824c d43e 062c 06be 070d c5be ce5e c4bd
000003f0: 26a8 bd3e dd4d 28be 3f88 e63e 4335 7b3e

layers.0.bias f4 [128]
0.3620277 0.28479218 -0.31488246 -0.060039993 0.1938388 0.40638757 0.3768004 -0.011363492
0.41816416 0.3072956 0.32351595 0.17186654 -0.065033086 0.35198742 -0.060411576 -0.25292432
0.3348982 -0.41556832 0.3371786 -0.4097322 -0.35691118 0.26587984 -0.13757254 0.2483442
0.38116753 0.3752092 -0.20869169 0.083280765 -0.40402707 -0.33783585 -0.09851697 -0.34754124
0.19756822 -0.06440461 -0.061662167 -0.2770056 -0.31049287 -0.29906288 -0.010813783 0.32521278
-0.20994069 -0.42321378 0.03988245 -0.393713 0.15852375 0.29477784 -0.12570105 0.4270121
0.29245678 0.39202106 0.15709569 0.40561098 -0.29166958 0.4071039 0.36632764 -0.24924886
0.42917147 -0.287756 -0.113990344 0.06918513 -0.13987787 0.44468176 -0.22376119 0.13123249
-0.12831715 0.2418427 0.37092003 -0.34952733 -0.36218408 -0.2451973 -0.17587835 -0.01824485
0.03197366 -0.17587377 0.34767675 -0.15329547 -0.37485328 0.39136794 0.026007947 -0.11581566
0.09426678 0.3368851 -0.42582783 0.3165183 -0.2379873 -0.25880158 0.17723593 0.43458807
-0.01181842 -0.08301943 0.31326646 0.41880688 0.32036722 0.16598004 0.4434136 -0.21448892
-0.2605084 0.2633091 -0.2659564 0.41497412 -0.07953778 -0.43427193 0.25103799 -0.22241843
-0.098523706 0.25832084 0.17860974 -0.08273613 -0.044647947 -0.15158787 0.3327085 -0.2430917
0.35059214 0.07227062 0.26675814 -0.42143595 0.29137734 0.2163581 0.21930353 -0.36607647
-0.15067172 -0.26071516 0.2508891 -0.19650024 -0.00477385 -0.1209101 -0.12171566 -0.17629467
00000000: b25b b93e 48d0 913e 4638 a1be 7fec 75bd
00000010: ae7d 463e 0812 d03e fbeb c03e f12d 3abc
00000020: 9d19 d63e d955 9d3e e2a3 a53e c8fd 2f3e
00000030: 1130 85bd b237 b43e 2172 77bd 4c7f 81be
00000040: c777 ab3e 5fc5 d4be aca2 ac3e 6bc8 d1be
00000050: 10bd b6be 6721 883e d1df 0cbe f14d 7e3e
00000060: 6428 c33e 6c1b c03e 46b3 55be 1b8f aa3d
00000070: a3dc cebe d2f8 acbe 44c3 c9bd edf0 b1be
00000080: 534f 4a3e 90e6 83bd 7891 7cbd aed3 8dbe
00000090: ecf8 9ebe c51e 99be 4b2c 31bc 4a82 a63e
000000a0: b1fa 56be 7aaf d8be c85b 233d c094 c9be
000000b0: 0d54 223e 1fed 963e c7b7 00be 54a1 da3e
000000c0: e5bc 953e fcb6 c83e b1dd 203e 3eac cf3e
000000d0: b755 95be ec6f d03e 4c8f bb3e 183b 7fbe
000000e0: 5dbc db3e c154 93be c573 e9bd efb0 8d3d
000000f0: 253c 0fbe 54ad e33e a721 65be cf61 063e
00000100: 9265 03be 9da5 773e 3be9 bd3e 3ff5 b2be
00000110: 3170 b9be 0015 7bbe 7419 34be 3976 95bc
00000120: d0f6 023d 4118 34be b002 b23e 7df9 1cbe
00000130: c5ec bfbe 6161 c83e 9e0e d53c c330 edbd
00000140: f10e c13d 347c ac3e 1b06 dabe b00e a23e
00000150: f1b2 73be a481 84be 567d 353e 5482 de3e
00000160: 0ca2 41bc 1706 aabd 7664 a03e db6d d63e
00000170: 2c07 a43e acf6 293e 1b07 e33e fca2 5bbe
00000180: 5b61 85be 73d0 863e 702b 88be 7d77 d43e
00000190: b4e4 a2bd e458 debe 0d88 803e a8c1 63be
000001a0: ccc6 c9bd a142 843e 79e5 363e 8f71 a9bd
000001b0: c4e0 36bd da39 1bbe c558 aa3e 08ed 78be
000001c0: d080 b33e 9e02 943d 8694 883e 74c6 d7be
000001d0: 692f 953e fa8c 5d3e 1b91 603e 606e bbbe
000001e0: b049 1abe 757c 85be 8974 803e 5c37 49be
000001f0: f56d 9cbb b79f f7bd 0f46 f9bd 9786 34be

layers.2.weight f4 [128]
0.9654354 1.0102618 1.0010824 1.0202926 0.97832865 0.98017377 0.98559743 0.9979625
0.9464614 1.0041716 0.99066085 0.9467943 1.0 0.96534115 1.0 0.9894269
0.97970736 1.0320243 1.0045289 0.96072054 1.0 0.98403674 1.0007503 1.0036923
0.9853136 1.1360834 1.0 0.96864736 1.0180405 1.0 0.9992945 1.0002267
0.9995786 0.99747247 1.0 1.0 0.977161 1.0202992 0.9784833 0.9702167
1.0 0.94092673 0.95595556 1.0 0.9850022 0.9606293 0.9852248 0.9991373
0.99489504 0.96805036 0.9607591 0.9681541 1.0291889 1.0105854 0.98632306 0.9839237
0.9666651 0.98535734 1.0251652 0.9920747 1.0 0.9618774 1.0 1.107466
1.022222 0.99899286 0.98233956 1.0137198 1.0239732 1.0045519 1.0405076 0.9950947
1.1691148 1.0 0.9343662 0.9945277 0.98996437 0.95649755 0.998723 1.0175223
1.0063618 0.9968721 0.9819197 1.0196009 1.0086021 1.0 0.9426231 0.9925076
1.0 1.0065235 1.0125805 1.002309 0.96857065 1.0298641 1.0779061 1.0850166
1.0533874 1.0423406 0.98863775 0.99136895 0.98995876 1.048311 1.0681404 0.9675177
1.0002176 1.0233405 1.0016657 1.0194051 0.998174 0.9653859 0.99386567 1.0
0.9849083 0.9824482 0.9355868 0.9932815 0.99267256 0.9543442 1.0045823 0.99895054
1.0129519 0.9969698 0.9867619 1.0 1.0734805 1.0 1.0487 1.0
00000000: c626 773f 4250 813f 7823 803f f398 823f
00000010: bf73 7a3f abec 7a3f 1d50 7c3f 787a 7f3f
00000020: 4b4b 723f b288 803f f39b 7d3f 1c61 723f
00000030: 0000 803f 9920 773f 0000 803f 154b 7d3f
00000040: 1ace 7a3f 5f19 843f 6794 803f c8f1 753f
00000050: 0000 803f d5e9 7b3f 9618 803f fd78 803f
00000060: 833d 7c3f 2e6b 913f 0000 803f 46f9 773f
00000070: 274f 823f 0000 803f c4d1 7f3f 6e07 803f
00000080: 62e4 7f3f 5b5a 7f3f 0000 803f 0000 803f
00000090: 3927 7a3f 2a99 823f e27d 7a3f 1f60 783f
000000a0: 0000 803f 93e0 703f 81b9 743f 0000 803f
000000b0: 1b29 7c3f cdeb 753f b137 7c3f 76c7 7f3f
000000c0: 71b1 7e3f 26d2 773f 4ff4 753f f2d8 773f
000000d0: 76bc 833f dd5a 813f ab7f 7c3f 6ce2 7b3f
000000e0: 5d77 773f 6140 7c3f 9d38 833f 9cf8 7d3f
000000f0: 0000 803f 993d 763f 0000 803f 72c1 8d3f
00000100: 2cd8 823f ffbd 7f3f 9b7a 7b3f 92c1 813f
00000110: 8e11 833f 2895 803f 5a2f 853f 87be 7e3f
00000120: 8ea5 953f 0000 803f a032 6f3f 5e99 7e3f
00000130: 4e6e 7d3f 06dd 743f 4fac 7f3f 2c3e 823f
00000140: 77d0 803f 0333 7f3f 175f 7b3f 4882 823f
00000150: e019 813f 0000 803f bf4f 713f fa14 7e3f
00000160: 0000 803f c3d5 803f 3d9c 813f a94b 803f
00000170: 3ff4 773f 96d2 833f d4f8 893f d3e1 8a3f
00000180: 66d5 863f 6b6b 853f 5d17 7d3f 5bca 7d3f
00000190: f06d 7d3f 0e2f 863f d3b8 883f 3daf 773f
000001a0: 2107 803f d2fc 823f 9536 803f de7b 823f
000001b0: 5588 7f3f 8823 773f fb6d 7e3f 0000 803f
000001c0: f322 7c3f ba81 7b3f 9e82 6f3f b247 7e3f
000001d0: ca1f 7e3f e74f 743f 2796 803f 39bb 7f3f
000001e0: 68a8 813f 6a39 7f3f 6e9c 7c3f 0000 803f
000001f0: cf67 893f 0000 803f cd3b 863f 0000 803f

layers.2.bias f4 [128]
-0.0170154 -0.023705712 -0.0041476423 0.016213927 0.0022304773 0.008969677 -0.0002827283 0.0028041424
0.015691712 0.0024290485 -0.016741546 -0.012875409 0.0185366 -0.014978015 -0.01073392 0.010971275
0.019912872 0.00054936885 -0.021285135 -0.01194882 -0.019345626 0.03947513 -0.009280932 -0.0076883575
0.010420151 -0.0048485277 -0.004431616 -0.020326816 -0.012244258 -0.004348825 0.00086659467 0.0016834491
-0.005856981 0.0027554163 -0.01149129 -0.008342402 -0.004385296 -0.01961173 -0.023404682 -0.0070736166
0.015600408 0.0025375339 -0.031373683 0.003670211 -0.010032917 0.0004981698 -0.012983503 -0.0019100723
0.00034287776 -0.0007892674 0.0159134 0.011789697 -0.020595055 0.043092355 0.010280106 0.018284667
-0.015029719 -0.018188735 0.03727861 -0.020527996 -0.003792579 0.005512325 -0.0016239914 -0.016690075
-0.00057553593 -0.019025052 0.01681861 -0.00041144408 0.016997458 0.008093337 -0.024751775 0.016648399
0.030723788 0.014566411 0.00523437 0.023953782 0.022474876 -0.00917281 -0.017727073 -0.023611508
4.5417077e-05 0.005114619 -0.025129842 0.015595177 -0.0122143375 -0.00085565704 -0.0043340027 -0.016739056
-0.0007358397 2.167924e-05 -0.011668229 -0.0066904374 -0.009105709 0.034404952 0.036889777 -0.04648823
-0.036419157 -0.012173218 0.0137908375 0.0044316114 -0.010909319 -0.006718207 -0.010589882 0.023311045
0.008598075 0.0051100836 0.015760912 0.012056237 0.0022601436 -0.00011812586 0.012845522 -0.024711274
0.024631266 0.010323947 0.0021259538 0.014429457 0.01855069 -0.0012207996 -0.024037657 -0.009317011
0.024785647 0.026587443 -0.0059796586 -0.0151743265 -0.030883124 -0.011735852 -0.050737683 -0.0066828392
00000000: e163 8bbc 7b32 c2bc f2e8 87bb 12d3 843c
00000010: 332d 123b 8df5 123c 263b 94b9 b4c5 373b
00000020: e88b 803c ac30 1f3b 9125 89bc 61f3 52bc
00000030: 11da 973c 5966 75bc 53dd 2fbc ddc0 333c
00000040: 5220 a33c 8503 103a 2a5e aebc fcc4 43bc
00000050: b87a 9ebc adb0 213d 0d0f 18bc 9eee fbbb
00000060: 48b9 2a3c 66e0 9ebb 1737 91bb 6c84 a6bc
00000070: 249c 48bc 9780 8ebb 2f2c 633a 2ea7 dc3a
00000080: ebeb bfbb 3794 343b f745 3cbc 92ae 08bc
00000090: 87b2 8fbb c7a8 a0bc 2dbb bfbc ccc9 e7bb
000000a0: db98 7f3c c14c 263b b181 00bd ec87 703b
000000b0: 1b61 24bc 9c97 023a c2b8 54bc 645b faba
000000c0: 46c4 b339 d7e6 4eba d25c 823c 9329 413c
000000d0: f6b6 a8bc 9c81 303d e46d 283c bac9 953c
000000e0: 363f 76bc 8b00 95bc 75b1 183d 542a a8bc
000000f0: eb8c 78bb bca0 b43b 1cdc d4ba a0b9 88bc
00000100: 90df 16ba 6dda 9bbc 2ec7 893c 17b7 d7b9
00000110: 413e 8b3c ea99 043c 3cc4 cabc 3962 883c
00000120: 74b0 fb3c f5a7 6e3c 1485 ab3b b93a c43c
00000130: 3b1d b83c 8e49 16bc 5e38 91bc ec6c c1bc
00000140: 377e 3e38 8998 a73b 19dd cdbc ea82 7f3c
00000150: a51e 48bc 2c4e 60ba 4004 8ebb 5820 89bc
00000160: 5ee5 40ba d0db b537 192c 3fbc 753b dbbb
00000170: 1d30 15bc 35ec 0c3d bc19 173d 716a 3ebd
00000180: 412c 15bd 2d72 47bc f7f2 613c 0d37 913b
00000190: 00bd 32bc 6824 dcbb 2f81 2dbc cef6 be3c
000001a0: f1de 0c3c 7d72 a73b 071d 813c 8687 453c
000001b0: eb1e 143b 57ba f7b8 0676 523c 4c6f cabc
000001c0: 82c7 c93c c625 293c 9653 0b3b 8769 6c3c
000001d0: 9ef7 973c 3d03 a0ba 9fea c4bc 60a6 18bc
000001e0: 450b cb3c e9cd d93c 03f1 c3bb bd9d 78bc
000001f0: 9bfe fcbc bb47 40bc 51d2 4fbd b8fb dabb

layers.2.running_mean f4 [128]
27.653646 13.532301 6.1884185e-15 5.720878e-16 46.691113 0.021375664 0.019819263 1.0230398e-21
14.707065 0.016163683 21.691036 11.220319 0.0 25.79386 0.0 14.29479
20.667467 9.8352375 16.521324 10.579272 0.0 0.013985144 38.391033 13.927529
0.020049099 13.956078 0.0 10.852986 9.7419286e-18 0.0 53.170135 5.6220776e-22
0.010391629 48.195663 0.0 0.0 11.364001 16.620504 21.073277 0.017105663
0.0 6.3007226 18.85417 0.0 24.380976 22.101934 9.977667 0.022460485
0.015383001 32.39692 16.075275 0.021334797 16.148523 0.021413364 0.019268509 34.799423
25.654226 34.819355 7.647954 56.484493 0.0 0.023389824 0.0 11.706129
9.901757e-15 0.012720278 10.181753 14.389964 1.7496822e-13 9.770591 13.536912 19.410393
11.626634 0.0 5.813011 12.5085125 36.07462 15.12997 30.10419 14.504072
0.0049587563 0.017719787 38.879517 0.016648978 2.1578401e-17 0.0 8.497597 0.022858929
0.0 5.6847404e-18 15.983729 0.022028906 0.016851101 0.008730927 19.158792 9.702898
13.231173 0.013849599 14.217019 0.0218273 34.823414 5.0552216 85.44145 11.967088
9.505687e-21 9.766391 0.009394135 6.399791e-15 8.0137746e-18 20.22822 0.017500103 0.0
34.69463 40.1594 11.75241 53.1188 17.909138 0.011380154 0.011534765 12.85316
23.24577 1.4030421e-20 0.013196216 0.0 5.0621346e-17 0.0 25.380434 0.0
00000000: ab3a dd41 4e84 5841 16f6 de27 a1e4 2426
00000010: b3c3 3a42 041c af3c 025c a23c ef98 9a1c
00000020: 2350 6b41 b369 843c 3e87 ad41 6d86 3341
00000030: 0000 0000 d359 ce41 0000 0000 76b7 6441
00000040: f956 a541 225d 1d41 ac2b 8441 b344 2941
00000050: 0000 0000 f221 653c 6b90 1942 29d7 5e41
00000060: 023e a43c 184c 5f41 0000 0000 d5a5 2d41
00000070: f5b4 3323 0000 0000 38ae 5442 b8ea 291c
00000080: a741 2a3c 5cc8 4042 0000 0000 0000 0000
00000090: f3d2 3541 cbf6 8441 1296 a841 2d21 8c3c
000000a0: 0000 0000 859f c940 57d5 9641 0000 0000
000000b0: 3d0c c341 c3d0 b041 86a4 1f41 0dff b73c
000000c0: fc08 7c3c 7296 0142 2a9a 8041 50c6 ae3c
000000d0: 2d30 8141 146b af3c fed8 9d3c 9c32 0b42
000000e0: db3b cd41 0547 0b42 0abc f440 1ff0 6142
000000f0: 0000 0000 049c bf3c 0000 0000 4e4c 3b41
00000100: cb5f 3228 b768 503c 76e8 2241 4b3d 6641
00000110: 28ff 442a 5754 1c41 3197 5841 7c48 9b41
00000120: b106 3a41 0000 0000 3004 ba40 de22 4841
00000130: 694c 1042 5b14 7241 62d5 f041 ae10 6841
00000140: 107d a23b 1629 913c a084 1b42 7063 883c
00000150: 8f06 c723 0000 0000 28f6 0741 a642 bb3c
00000160: 0000 0000 dbba d122 5bbd 7f41 f775 b43c
00000170: 520b 8a3c 290c 0f3c 3545 9941 123f 1b41
00000180: e2b2 5341 6ee9 623c e978 6341 2acf b23c
00000190: 2d4b 0b42 60c4 a140 06e2 aa42 3179 3f41
000001a0: af8e 331e 2343 1c41 dce9 193c a793 e627
000001b0: fbd3 1323 65d3 a141 605c 8f3c 0000 0000
000001c0: 4dc7 0a42 3aa3 2042 df09 3c41 a779 5442
000001d0: ea45 8f41 d373 3a3c 50fc 3c3c 8ba6 4d41
000001e0: 56f7 b941 7a83 841e f134 583c 0000 0000
000001f0: 2373 6924 0000 0000 210b cb41 0000 0000

layers.2.running_var f4 [128]
78.20683 27.46423 5.290405e-15 1.4261747e-15 253.46387 0.008288851 0.007125746 4.9869975e-19
134.06848 0.0047395364 52.480377 30.422598 4.977415e-19 73.31418 4.977415e-19 21.33295
129.11958 23.898592 75.00361 89.555916 4.977415e-19 0.0035480454 165.14542 31.706446
0.007291973 32.190365 4.977415e-19 15.081518 2.0647493e-17 4.977415e-19 359.5623 4.980676e-19
0.0019589462 326.00153 4.977415e-19 4.977415e-19 30.83998 32.319836 62.230465 0.005308052
4.977415e-19 75.22061 120.211815 4.977415e-19 61.934258 160.60979 13.229907 0.009151527
0.004292768 110.282715 137.42224 0.008257191 44.53445 0.008318117 0.006735215 193.77438
71.4664 214.17552 6.2968245 436.90536 4.977415e-19 0.009924514 4.977415e-19 16.947632
1.9343322e-14 0.0029352729 97.62999 29.45574 2.709114e-13 33.120037 22.736666 151.73401
14.408588 4.977415e-19 62.68055 97.28115 209.1935 88.24198 94.638794 23.3865
0.00044606838 0.0056960303 249.11961 0.0050284076 9.7355234e-17 4.977415e-19 78.29859 0.009479097
4.977415e-19 7.218945e-18 76.96022 0.008803213 0.005151242 0.0013828534 46.747597 12.23088
18.309328 0.0034796027 91.08399 0.008642818 123.41114 4.1714263 918.79926 112.557205
5.1283223e-19 31.58954 0.0016009168 9.3240286e-15 8.770323e-18 154.81644 0.00555567 4.977415e-19
221.88214 204.4064 139.217 370.76898 49.866364 0.0023493888 0.0024136412 19.672832
95.52397 5.1911353e-19 0.0031590322 4.977415e-19 6.6255413e-17 4.977415e-19 66.73673 4.977415e-19
00000000: e669 9c42 beb6 db41 609b be27 8f88 cd26
00000010: c076 7d43 f6cd 073c 177f e93b b030 1321
00000020: 8811 0643 1d4e 9b3b e8eb 5142 7b61 f341
00000030: 49e8 1221 dca0 9242 49e8 1221 e2a9 aa41
00000040: 9d1e 0143 5130 bf41 d901 9642 a11c b342
00000050: 49e8 1221 5386 683b 3a25 2543 cda6 fd41
00000060: 81f1 ee3b efc2 0042 49e8 1221 e64d 7141
00000070: 8470 be23 49e8 1221 f9c7 b343 ed00 1321
00000080: aa61 003b 3200 a343 49e8 1221 49e8 1221
00000090: 47b8 f641 8347 0142 ffeb 7842 2bef ad3b
000000a0: 49e8 1221 f470 9642 736c f042 49e8 1221
000000b0: aebc 7742 1b9c 2043 b3ad 5341 49f0 153c
000000c0: 59aa 8c3b c090 dc42 186c 0943 2b49 073c
000000d0: 4723 3242 b648 083c 14b3 dc3b 3ec6 4143
000000e0: ccee 8e42 ef2c 5643 967f c940 e373 da43
000000f0: 49e8 1221 6e9a 223c 49e8 1221 c094 8741
00000100: aa3a ae28 b55d 403b 8e42 c342 5ba5 eb41
00000110: 7382 982a eb7a 0442 b1e4 b541 e8bb 1743
00000120: 9489 6641 49e8 1221 e2b8 7a42 f38f c242
00000130: 8931 5143 e57b b042 1047 bd42 8d17 bb41
00000140: 49de e939 c4a5 ba3b 9f1e 7943 57c5 a43b
00000150: 637c e024 49e8 1221 e198 9c42 374e 1b3c
00000160: 49e8 1221 812a 0523 a2eb 9942 5a3b 103c
00000170: c0cb a83b dc40 b53a 8afd 3a42 afb1 4341
00000180: 8179 9241 0c0a 643b 012b b642 9b9a 0d3c
00000190: 81d2 f642 537c 8540 27b3 6544 4a1d e142
000001a0: 825c 1721 61b7 fc41 dbd5 d13a 7ef7 2728
000001b0: aec8 2123 02d1 1a43 560c b63b 49e8 1221
000001c0: d4e1 5d43 0a68 4c43 8d37 0b43 6e62 b943
000001d0: 2877 4742 34f8 193b 2e2e 1e3b f661 9d41
000001e0: 460c bf42 1c37 1921 c407 4f3b 49e8 1221
000001f0: 4bc6 9824 49e8 1221 3579 8542 49e8 1221

layers.3.weight f4 [128, 128]
-0.0835362 0.07975563 -0.017129043 0.010071303 -0.04703402 0.05038403 0.057099756 0.04470032
0.025149679 -0.026439292 -0.041573472 0.010992839 0.006773479 -0.08504289 -0.013327688 -0.03570619
0.036770824 -0.08472583 0.026967404 -0.080362834 -0.07492055 -0.03020111 0.08329562 -0.07390009
0.100144535 -0.024460634 0.018583989 0.016199697 -0.05550365 0.08661625 0.06576748 0.016498892
-0.022019772 -0.009498389 0.044006135 -0.056689546 -0.012498302 -0.023765992 -0.06999492 0.0024356537
-0.034400407 -0.05190847 -0.019440612 -0.05021608 -0.075772636 -0.051562022 -0.07357156 -0.053677246
-0.066756606 -0.083840095 -0.08548468 0.04919411 0.032120682 -0.07861514 0.07005139 0.0622754
0.048252147 0.032936603 0.040952917 -0.050594535 -0.04703749 0.026113274 0.052939866 -0.058033686
-0.03381908 -0.019927364 0.042028427 0.03500443 -0.06460512 -0.050356247 0.09612203 -0.040185623
0.068984665 0.08692674 0.008040144 0.031304546 -0.06797693 0.07630988 0.048362408 0.016571365
0.045839794 0.07593056 0.054329507 0.058308724 0.0483316 0.027975148 -0.055951837 0.029751213
0.012721873 -0.089048676 0.0008043166 0.028709 -0.06643662 -0.04616343 0.004219903 0.03616949
-0.00924358 -0.034275297 -0.09139706 -0.02267776 -0.02447683 -0.026139628 -0.06276457 -0.014262036
-0.057054102 0.072583415 0.056845926 0.051409394 0.013589876 -0.07547356 -0.06051913 -0.012236146
0.049864348 -0.080694616 -0.063167095 -0.083660975 0.04506911 0.0327809 -0.0018067587 -0.001388503
-0.034638 -0.0068942276 -0.057594683 0.049263857 -0.053479195 0.05379107 0.05829832 0.026904786
-0.06309776 -0.03460877 -0.011377063 0.011667727 -0.030078296 -0.04992103 -0.022292115 -0.058068123
0.046902664 -0.06927969 0.009772621 -0.08674486 -0.03799563 0.04446024 0.087635405 -0.022484004
-0.07353393 -0.012767399 -0.14730123 -0.08760904 0.055509515 0.035118256 -0.052740306 -0.074931264
-0.08947655 0.13674258 0.039383233 -0.056247763 0.04127521 -0.010632349 0.06943786 -0.05074467
-0.064752534 0.093101144 0.07174077 -0.0387326 0.030757314 0.07653241 -0.07070687 -0.07712116
0.07276254 -0.0419607 -0.04307518 -0.023105495 0.02909694 0.044094406 -0.09861256 0.055556353
-0.06983171 0.06734914 0.06301109 0.008368026 0.059864383 -0.08645861 0.07519697 0.07798665
-0.07314733 -0.024036305 0.024623036 -0.06806333 0.03890063 -0.067857236 -0.03213166 0.043037284
-0.09517043 0.066299655 -0.037301157 -0.056011043 0.00721869 -0.118533894 -0.13035606 0.10111735
-0.16085988 0.014616458 0.061445232 0.02361183 0.034867167 0.07019602 0.03506832 -0.05663607
0.07554416 0.021533344 -0.046956256 -0.06693062 -0.031602684 -0.081948444 0.0025449567 -0.039425865
-0.07333089 0.019835083 -0.055889465 0.025706014 -0.06621663 -0.019299775 -0.099208705 -0.01579815
0.020342868 0.09842449 -0.008122366 0.07843484 0.07920295 0.086918265 0.06998772 0.08985053
-0.05649192 -0.039242588 -0.07477648 0.049280446 -0.03345474 -0.005199209 0.0697065 -0.024355646
-0.03950486 -0.04152355 0.04656674 -0.025582248 0.067611195 -0.10494025 -0.05243665 -0.10840807
0.034608852 0.054598544 -0.0002284999 -0.08246525 -0.048631936 0.07993663 0.004729019 -0.002707034
00000000: 0715 abbd eb56 a33d 3552 8cbc 1b02 253c
00000010: bfa6 40bd 7c5f 4e3d 6fe1 693d af17 373d
00000020: b306 ce3c 3797 d8bc f248 2abd 4f1b 343c
00000030: 0ff4 dd3b f72a aebd 605c 5abc a740 12bd
00000040: 019d 163d bc84 adbd bfea dc3c 4595 a4bd
00000050: f26f 99bd 5168 f7bc e596 aa3d ee58 97bd
00000060: 9418 cd3d ab61 c8bc 733d 983c 3ab5 843c
00000070: cc57 63bd dc63 b13d 1ab1 863d af28 873c
00000080: cf62 b4bc 229f 1bbc c73f 343d 4c33 68bd
00000090: aec5 4cbc e6b0 c2bc 7f59 8fbd 7d9f 1f3b
000000a0: 71e7 0cbd fa9d 54bd eb41 9fbc 60af 4dbd
000000b0: af2e 9bbd b332 53bd b0ac 96bd acdc 5bbd
000000c0: b0b7 88bd 5bb4 abbd 9812 afbd c37f 493d
000000d0: fa90 033d f900 a1bd 1a77 8f3d 7d14 7f3d
000000e0: 0ba4 453d 88e8 063d 3fbe 273d 373c 4fbd
000000f0: 62aa 40bd 81eb d53c 79d7 583d bbb4 6dbd
00000100: e085 0abd b63e a3bc 0026 2c3d ce60 0f3d
00000110: b04f 84bd 5a42 4ebd a0db c43d ae99 24bd
00000120: d547 8d3d a606 b23d cfba 033c 3239 003d
00000130: 7d37 8bbd 5b48 9c3d a917 463d acc0 873c
00000140: 82c2 3b3d 7b81 9b3d 9e88 5e3d 21d5 6e3d
00000150: 5bf7 453d 232c e53c c12d 65bd d1b8 f33c
00000160: 676f 503c 275f b6bd c6d8 523a 232f eb3c
00000170: ec0f 88bd dd15 3dbd 1d47 8a3b 7626 143d
00000180: 6272 17bc 4164 0cbd 622e bbbd b6c6 b9bc
00000190: a283 c8bc c622 d6bc b68a 80bd 51ab 69bc
000001a0: 90b1 69bd 9da6 943d 46d7 683d a892 523d
000001b0: 12a8 5e3c e291 9abd e8e2 77bd 1e7a 48bc
000001c0: 8f3e 4c3d 3843 a5bd c05d 81bd 7256 abbd
000001d0: 639a 383d 4445 063d c3d0 ecba 6efe b5ba
000001e0: 93e0 0dbd f9e8 e1bb 67e8 6bbd e6c8 493d
000001f0: 000d 5bbd 0654 5c3d 38ca 6e3d 6d67 dc3c
00000200: 6639 81bd edc1 0dbd dc66 3abc fe29 3f3c
00000210: c266 f6bc fe79 4cbd f49d b6bc d7d8 6dbd
00000220: 021d 403d 83e2 8dbd 581d 203c 4aa7 b1bd
00000230: 4ea1 1bbd f11b 363d 317a b33d 6030 b8bc
00000240: f598 96bd 5a2e 51bc 22d6 16be 5e6c b3bd
00000250: f25d 633d 29d8 0f3d 3806 58bd 9075 99bd
00000260: 7b3f b7bd 3f06 0c3e 5050 213d 0e64 66bd
00000270: 3210 293d 4e33 2ebc 7035 8e3d a5d9 4fbd
00000280: fa9c 84bd d0ab be3d d3ec 923d 13a6 1ebd
00000290: c3f6 fb3c 06bd 9c3d c3ce 90bd b3f1 9dbd
000002a0: 8704 953d fcde 2bbd 9a6f 30bd bc47 bdbc
000002b0: b55c ee3c 569c 343d 62f5 c9bd 0f8f 633d
000002c0: ed03 8fbd 59ee 893d f50b 813d 0c1a 093c
000002d0: 5b34 753d 3611 b1bd de00 9a3d 77b7 9f3d
000002e0: 44ce 95bd c9e7 c4bc 40b6 c93c ca64 8bbd
000002f0: 4456 1f3d bcf8 8abd 7d9c 03bd dd47 303d
00000300: b7e8 c2bd 1dc8 873d 19c9 18bd d66b 65bd
00000310: c38a ec3b e6c1 f2bd 0f7c 05be 9d16 cf3d
00000320: 74b8 24be de79 6f3c ffad 7b3d 996d c13c
00000330: e0d0 0e3d eec2 8f3d cca3 0f3d 39fb 67bd
00000340: e6b6 9a3d b266 b03c 3455 40bd ec12 89bd
00000350: d171 01bd 96d4 a7bd 4ac9 263b 047d 21bd
00000360: 812e 96bd 2f7d a23c 5aec 64bd 6b95 d23c
00000370: 969c 87bd 901a 9ebc ef2d cbbd 1f6b 81bc
00000380: 16a6 a63c c792 c93d ac13 05bc 72a2 a03d
00000390: 2835 a23d 3402 b23d b955 8f3d 8e03 b83d
000003a0: 1264 67bd d6bc 20bd 6924 99bd 4bda 493d
000003b0: d607 09bd 205e aabb 48c2 8e3d 7e85 c7bc
000003c0: d9cf 21bd 9914 2abd c4bc 3e3d dd91 d1bc
000003d0: bd77 8a3d eaea d6bd d0c7 56bd 0d05 debd
000003e0: 03c2 0d3d b9a2 5f3d 7a99 6fb9 8ae3 a8bd
000003f0: 4832 47bd d1b5 a33d e3f5 9a3b 7e68 31bb

layers.3.bias f4 [128]
-0.08822042 -0.040410813 0.07467659 0.029782642 -0.015240254 -0.061347786 0.093883894 -0.04657804
0.06450582 0.061949182 -0.054591578 0.011212481 0.021862637 0.078121975 0.014832705 0.07547494
-0.02139337 0.040365886 0.07247089 -0.06977644 -0.01525385 0.07751464 -0.030862844 -0.03803381
-0.052354 -0.0921291 0.02376821 0.0049439757 0.04131101 0.105217315 -0.03355841 0.0648651
0.053567003 0.1520966 0.06857932 -0.05377213 0.02336136 0.00989941 -0.067790635 0.005470421
0.070400804 0.057228114 0.06972238 -0.056839917 -0.040980123 -0.06872446 -0.059107568 0.0048126257
-0.08073112 -0.054770593 0.019735038 -0.0027717382 -0.07372922 -0.028957412 -0.117351025 -0.002576949
-0.01849269 0.035289783 0.02734155 -0.080185555 0.022874523 -0.038357962 0.04141289 0.06793459
-0.06867844 -0.0038517397 0.082688235 0.035038956 0.06490118 -0.037398137 -0.045107894 0.021307187
0.096573405 -0.080661416 -0.033650238 -0.022347853 -0.08454474 0.045018274 0.035489604 -0.0016804858
0.038141865 -0.21033254 0.06070381 0.07668764 -0.018142985 0.05671614 0.05143758 -0.08542879
-0.05829136 0.0052487953 0.08553495 -0.036732975 -0.006452751 -0.07830274 0.029900923 0.045266706
0.0070465254 -0.054565255 -0.031698976 0.042552035 -0.03416396 -0.02634203 -0.0072364314 -0.030653799
0.07936436 -0.056648996 0.06930523 -0.0017237469 -0.06290246 -0.06602246 -0.03690875 -0.011283636
-0.034238674 0.06361251 -0.08182533 -0.020098554 -0.07575516 0.018632755 0.010588663 0.008369297
0.016218044 -0.10863548 -0.018276257 -0.05547751 0.008233665 -0.07249669 0.08034622 -0.00596554
00000000: e8ac b4bd cf85 25bd 0af0 983d bafa f33c
00000010: 42b2 79bc d147 7bbd 3346 c03d 9dc8 3ebd
00000020: a11b 843d 6dbe 7d3d 6b9b 5fbd 8eb4 373c
00000030: 4619 b33c 6afe 9f3d e004 733c 9b92 9a3d
00000040: 2641 afbc b356 253d 9e6b 943d f3e6 8ebd
00000050: 49eb 79bc ffbf 9e3d 13d4 fcbc 57c9 1bbd
00000060: 2671 56bd 2eae bcbd 8db5 c23c 1301 a23b
00000070: bc35 293d 2d7c d73d 8b74 09bd fed7 843d
00000080: 1369 5b3d 36bf 1b3e 5173 8c3d 2a40 5cbd
00000090: 5360 bf3c 2331 223c d1d5 8abd 3841 b33b
000000a0: 4c2e 903d 0768 6a3d 9bca 8e3d f9d0 68bd
000000b0: c6da 27bd 69bf 8cbd c71a 72bd 3bb3 9d3b
000000c0: 5c56 a5bd 2157 60bd 60ab a13c 0da6 35bb
000000d0: 58ff 96bd 1838 edbc bc55 f0bd 08e2 28bb
000000e0: fb7d 97bc 058c 103d 63fb df3c 5338 a4bd
000000f0: 5a63 bb3c 3d1d 1dbd 90a0 293d 4a21 8b3d
00000100: 48a7 8cbd 786d 7cbb 7358 a93d 0285 0f3d
00000110: e9ea 843d ca2e 19bd 0ec3 38bd 698c ae3c
00000120: 47c8 c53d d031 a5bd d5d4 09bd d812 b7bc
00000130: cb25 adbd 1565 383d 8c5d 113d bf43 dcba
00000140: a53a 1c3d 6a61 57be 8fa4 783d 690e 9d3d
00000150: 99a0 94bc 2f4f 683d 36b0 523d 4af5 aebd
00000160: ecc2 6ebd 16fe ab3b f32c af3d 5175 16bd
00000170: 9971 d3bb 305d a0bd c8f2 f43c 9569 393d
00000180: 8ae6 e63b d17f 5fbd c9d6 01bd 0b4b 2e3d
00000190: 82ef 0bbd 3ecb d7bc 961f edbb ad1d fbbc
000001a0: c889 a23d c708 68bd e7ef 8d3d 59ef e1ba
000001b0: 01d3 80bd c936 87bd a12d 17bd 00df 38bc
000001c0: da3d 0cbd 4747 823d 0a94 a7bd b9a5 a4bc
000001d0: 8525 9bbd b8a3 983c 127c 2d3c 601f 093c
000001e0: b4db 843c 477c debd 17b8 95bc 633c 63bd
000001f0: 7ee6 063c 2579 94bd 8f8c a43d 947a c3bb

layers.5.weight f4 [128]
0.98863727 1.0164233 1.0077426 1.0055516 0.98427933 1.0039448 1.0269004 0.9983224
1.0179694 0.9865132 0.9998086 0.9940018 0.9867198 1.0023524 0.98239666 1.0022439
1.0171443 0.9938031 1.0087101 0.99678326 1.0015541 0.9839294 1.0003201 0.99919355
0.9980601 1.010458 1.0124466 1.007561 0.9974869 0.99567413 0.9871437 0.99668926
1.0005604 1.026366 0.9895079 1.0057107 0.9935407 0.9986461 0.9860001 0.9955949
0.99351454 0.99505746 1.0376188 0.9989987 1.0200006 0.9957926 1.0039859 0.9797904
0.9984721 1.0066332 1.0065806 0.9978612 0.9853403 0.98490286 0.9913987 0.9836195
1.004869 0.9974691 1.0035871 0.9945382 1.0038089 1.0162151 0.9903122 0.99896175
0.9926769 0.995876 1.0280964 1.0045432 1.0031558 1.002636 1.0147839 1.0032272
0.999856 0.9804132 0.9958517 0.99925804 0.9958413 0.9880212 0.99333197 0.97980386
0.98253316 1.0234034 0.9957412 0.96344954 1.0095525 0.9844541 0.9750303 0.99437344
1.0045319 1.0571895 0.97859395 0.9942479 0.9886919 0.9972003 0.9960412 1.0042999
1.0229659 1.0030429 0.9979513 0.98722124 1.0140666 1.0211447 1.0371168 0.9998796
0.98895246 0.99638426 0.99914306 1.0103554 1.0395815 0.9897109 0.99974364 0.99464166
0.9910134 0.99773186 1.0242008 1.0017253 1.0107915 0.9905868 0.9997755 1.018439
0.9945258 1.0052888 1.0156089 0.96900445 0.9986742 0.9851142 0.99136966 0.97941756
00000000: 5517 7d3f 291a 823f b6fd 803f eab5 803f
00000010: bbf9 7b3f 4381 803f 7971 833f 0f92 7f3f
00000020: d24c 823f 218c 7c3f 75f3 7f3f e776 7e3f
00000030: ab99 7c3f 154d 803f 597e 7b3f 8749 803f
00000040: c931 823f e169 7e3f 6a1d 813f 302d 7f3f
00000050: ed32 803f cce2 7b3f 7d0a 803f 26cb 7f3f
00000060: de80 7f3f b056 813f da97 813f c2f7 803f
00000070: 4d5b 7f3f 80e4 7e3f 73b5 7c3f 0727 7f3f
00000080: 5d12 803f f65f 833f 6450 7d3f 21bb 803f
00000090: af58 7e3f 45a7 7f3f 816a 7c3f 4fdf 7e3f
000000a0: f856 7e3f 16bc 7e3f b1d0 843f 61be 7f3f
000000b0: 618f 823f 44ec 7e3f 9c82 803f 8bd3 7a3f
000000c0: de9b 7f3f 5bd9 803f a2d7 803f d573 7f3f
000000d0: 433f 7c3f 9822 7c3f 4ecc 7d3f 7dce 7b3f
000000e0: 8c9f 803f 235a 7f3f 8b75 803f 0e9a 7e3f
000000f0: cf7c 803f 5613 823f 1a85 7d3f f5bb 7f3f
00000100: 1320 7e3f bbf1 7e3f aa98 833f df94 803f
00000110: 6967 803f 6056 803f 70e4 813f c069 803f
00000120: 90f6 7f3f 5cfc 7a3f 23f0 7e3f 60cf 7f3f
00000130: 75ef 7e3f f5ee 7c3f 014b 7e3f 6dd4 7a3f
00000140: 4b87 7b3f e2fe 823f e5e8 7e3f a1a4 763f
00000150: 0439 813f 2f05 7c3f 969b 793f 428f 7e3f
00000160: 8094 803f fc51 873f 2285 7a3f 0887 7e3f
00000170: ea1a 7d3f 8548 7f3f 8efc 7e3f e68c 803f
00000180: 8cf0 823f b663 803f bd79 7f3f 88ba 7c3f
00000190: efcc 813f dfb4 823f 3ec0 843f 1cf8 7f3f
000001a0: fd2b 7d3f 0a13 7f3f d7c7 7f3f 5353 813f
000001b0: 0211 853f b25d 7d3f 33ef 7f3f d6a0 7e3f
000001c0: 0eb3 7d3f 5b6b 7f3f 0319 833f 8938 803f
000001d0: 9e61 813f 1997 7d3f 4af1 7f3f 365c 823f
000001e0: 3e99 7e3f 4ead 803f 79ff 813f ad10 783f
000001f0: 1da9 7f3f 7230 7c3f 67ca 7d3f 1cbb 7a3f

layers.5.bias f4 [128]
0.010890163 0.004209076 0.018358525 0.002225913 0.009432198 -0.0047172345 0.006508919 -0.011454341
-0.013381939 0.010721476 0.014742671 0.0020366705 -0.0076023554 0.0038490104 0.014605944 -0.0013851651
-0.0032607878 0.006956695 -0.010032606 -0.00502844 0.0077154366 0.0038572995 -0.00477649 -0.008082167
0.017049639 -0.012600663 0.004380552 -0.015381259 -0.002515471 0.0047639473 -0.0072481413 0.00012390886
-0.004091149 0.02649614 0.0034483585 -0.009018136 -0.006681568 0.004497007 -0.0047949054 -0.0021144415
-0.0061976905 0.002580414 -0.002908612 -0.008717643 0.0006659623 0.009325523 -0.0007530046 0.009639036
0.011346458 -0.011562282 0.0084035415 0.0017823016 0.010721843 0.0012585131 -0.005656975 0.0002555536
0.0025074854 0.0075878114 -0.008165351 0.0031831865 -0.013527746 -0.0058617913 -0.0025265454 -0.00055314205
0.008997856 0.007074618 0.0062506148 -0.0010790281 -0.01259364 0.005617051 0.012819606 0.020026207
-0.008066358 -0.0032631007 0.012772966 0.003319384 -0.008732029 0.004367384 0.0075981757 0.012495546
0.012938186 0.015355819 0.0032840674 0.0042790896 -0.022647776 0.018117392 0.008304919 -0.009880515
-0.0016317324 0.013436085 0.0045462963 0.006873375 0.0061143357 0.0020672483 0.021049941 -0.011847701
-0.0020784559 -0.013928741 -0.0029534535 0.022632344 -0.011409214 0.015525964 -0.014824913 -0.005035823
-0.004715538 -0.0022615807 -0.005131716 -0.0154107865 0.010156299 0.009377011 0.016126983 -0.0024089194
-0.01420747 0.02821653 0.004501033 0.0051916353 -0.013623748 0.005299818 0.006355207 -0.009850003
0.015550226 -0.0075451992 -0.013972465 0.0009688153 -0.006834287 0.019470662 -0.0035521912 0.018512664
00000000: a76c 323c 4aec 893b 9e64 963c a0e0 113b
00000010: 8189 1a3c 0893 9abb c548 d53b fdaa 3bbc
00000020: ec3f 5bbc 21a9 2f3c 3e8b 713c a979 053b
00000030: 2e1d f9bb ae3f 7c3b c54d 6f3c 6e8e b5ba
00000040: f1b2 55bb fdf4 e33b cd5f 24bc 9dc5 a4bb
00000050: c6d1 fc3b bfca 7c3b 1a84 9cbb 116b 04bc
00000060: afab 8b3c 0373 4ebc bc8a 8f3b ad01 7cbc
00000070: 9ada 24bb e31a 9c3b d181 edbb 88ed 0139
00000080: 0c0f 86bb 6f0e d93c dbfd 613b cec0 13bc
00000090: 0ef1 dabb a15b 933b 951e 9dbb 7192 0abb
000000a0: ff15 cbbb 2a1c 293b 699e 3ebb 72d4 0ebc
000000b0: f993 2e3a 14ca 183c 4965 45ba 0ced 1d3c
000000c0: 7fe6 393c ba6f 3dbc 02af 093c 1e9c e93a
000000d0: abaa 2f3c b1f4 a43a 255e b9bb d3fb 8539
000000e0: a054 243b 2da3 f83b f7c7 05bc 029d 503b
000000f0: 7ba3 5dbc 4514 c0bb 6694 25bb bc00 11ba
00000100: be6b 133c 32d2 e73b f5d1 cc3b 2d6e 8dba
00000110: 8e55 4ebc 3d0f b83b 5309 523c 000e a43c
00000120: c228 04bc bfd9 55bb b445 513c 068a 593b
00000130: c910 0fbc 461c 8f3b 1efa f83b 1eba 4c3c
00000140: affa 533c f996 7b3c 8239 573b 9b37 8c3b
00000150: d487 b9bc ed6a 943c 5b11 083c e2e1 21bc
00000160: dbdf d5ba 0623 5c3c 19f9 943b 0c3a e13b
00000170: c45a c83b ac7a 073b ed70 ac3c dc1c 42bc
00000180: b436 08bb 6035 64bc ba8e 41bb 7767 b93c
00000190: b6ed 3abc 9d60 7e3c 31e4 72bc 8c03 a5bb
000001a0: cd84 9abb 0737 14bb f427 a8bb 867d 7cbc
000001b0: 9b66 263c 09a2 193c bc1c 843c f6de 1dbb
000001c0: 73c6 68bc 5a26 e73c 677d 933b 981e aa3b
000001d0: 2436 5fbc 18aa ad3b 573f d03b e861 21bc
000001e0: 60c6 7e3c b83d f7bb c4ec 64bc 18f8 7d3a
000001f0: 28f2 dfbb f080 9f3c e1cb 68bb dfa7 973c

layers.5.running_mean f4 [128]
0.15633766 0.31360418 0.32391804 0.19841526 0.23206575 0.22523129 0.49355215 0.2543908
0.42497814 0.4050369 0.24114308 0.19748992 0.37173885 0.29748875 0.30478215 0.4342305
0.346844 0.23112859 2.0524466 0.12515596 0.16842102 0.27247506 0.27293178 0.27602217
0.12203035 0.35851282 0.36818147 0.16997346 0.34579867 0.39077258 0.19601305 0.25249976
0.3091389 0.37288707 0.37947735 0.2631695 0.22807933 0.29401734 0.14446574 0.257358
0.24986452 0.24609916 0.25242814 0.32829088 0.3276568 0.32849497 0.3316899 0.5393219
0.30627334 0.23929618 0.37097546 0.3703705 0.37589014 0.30877748 0.16050911 0.19558764
0.22985476 0.6114558 0.16587336 0.09445938 0.18119965 0.3831888 0.3549887 0.33627945
0.60716087 0.25343737 0.33058748 0.3021106 0.42780223 0.22678922 0.3387857 0.5832606
0.20321608 0.11500498 0.21406901 0.26472497 0.26700324 0.3385269 0.16482238 0.27069777
0.34505445 0.28179383 0.27164006 0.37816107 0.27526227 0.3649851 0.35110846 0.32204354
0.22830684 0.3203868 0.4051921 0.36080343 0.20734203 0.16528855 0.15440969 0.23482731
0.26998225 0.1575712 0.23281576 0.34996715 0.34914258 0.2665993 0.5264991 0.36340633
0.2827564 0.2421937 0.23005448 0.254606 0.31955975 0.17714769 0.30095974 0.30454332
0.3388226 0.51836634 0.19907895 0.3462686 0.1356324 0.17541978 0.21433058 0.28080916
0.34758198 0.28119314 0.27034917 0.26368663 0.19983155 0.20882961 0.22690149 0.2617734
00000000: fb16 203e ba90 a03e 96d8 a53e 5f2d 4b3e
00000010: a5a2 6d3e 08a3 663e deb2 fc3e 833f 823e
00000020: bc96 d93e ff60 cf3e 36ee 763e cc3a 4a3e
00000030: 8e54 be3e 7250 983e 680c 9c3e 7653 de3e
00000040: 8995 b13e f9ac 6c3e 495b 0340 e228 003e
00000050: 8f76 2c3e da81 8b3e b7bd 8b3e c752 8d3e
00000060: 0ceb f93d fe8e b73e 4882 bc3e 860d 2e3e
00000070: 860c b13e 5813 c83e a5b7 483e a647 813e
00000080: 7447 9e3e 0eeb be3e db4a c23e 27be 863e
00000090: a18d 693e 7189 963e d4ee 133e 6ec4 833e
000000a0: 7cdc 7f3e 6b01 7c3e 433e 813e be15 a83e
000000b0: a2c2 a73e 7e30 a83e 42d3 a93e 0011 0a3f
000000c0: dccf 9c3e 0f0a 753e 7ff0 bd3e 34a1 bd3e
000000d0: ac74 c03e 1518 9e3e 805c 243e 2048 483e
000000e0: 0c5f 6b3e 5e88 1c3f b5da 293e eb73 c13d
000000f0: 678c 393e 5331 c43e 14c1 b53e d22c ac3e
00000100: e56e 1b3f 8bc2 813e c342 a93e 3eae 9a3e
00000110: e508 db3e 6f3b 683e 5275 ad3e 9150 153f
00000120: e017 503e bb87 eb3d e834 5b3e 088a 873e
00000130: a6b4 883e 6653 ad3e 33c7 283e e698 8a3e
00000140: faaa b03e 4847 903e 6814 8b3e 549e c13e
00000150: 2def 8c3e 54df ba3e 7dc4 b33e e4e2 a43e
00000160: 45c9 693e bd09 a43e 5775 cf3e 3abb b83e
00000170: 7851 543e 6741 293e 931d 1e3e 9276 703e
00000180: 1d3b 8a3e 585a 213e 4167 6e3e e52e b33e
00000190: d1c2 b23e b47f 883e a5c8 063f 6510 ba3e
000001a0: 72c5 903e a001 783e 6793 6b3e b85b 823e
000001b0: 569d a33e 3466 353e 6517 9a3e 1aed 9b3e
000001c0: 287a ad3e a8b3 043f 5adb 4b3e 1e4a b13e
000001d0: 38e3 0a3e 3ea1 333e 7a79 5b3e 38c6 8f3e
000001e0: 44f6 b13e 8cf8 8f3e 356b 8a3e ef01 873e
000001f0: a4a0 4c3e 6ed7 553e dd58 683e 2a07 863e

layers.5.running_var f4 [128]
0.13984592 0.2783679 0.19625345 0.17589583 0.10766878 0.36688098 0.66113436 0.19307609
0.4037997 0.5857685 0.14501196 0.23139328 0.6973711 0.19051947 0.16320854 0.44449586
0.14012085 0.07320435 6.7034917 0.054155134 0.25837436 0.52903605 0.16130598 0.18568796
0.26827538 0.13023834 0.19488533 0.0689567 0.2549009 0.08873158 0.32301182 0.1448653
0.56946117 0.048536073 0.30737373 0.04800497 0.31179968 0.14336047 0.054852966 0.17916474
0.22686815 0.21731284 0.10101201 0.17332053 0.20794818 0.8192038 0.29192483 0.6685779
0.2093959 0.43462566 0.5452654 0.34319407 0.34617385 0.16591012 0.053759262 0.21469186
0.23761803 0.74196744 0.052586466 0.12618057 0.0442145 0.34961334 0.21048592 0.09617882
0.8381805 0.10796005 0.13195828 0.15748249 0.4545645 0.2870305 0.20671904 0.4851022
0.3297164 0.09660626 0.33042878 0.10702378 0.057558365 0.24040678 0.0639157 0.0860364
0.2794441 0.42311144 0.37481803 0.2242277 0.23260179 0.2618306 0.122294694 0.3033018
0.09553728 0.21018566 0.33368346 0.4475921 0.27006114 0.058492374 0.032206066 0.15566997
0.15528631 0.073500715 0.0987362 0.5655161 0.1648476 0.12508982 0.6034558 0.281064
0.08956682 0.10908106 0.24417454 0.0514808 0.3204329 0.080724634 0.16428557 1.0302082
0.45481458 0.3571772 0.09077655 0.23244089 0.15254039 0.32738566 0.19960597 0.119102165
0.25759673 0.15207332 0.11906239 0.09903563 0.3378967 0.40619877 0.12723944 0.21695152
00000000: c533 0f3e 3d86 8e3e aaf6 483e 091e 343e
00000010: 7381 dc3d d3d7 bb3e 1a40 293f bdb5 453e
00000020: d6be ce3e edf4 153f 047e 143e 5cf2 6c3e
00000030: ea86 323f 8917 433e 2420 273e f694 e33e
00000040: d77b 0f3e 2aec 953d 0183 d640 c6d1 5d3d
00000050: a549 843e e86e 073f 652d 253e fc24 3e3e
00000060: 645b 893e 335d 053e 0590 473e 2c39 8d3d
00000070: 5f82 823e e7b8 b53d ce61 a53e 9257 143e
00000080: 35c8 113f c3cd 463d 1760 9d3e dca0 443d
00000090: 35a4 9f3e 16cd 123e 81ad 603d f676 373e
000000a0: 2050 683e 4287 5e3e 62df ce3d f07a 313e
000000b0: 5ef0 543e 57b7 513f 2c77 953e ec27 2b3f
000000c0: e16b 563e 4187 de3e 8396 0b3f 22b7 af3e
000000d0: b33d b13e 58e4 293e ac32 5c3d 2fd8 5b3e
000000e0: 2452 733e 94f1 3d3f e864 573d 7b35 013e
000000f0: 431a 353d 8500 b33e 9f89 573e 67f9 c43d
00000100: ff92 563f 291a dd3d 1220 073e 1743 213e
00000110: aebc e83e a9f5 923e 28ae 533e 515f f83e
00000120: 97d0 a83e 81d9 c53d f62d a93e 492f db3d
00000130: 52c2 6b3d 322d 763e 3ce6 823d da33 b03d
00000140: 4c13 8f3e 10a2 d83e 26e8 bf3e f29b 653e
00000150: 2a2f 6e3e a90e 863e a475 fa3d 604a 9b3e
00000160: 0da9 c33d e93a 573e 8fd8 aa3e cb2a e53e
00000170: 7445 8a3e b395 6f3d 82ea 033d f367 1f3e
00000180: 6003 1f3e 8b87 963d 3436 ca3d aac5 103f
00000190: cfcd 283e 8c17 003e 147c 1a3f 9fe7 8f3e
000001a0: cf6e b73d e465 df3d e408 7a3e 88dd 523d
000001b0: c80f a43e f552 a53d 7a3a 283e dddd 833f
000001c0: 75dd e83e eedf b63e 0ee9 b93d fc04 6e3e
000001d0: 8c33 1c3e 189f a73e 8265 4c3e d6eb f33d
000001e0: b8e3 833e 1cb9 1b3e fbd6 f33d 31d3 ca3d
000001f0: cc00 ad3e 49f9 cf3e 0e4b 023e 8a28 5e3e

layers.6.weight f4 [128, 128]
-0.019289201 0.051298495 -0.08973499 -0.05702875 -0.012738995 -0.002906934 -0.0902961 0.02007819
0.00020634203 -0.060091004 -0.0077452376 0.057758506 -0.034939524 0.078957945 -0.036072753 0.012403103
-0.036397375 0.061992094 -0.043883935 0.020902464 0.029216787 -0.020456992 -0.09017849 -0.053278323
-0.02244883 -0.013350713 -0.027973609 0.02464562 0.09007194 -0.00044835886 -0.032707732 0.036098864
-0.028067723 -0.018221296 0.03300333 0.034880877 0.024008129 -0.032381985 0.044555254 0.044244725
0.072681606 -0.009909541 -0.032503475 0.08496832 0.12989388 0.014653111 0.11050226 0.075288296
0.005703322 -0.06811276 0.050132994 0.043712717 0.0547525 0.026828846 0.04009768 0.0050551477
-0.07308731 -0.032113634 0.07097407 0.015550167 -0.09283596 0.087059855 -0.0794844 -0.01490832
0.09159755 -0.05546324 -0.068361014 -0.0009160371 -0.056644566 0.018423047 0.082905695 -0.05747564
-0.07387066 -0.08629729 0.053343747 -0.046957783 -0.0819001 0.029647782 0.025836864 0.013751722
0.06784295 -0.035090517 -0.08169588 0.039272573 -0.033961106 0.06768258 0.089901075 -0.04685113
-0.039142374 -0.07103269 -0.007985341 0.011843934 -0.035003893 0.0041044885 0.0747077 -0.094198756
0.045223102 0.030541964 0.022014461 -0.007981179 -0.061434705 0.018490624 0.018043691 0.059050996
-0.058710884 0.012415306 -0.06615721 0.024694294 -0.03565659 -0.040804036 0.06122849 0.07998497
-0.062231857 -0.09401002 0.012999742 -0.033815794 -0.10050303 -0.05634777 -0.071768716 -0.004062358
0.035128057 -0.059842855 0.10872526 -0.01915631 -0.041256353 0.057777382 -0.038708758 -0.02606503
0.054017436 0.07314605 0.07258173 -0.036652368 0.040630143 0.065299004 -0.047468644 0.009401912
-0.0012431878 0.07116283 0.07759068 -0.08472871 0.09230123 -0.06795557 0.036706705 -0.0086365035
-0.093339704 0.044646826 0.04345733 0.045798887 -0.06302368 0.0072257197 -0.095874324 0.05936929
-0.013102696 -0.12216124 -0.05815318 0.06590923 0.05194545 -0.0104298955 0.0606017 0.00046832982
0.06840764 -0.07402786 -0.04912017 0.0015405996 0.04838216 -0.013290992 0.036052234 0.040134866
-0.026604012 -0.082024254 -0.11950178 0.08427295 -0.10230779 -0.057695705 -0.028096974 -0.033242963
0.03362311 -0.015336363 0.044167712 -0.05781486 0.03557606 0.0070867594 0.02418511 0.09103101
-0.08559835 0.0673582 -0.056617446 -0.00067745673 0.006231419 -0.035192575 -0.027970139 -0.05715822
0.05251077 0.0058509656 -0.108581446 0.042644914 -0.09706273 -0.078472994 -0.073886774 0.069956854
0.034488212 -0.009546958 -0.023349151 0.044485547 -0.06438856 -0.04723883 0.010923325 0.019335236
0.05615633 0.093278736 -0.06933116 -0.061727047 0.00052859716 0.095623046 0.045410056 -0.105631754
0.027995931 -0.019998265 0.048044484 -0.07709435 -0.018471995 0.0066747344 -0.00762462 -0.0016783549
-0.06398679 -0.09383037 0.04481562 0.0073858225 -0.062771216 0.06874957 0.006948671 0.058092743
0.042173695 -0.065802775 -0.061051313 0.057176523 -0.046717834 -0.011551463 0.03334464 -0.04049988
0.00080106885 0.04175534 0.04364177 -0.041869346 -0.016478278 -0.012081368 0.00092698954 -0.13605762
-0.07132777 -0.04762863 -0.05170542 -0.045563005 -0.036525454 0.06662687 0.07550963 -0.04362697
00000000: 6304 9ebc 5f1e 523d fac6 b7bd fb96 69bd
00000010: 38b7 50bc 4282 3ebb 29ed b8bd 047b a43c
00000020: 845d 5839 fc21 76bd c3cb fdbb 2f94 6c3d
00000030: bf1c 0fbd b4b4 a13d 06c1 13bd 6236 4b3c
00000040: 6a15 15bd 6ceb 7d3d a4bf 33bd a53b ab3c
00000050: 0b58 ef3c 6c95 a7bc 80af b8bd 5f3a 5abd
00000060: 9ce6 b7bc f3bc 5abc e928 e5bc 9ce5 c93c
00000070: a377 b83d b511 ebb9 8bf8 05bd 67dc 133d
00000080: 48ee e5bc d444 95bc 802e 073d 40df 0e3d
00000090: b2ac c43c f9a2 04bd 927f 363d f539 353d
000000a0: 18da 943d a15b 22bc 5d22 05bd df03 ae3d
000000b0: e702 053e 9a13 703c 024f e23d c030 9a3d
000000c0: efe2 ba3b b47e 8bbd 4158 4d3d 1b0c 333d
000000d0: 2844 603d 2bc8 db3c 773d 243d a7a5 a53b
000000e0: cdae 95bd 9689 03bd da5a 913d 21c6 7e3c
000000f0: c820 bebd 704c b23d b8c8 a2bd 0742 74bc
00000100: 7f97 bb3d 6c2d 63bd dc00 8cbd 3622 70ba
00000110: 2204 68bd eeeb 963c 76ca a93d 946b 6bbd
00000120: 8049 97bd a2bc b0bd f97e 5a3d ce56 40bd
00000130: 3dbb a7bd e8df f23c d5a7 d33c e74e 613c
00000140: 3ff1 8a3d 13bb 0fbd 2b50 a7bd 47dc 203d
00000150: cd1a 0bbd 2a9d 8a3d 0e1e b83d f8e6 3fbd
00000160: c153 20bd 9679 91bd f3d4 02bc 0f0d 423c
00000170: 3e60 0fbd f27e 863b 5a00 993d 47eb c0bd
00000180: dc3b 393d 2433 fa3c ac57 b43c 7ec3 02bc
00000190: f5a2 7bbd a679 973c 5dd0 933c 75df 713d
000001a0: d37a 70bd 9169 4b3c 6e7d 87bd b04b ca3c
000001b0: a50c 12bd 2222 27bd baca 7a3d 29cf a33d
000001c0: d5e6 7ebd 5388 c0bd dffc 543c 6e82 0abd
000001d0: 88d4 cdbd ebcc 66bd 7afb 92bd 871d 85bb
000001e0: 70e2 0f3d c81d 75bd 59ab de3d b2ed 9cbc
000001f0: 6cfc 28bd faa7 6c3d 138d 1ebd 5486 d5bc
00000200: 6341 5d3d 99cd 953d bba5 943d cb20 16bd
00000210: cb6b 263d 7cbb 853d 7b6e 42bd 7a0a 1a3c
00000220: 76f2 a2ba d1bd 913d dde7 9e3d 3f86 adbd
00000230: 6d08 bd3d 4a2c 8bbd c559 163d 1f80 0dbc
00000240: e328 bfbd 97df 363d 5000 323d 9d97 3b3d
00000250: 8f12 81bd bbc5 ec3b c259 c4bd 362d 733d
00000260: b1ac 56bc ac2f fabd 0732 6ebd 6bfb 863d
00000270: c1c4 543d 27e2 2abc 7d39 783d 2a8a f539
00000280: 4e19 8c3d eb9b 97bd 3b32 49bd f2ed c93a
00000290: 5f2c 463d 76c2 59bc 82ab 133d 7564 243d
000002a0: a8f0 d9bc 55fc a7bd 59bd f4bd 4c97 ac3d
000002b0: bf86 d1bd 5552 6cbd a02b e6bc c629 08bd
000002c0: 63b8 093d 5e45 7bbc 34e9 343d 46cf 6cbd
000002d0: 34b8 113d 0c38 e83b da1f c63c 776e ba3d
000002e0: 304e afbd 19f3 893d b2e7 67bd 5a97 31ba
000002f0: ee30 cc3b 1726 10bd a221 e5bc bd1e 6abd
00000300: 8815 573d 75b9 bf3b f35f debd 6fac 2e3d
00000310: d3c8 c6bd 73b6 a0bd f351 97bd 8a45 8f3d
00000320: 8343 0d3d d86a 1cbc b846 bfbc 7a36 363d
00000330: 26de 83bd 817d 41bd bff7 323c ee64 9e3c
00000340: 2e04 663d ec08 bf3d 7ffd 8dbd 80d5 7cbd
00000350: 8e91 0a3a 04d6 c33d e5ff 393d 7655 d8bd
00000360: b957 e53c 67d3 a3bc 4bca 443d a4e3 9dbd
00000370: 9552 97bc bbb7 da3b f3d7 f9bb 3ffc dbba
00000380: 820b 83bd 232a c0bd 9590 373d c504 f23b
00000390: 328e 80bd 93cc 8c3d adb1 e33b a8f2 6d3d
000003a0: 53be 2c3d 9bc3 86bd f110 7abd ee31 6a3d
000003b0: 335b 3fbd 5942 3dbc 6494 083d 34e3 25bd
000003c0: d2fe 513a a607 2b3d b6c1 323d 317f 2bbd
000003d0: 74fd 86bc eef0 45bc 3701 733a b052 0bbe
000003e0: 4b14 92bd 3d16 43bd 10c9 53bd 46a0 3abd
000003f0: b79b 15bd ab73 883d cba4 9a3d 32b2 32bd
