model/trained_player_model.pth (torch, 84022 bytes, 31 tensors)

layers.0.weight f4 [64, 5]
000000 38 86 18 3e de b6 dc bc 02 4d 0c 3d ba 57 ef bc
       0.1489495 -0.026942667 0.034253128 -0.029216636
000010 17 fa ed 3d cf a9 d7 be dd 87 cc 3e 0d ce 54 bd
       0.116199665 -0.4212174 0.39947405 -0.051954318
000020 3a 4a 39 3e e1 bf 1c be 31 88 11 3e 33 b4 e5 bd
       0.18094721 -0.15307571 0.14212109 -0.11216011
000030 a3 f6 f4 bc 66 8b 69 be 5a 0d b2 3e 1e aa c3 be
       -0.029902762 -0.22807083 0.3477581 -0.38215727
000040 9d 1e 0b 3e 3b 2d da be 01 41 7e be d0 1e 85 3e
       0.13585897 -0.42612633 -0.24829485 0.2600007
000050 32 39 78 3e b3 a8 83 bc 90 42 7a be 16 52 5a be
       0.24240568 -0.016071653 -0.24439454 -0.21320376
000060 8c 40 d2 3e 47 84 94 be 29 26 95 be df 34 48 3e
       0.4106487 -0.2900717 -0.29130676 0.19551419
000070 71 5a d5 3e 54 cb e4 3e 81 ff 67 be ae 1d 7f 3e
       0.41670564 0.44686377 -0.22656061 0.24913666
000080 86 e5 0c 3e b2 3a a7 3e 84 16 d8 be 1a 10 b5 be
       0.13759431 0.32661968 -0.42204678 -0.35363847
000090 21 28 b1 3d 9d 64 33 be 75 5e 94 be a9 36 b0 3e
       0.08650232 -0.1751885 -0.28978315 0.34416702
0000a0 d6 f1 61 3e 55 8e 81 be c3 65 a7 3e 55 dc df be
       0.2206491 -0.25303903 0.32694826 -0.43722787
0000b0 8b 41 d1 3e 2f cd a7 bd 97 e6 c4 3e 57 d3 9f 3e
       0.40870318 -0.081934325 0.38457176 0.31215927
0000c0 ac 48 d4 be f7 0c 9d be 86 c8 9b bd 30 33 92 be
       -0.41461694 -0.30673954 -0.07606606 -0.28554678
0000d0 9b 5d 64 3e cb 58 c6 be 91 c4 a6 3e 46 c6 85 bc
       0.22301333 -0.3873962 0.32571843 -0.016329896
0000e0 3a bc b6 be 29 b3 63 bc 0b 60 b9 3d 53 01 d3 3e
       -0.3569048 -0.013897696 0.09051522 0.41211948
0000f0 31 9f cc 3e 1c c5 cb 3e 23 15 49 3e 09 4f 59 3e
       0.39965203 0.3979882 0.1963697 0.21221556
000100 e3 3d 19 be bf 2b 80 be 28 1e 4c be 2a 81 40 3e
       -0.14965014 -0.25033376 -0.19933379 0.18799272
000110 54 11 56 bd 89 d0 a4 be 37 38 af be 07 d7 57 bb
       -0.05226262 -0.3219035 -0.34222576 -0.0032934563
000120 01 ec c7 3e 13 c7 06 be 1f 2d 69 3e 09 0b d7 3e
       0.39047244 -0.13161878 0.22771119 0.42000607
000130 61 da c8 3e b9 7c 2c 3e 71 e3 db 3c 5e 3e 83 3e
       0.3922911 0.16844453 0.026841851 0.2563352
000140 18 cf 81 3e da 48 7a be 89 ee a5 be 02 01 9a 3e
       0.25353312 -0.24441853 -0.3240855 0.30078894
000150 6c 21 23 3e 8a 02 97 be 94 06 79 bd eb 2a af 3e
       0.15930718 -0.29494125 -0.06079729 0.3421243
000160 d0 f4 24 3d 53 30 aa be bf 68 03 bd 56 fe 8d 3e
       0.040272534 -0.33239993 -0.032082316 0.27733105
000170 04 aa 22 3d 09 17 c4 be d0 9e c5 be 33 22 7c 3e
       0.03971292 -0.38298824 -0.38597727 0.24622421
000180 99 08 4e 3e 6e e9 dd bd ba bd b0 be a3 db d5 bc
       0.20120467 -0.10835539 -0.3451975 -0.026105708
000190 4e 1d 11 3d d0 11 4a bd 74 c8 bd 3e 27 36 00 3e
       0.035428338 -0.049333394 0.37066996 0.12520657
0001a0 f4 22 fc 3d 95 09 3d be f8 6e af be 29 9a 9b 3e
       0.12311354 -0.18460687 -0.3426435 0.30391052
0001b0 b2 4d 51 be 36 5c 37 3e 4b e6 85 3e 5d a8 9b 3e
       -0.20439795 0.1790627 0.26152262 0.30401888
0001c0 c2 a5 53 3e f5 76 20 3e 7a 23 3e 3d 73 f6 25 3e
       0.206687 0.15670379 0.04642055 0.16207294
0001d0 10 55 68 3e 3b bb d4 3e f2 ba 96 3e 20 6f a8 3e
       0.22688699 0.41549096 0.29439503 0.32897282
0001e0 88 9b be bd e2 dd 8d 3e a7 08 03 bd 40 ce df 3d
       -0.09307009 0.27708346 -0.031990673 0.10928011
0001f0 a9 2a 69 3e b6 3c de be 27 f0 4b be c2 c1 b1 3e
       0.2277018 -0.43405694 -0.1991583 0.34718138
000200 b5 d0 98 3e 2c 4e 24 3d 9b b9 b6 be d2 45 c7 bd
       0.2984673 0.040113613 -0.3568848 -0.09730114
000210 d9 c2 a9 bd 2d 9f 9f 3e 9a 00 1a be 47 a4 ba 3e
       -0.08289117 0.3117613 -0.15039292 0.3645346
000220 92 01 e9 bd 88 57 23 bd 82 c3 ef bd 8e 16 6b 3e
       -0.11377253 -0.0398784 -0.11707212 0.22957823
000230 63 f1 9f be a9 10 d6 be b1 9e b8 be d7 ca 29 be
       -0.3123885 -0.41809586 -0.36058572 -0.16581284
000240 6a 31 87 bd 88 89 9f bd 9e d5 40 bd ea 58 9a 3e
       -0.06601222 -0.07789904 -0.04707872 0.3014596
000250 6b 60 fc bd af 2e 98 be 68 bf 88 3e 99 e5 41 3e
       -0.12323078 -0.29723117 0.2670853 0.18935241
000260 11 05 ad bd c7 9e ad 3e 2e c1 58 3e a5 b9 b9 3e
       -0.08448232 0.339102 0.21167442 0.36274448
000270 3d 6b a5 3e f3 93 9b 3b 05 7d 92 3c 09 52 35 3e
       0.3230838 0.0047478615 0.01788188 0.17707075
000280 e2 e3 d2 be a7 9c 5e 3d f9 8c c8 be 00 de 95 3e
       -0.41189486 0.054348614 -0.39170054 0.29270935
000290 28 63 98 be 44 17 55 be bb 90 b3 be 49 b2 b0 bd
       -0.2976315 -0.20809656 -0.35071358 -0.08627755
0002a0 17 ee 9b 3d 04 67 76 3e 54 fd 9f be 83 59 ce bd
       0.076137714 0.24062735 -0.31247962 -0.10075667
0002b0 53 74 91 3e 79 14 bf 3e 53 35 c7 3e 19 10 7a 3e
       0.2840906 0.37320307 0.3890787 0.24420203
0002c0 0f 88 e0 3e 3b 47 20 3e 18 11 be be ec 52 81 3e
       0.43853804 0.15652172 -0.37122416 0.25258577
0002d0 50 a0 d6 be 7e ea 35 3e 31 64 d0 bd 32 d1 d2 3e
       -0.41919184 0.17765233 -0.1017536 0.41175228
0002e0 bb 54 ad be 3f a3 ed bd 3c ce 5c be 7b 43 ab bc
       -0.33853707 -0.11603402 -0.21563047 -0.0209062
0002f0 2f 27 27 3e 3f b8 82 be 3c a0 95 be 8b d7 a9 be
       0.16323541 -0.25531194 -0.29223812 -0.3317226
000300 9e 93 07 3e 90 f2 dd 3e 7e 5e 88 3e 79 b5 8e be
       0.13239905 0.43349123 0.26634592 -0.27872828
000310 2c c9 c8 be cb e2 5d 3e 1b e4 10 3e d3 88 42 be
       -0.39215982 0.21668546 0.14149515 -0.18997507
000320 75 c2 aa bc a9 63 17 3e 68 36 a5 3e 8d a5 a5 be
       -0.020844677 0.14784111 0.3226807 -0.32352868
000330 5c c2 19 3e b7 7b aa 3d 46 6c 61 be 65 c0 e2 be
       0.15015548 0.08324378 -0.2201396 -0.4428741
000340 84 b0 a0 3e a8 4f 7b be da 00 28 3e 45 4b 84 be
       0.3138467 -0.24542105 0.16406575 -0.25838676
000350 d0 d3 d3 3e 1a 1d 8f 3e 6b 25 ef bd ab 50 29 bd
       0.41372538 0.2795189 -0.11677059 -0.041336697
000360 87 23 ad be 6e 21 b8 bc be 49 8d 3e 91 b5 f4 bc
       -0.33816168 -0.022476878 0.27595323 -0.029871734
000370 b9 ee 26 bd 34 8d 6b 3d 94 5d 74 bc 06 9b 2f 3e
       -0.040755007 0.05750771 -0.014914889 0.1714898
000380 74 69 de be 44 95 06 be 44 b9 42 be 0b ea 80 be
       -0.4343983 -0.13142878 -0.19015986 -0.2517856
000390 51 eb e4 be c7 db 19 3e d9 b4 23 be cf 20 56 3e
       -0.44710782 0.15025245 -0.15986957 0.20910953
0003a0 fc ca 9b 3e 73 eb 70 be de 4b 97 3e fb 7d d9 bd
       0.30428302 -0.23527317 0.2955007 -0.10619732
0003b0 cd 50 8e be 73 bf 30 3e bb 0f c4 bd 5c 2b 89 be
       -0.2779602 0.17260532 -0.09573313 -0.26790893
0003c0 c6 5c cd 3e dc 20 c8 be 81 ac 95 3e 85 43 c1 bd
       0.40109843 -0.3908757 0.29233173 -0.094367065
0003d0 47 65 3d be da ae a7 3e 5f c4 8e be 1a c9 b5 bd
       -0.18495665 0.3275059 -0.27884194 -0.08876248
0003e0 dc 1e 38 3e 46 6a e3 be d7 28 e8 3d 21 c4 a3 be
       0.17980522 -0.44417018 0.113359146 -0.31985572
0003f0 d1 4b a7 3e 38 53 2e bc 34 99 ab be 2c 58 11 b8
       0.3267503 -0.010639958 -0.33515322 -3.465281e-05

layers.0.bias f4 [64]
000000 45 4f e0 3e ba 54 59 be a2 bf bd be 7c 20 e8 3d
       0.43810478 -0.21223727 -0.37060267 0.11334321
000010 ca ad 12 3d 4f 58 da 3e 21 95 9d be 43 34 d2 3e
       0.03581027 0.426455 -0.3077784 0.41055498
000020 18 e2 b9 3e 63 90 5b be 0a 25 1b bd 2c e2 0a 3e
       0.36305308 -0.21441798 -0.03787712 0.1356284
000030 13 b8 c1 3d 01 f8 69 3e 55 87 a2 be 94 ca 96 bd
       0.094589375 0.22848512 -0.31743875 -0.073628575
000040 8f ab 17 be e6 48 e7 bd 9e bb 5c 3d 7d 5e 91 3e
       -0.14811538 -0.11293201 0.053889863 0.283924
000050 86 67 c3 be 98 bc aa be cc e3 d3 be dc 47 a2 3e
       -0.3816492 -0.3334701 -0.41384733 0.3169545
000060 8b df 9f 3e 8d 2d bb 3e 41 fa 8b be e5 01 92 3d
       0.31225237 0.3655819 -0.27339366 0.071292676
000070 26 26 7d 3e 52 45 9a bc cd 6b ad be 7d 75 cc be
       0.24721584 -0.018831883 -0.33871308 -0.39933386
000080 f1 59 cc 3e a1 00 85 be 52 0a bc 3e dc 14 8c bc
       0.3991237 -0.25977042 0.36726624 -0.01709979
000090 ae de 7a 3e ee a4 bb be 77 63 16 3d be 3d d1 be
       0.24499008 -0.3664927 0.03671595 -0.40867418
0000a0 bf 56 1c be f0 67 6d bd 9a 6e 6f 3e cf dd 58 be
       -0.15267466 -0.05796045 0.23382035 -0.21178363
0000b0 ef e9 bd be 25 e2 a9 be 1f 4d 80 be bd 28 7b bd
       -0.3709254 -0.33180347 -0.2505884 -0.061318148
0000c0 18 72 c6 bd 62 cc 4b be 59 69 02 be 70 63 cb 3e
       -0.096897304 -0.19902185 -0.127355 0.39724302
0000d0 06 9c 47 3d e7 1b 77 3e 6e 7c b8 3d f6 fe c0 3e
       0.04873278 0.24131738 0.09008108 0.3769452
0000e0 2f fe e2 3c 9e 4a 4e 3e 0d 39 22 be b5 28 d1 be
       0.027709095 0.20145652 -0.15842076 -0.4085137
0000f0 d7 f2 ba 3e 97 76 8b be ed 6f 64 be 46 40 dd 3e
       0.36513397 -0.27238914 -0.22308321 0.432131

layers.2.weight f4 [64]
000000 5b 50 7f 3f 99 e4 7f 3f 00 00 80 3f 9d 72 7e 3f
       0.9973199 0.9995819 1.0 0.99393636
000010 78 16 7f 3f fc af 7f 3f 31 08 80 3f 5a 28 80 3f
       0.9964366 0.99877906 1.00025 1.0012314
000020 ef 09 80 3f d7 fe 7f 3f 00 00 80 3f 0a a2 80 3f
       1.0003031 0.9999823 1.0 1.004945
000030 a8 b9 7e 3f 8a 0a 80 3f 00 00 80 3f 8f ab 7f 3f
       0.9950204 1.0003216 1.0 0.9987115
000040 00 00 80 3f 00 00 80 3f 5d c5 7f 3f 95 f9 7f 3f
       1.0 1.0 0.9991053 0.99990207
000050 00 00 80 3f 00 00 80 3f a7 95 7e 3f a0 ad 80 3f
       1.0 1.0 0.994471 1.0052986
000060 0c 60 7f 3f ed ce 7f 3f 00 00 80 3f c4 7f 7f 3f
       0.9975593 0.9992512 1.0 0.9980433
000070 1f 95 7f 3f 00 00 80 3f 61 3b 82 3f 32 9c 7f 3f
       0.99836916 1.0 1.0174371 0.9984771
000080 98 8a 80 3f 00 00 80 3f ef 06 7f 3f d4 8f 7f 3f
       1.0042295 1.0 0.99619955 0.9982884
000090 ae 5d 7d 3f 00 00 80 3f 77 07 80 3f 00 00 80 3f
       0.9897107 1.0 1.0002278 1.0
0000a0 86 cc 7f 3f 00 00 80 3f 60 d6 80 3f 00 00 80 3f
       0.99921453 1.0 1.0065422 1.0
0000b0 c1 29 80 3f 00 00 80 3f f5 cf 7e 3f 00 00 80 3f
       1.0012742 1.0 0.9953607 1.0
0000c0 00 00 80 3f 00 00 80 3f 00 00 80 3f 0a 48 80 3f
       1.0 1.0 1.0 1.0021985
0000d0 8f 8f 7f 3f be 04 81 3f b6 5b 80 3f 81 55 80 3f
       0.9982843 1.0079572 1.0027988 1.0026094
0000e0 d8 79 7f 3f 57 3e 7f 3f 6a c3 80 3f 00 00 80 3f
       0.99795294 0.997045 1.0059636 1.0
0000f0 56 75 7f 3f 37 4c 80 3f 00 00 80 3f 5b 28 80 3f
       0.99788415 1.0023259 1.0 1.0012316

layers.2.bias f4 [64]
000000 ca 2e ab 3b c1 3c 9a 3b 22 7b 06 3b 1c 90 7b 3b
       0.0052240836 0.0047069495 0.002052017 0.0038385456
000010 98 98 b0 ba 71 49 87 3b d7 b9 a6 3a 50 73 34 3b
       -0.0013473211 0.004128628 0.001272018 0.0027534552
000020 21 4c 6c 3b 98 36 9b 3a 79 9a 9e 3b 86 0a 20 39
       0.0036056119 0.0011841832 0.004840192 0.0001526271
000030 f6 4a 17 bb 07 06 cb 3b 18 d2 e7 3b a9 ba a1 3a
       -0.0023085452 0.006195787 0.0070746057 0.0012338954
000040 0e 9d 9c bb 07 30 be bb d9 a9 2e bb 6d 16 3c 3a
       -0.0047794646 -0.005804065 -0.002665153 0.00071749726
000050 7b 4f 91 3b 6a c2 98 bb 25 cc cf bb be ce 11 39
       0.0044345236 -0.004661848 -0.0063414746 0.00013905295
000060 cc ea c4 bb 0f 61 45 bb 8e 06 80 3a b3 24 c3 3a
       -0.0060094353 -0.0030117666 0.0009767578 0.0014888257
000070 14 41 53 ba f1 93 84 3b 79 bc 21 3c 39 06 9d 3a
       -0.00080587086 0.0040459563 0.009871596 0.0011980004
000080 f9 b7 31 3c 96 87 36 bb a8 53 fe 3a f7 8d 8f ba
       0.010847085 -0.0027851812 0.0019403594 -0.0010952343
000090 ae fe d3 ba cb 5c c9 ba a2 28 27 b9 4d d4 59 3b
       -0.0016173923 -0.0015362737 -0.00015941498 0.0033238113
0000a0 a1 ad 00 ba 2c 35 06 bc 69 b8 0b bb 20 47 09 bb
       -0.0004908685 -0.008191388 -0.0021319634 -0.0020946935
0000b0 7e 5a 72 3a 86 6e e6 ba 36 ef 9c 3a 52 b3 5e 3a
       0.0009245052 -0.0017580546 0.0011973146 0.0008495349
0000c0 a4 82 b2 3b b0 46 82 3b a2 3b bc ba 99 3d 96 bb
       0.0054477025 0.0039757118 -0.0014361034 -0.0045849797
0000d0 a9 d0 b4 ba 71 81 a9 bb bf d3 9a bb 47 af cc 3b
       -0.0013795096 -0.0051729013 -0.004724949 0.0062464806
0000e0 29 57 34 3b 1a 35 83 3b 5f 1f bb 3a 47 be ba ba
       0.0027517772 0.004004133 0.0014276317 -0.0014247381
0000f0 be b1 5a 3b c0 a0 02 3a f3 2e d6 bb 2f 71 7c 3b
       0.0033370103 0.000498306 -0.0065363585 0.003851961

layers.2.running_mean f4 [64]
000000 30 8d e7 3d cb 3f d6 41 00 00 00 00 66 d2 0a 41
       0.11306226 26.781149 0.0 8.676367
000010 4f 04 17 3c ee 64 e1 3d c7 f3 87 41 23 d3 ac 40
       0.009217336 0.11005579 16.994032 5.4007735
000020 68 e2 bf 3d 9f 3a c5 41 00 00 00 00 0c 5e 0f 3d
       0.093693554 24.653624 0.0 0.0350018
000030 60 f0 d7 41 b0 85 71 3d 00 00 00 00 43 fb d0 41
       26.99237 0.058965385 0.0 26.122686
000040 00 00 00 00 00 00 00 00 bf 34 8e 41 1c d5 4f 41
       0.0 0.0 17.775755 12.989529
000050 00 00 00 00 00 00 00 00 10 ef a1 41 ee d4 7f 41
       0.0 0.0 20.24173 15.989485
000060 d6 d5 97 41 91 38 c1 3d 00 00 00 00 86 ae 96 3c
       18.979412 0.09434617 0.0 0.018393766
000070 32 a9 82 3d 00 00 00 00 6e 5c 50 41 40 09 aa 41
       0.06379928 0.0 13.022566 21.254517
000080 82 67 88 40 00 00 00 00 78 1c c2 3d 34 e0 e3 41
       4.262635 0.0 0.09478086 28.484474
000090 5a 17 4d 41 00 00 00 00 de 3e 1b 3c 00 00 00 00
       12.818201 0.0 0.009475438 0.0
0000a0 7d 7b 13 41 00 00 00 00 82 29 77 3d 00 00 00 00
       9.2176485 0.0 0.06034232 0.0
0000b0 99 85 81 40 00 00 00 00 73 02 55 41 00 00 00 00
       4.0475583 0.0 13.313098 0.0
0000c0 00 00 00 00 00 00 00 00 00 00 00 00 4b 2e 15 41
       0.0 0.0 0.0 9.323802
0000d0 42 ff 34 41 35 16 7f 3d 90 73 be 3c 32 85 42 40
       11.312319 0.062277038 0.023248464 3.0393796
0000e0 55 f0 e6 3b 9f f3 54 3d c5 61 93 41 00 00 00 00
       0.007047693 0.051990148 18.422739 0.0
0000f0 fc fb c0 3d ea bc c5 40 00 00 00 00 ea 64 e4 3d
       0.09423062 6.179311 0.0 0.1115206

layers.2.running_var f4 [64]
000000 09 26 16 3d 89 40 7a 43 0c 93 de 11 95 7a cd 41
       0.036657367 250.25209 3.511605e-28 25.684855
000010 b5 76 7f 39 fb 44 0e 3d 1b c9 c9 42 e2 53 0d 41
       0.00024362917 0.034733754 100.892784 8.832979
000020 dd 38 ce 3c f9 58 54 43 0c 93 de 11 39 3e 66 3b
       0.025173599 212.34755 3.511605e-28 0.0035132302
000030 0c 70 7c 43 9f 5b 23 3c 0c 93 de 11 ae 12 6e 43
       252.43768 0.009970575 3.511605e-28 238.07297
000040 0c 93 de 11 0c 93 de 11 f2 a4 db 42 61 15 62 42
       3.511605e-28 3.511605e-28 109.82216 56.520878
000050 0c 93 de 11 0c 93 de 11 3e fc 0e 43 17 a7 ab 42
       3.511605e-28 3.511605e-28 142.98532 85.82635
000060 d8 2a f3 42 de 1a d1 3c 0c 93 de 11 b7 55 7e 3a
       121.58368 0.025525507 3.511605e-28 0.00097021036
000070 47 3d 3f 3c 0c 93 de 11 7d 66 6d 42 c6 9f 1d 43
       0.0116723245 3.511605e-28 59.350086 157.62411
000080 79 8f ab 40 0c 93 de 11 48 09 d3 3c 5f a6 8d 43
       5.3612638 3.511605e-28 0.025761262 283.29977
000090 b7 8a 5d 42 0c 93 de 11 9d fc 86 39 0c 93 de 11
       55.385464 3.511605e-28 0.00025746683 3.511605e-28
0000a0 8e 6a ee 41 0c 93 de 11 87 13 2b 3c 0c 93 de 11
       29.802029 3.511605e-28 0.010441667 3.511605e-28
0000b0 14 79 b8 40 0c 93 de 11 89 b8 77 42 0c 93 de 11
       5.76478 3.511605e-28 61.93021 3.511605e-28
0000c0 0c 93 de 11 0c 93 de 11 0c 93 de 11 31 eb de 41
       3.511605e-28 3.511605e-28 3.511605e-28 27.86484
0000d0 3d 9a 31 42 ea 38 36 3c 52 27 cb 3a 19 b9 1f 40
       44.400623 0.011121968 0.0015499389 2.4956725
0000e0 e0 54 15 39 a1 fd fd 3b 54 2e ed 42 0c 93 de 11
       0.00014241366 0.007751182 118.590485 3.511605e-28
0000f0 d7 97 d0 3c 5d 1f 58 41 0c 93 de 11 ee 14 12 3d
       0.025463028 13.507657 3.511605e-28 0.03566449

layers.3.weight f4 [64, 64]
000000 cb 90 98 3b 4a d8 e1 bd 89 ee 81 bd 47 c6 e0 bd
       0.0046559325 -0.11027582 -0.06344325 -0.109753184
000010 c5 df fe 3c b4 ae 60 bc d8 57 07 bd c5 11 4a 3d
       0.031112561 -0.0137135275 -0.03304276 0.049333353
000020 d4 30 b9 bc b6 cf 82 3d 9f 21 b8 3d 0f 40 8f bd
       -0.02260629 0.06387274 0.08990788 -0.0699464
000030 80 7c c5 3d 85 dc 39 bd 4b 5e a3 bd 87 bc 0c 3d
       0.09642887 -0.04537632 -0.07976969 0.03435948
000040 2b e0 af 3d e5 12 b1 bd 39 9c f6 3c 42 34 01 3b
       0.085876785 -0.08646182 0.03010379 0.0019714986
000050 d1 da ac bd 31 80 d7 3d b5 8b 83 bc 32 59 c4 bd
       -0.084401734 0.105224974 -0.016057828 -0.09587325
000060 92 b7 4c 3d 7d 97 47 bd 3b 68 a7 bd 2b 30 c7 bc
       0.049979754 -0.048728455 -0.08174177 -0.02431496
000070 92 c2 ac bd 20 ad f5 bd 03 51 4a 3c ad fe 5d bd
       -0.08435549 -0.119959116 0.012348416 -0.054197956
000080 81 f8 0d be b2 27 ed 3d d4 91 84 bc 18 01 39 3d
       -0.13864328 0.11579837 -0.016182818 0.04516706
000090 1d ae 58 bd 35 8e 75 3d 56 53 00 3d fc 56 fa bc
       -0.052900422 0.059950072 0.031329475 -0.030559056
0000a0 ac a3 61 bd 48 bb dd 3d 4a 67 cc 3d 93 c8 fa 3d
       -0.05508773 0.10826737 0.09980638 0.12245288
0000b0 0a d8 8f bc c8 71 c3 3d 52 ea 9e bd 1f 74 91 bc
       -0.01755907 0.095431864 -0.07759537 -0.017755566
0000c0 a9 64 4d bd 06 64 ac 3d 2b ca e4 3d 0e 7d 46 3d
       -0.050144825 0.084175155 0.11171373 0.048459105
0000d0 0d 2b b2 3c d1 06 67 3d 91 ee 07 3e fe 1e cc bd
       0.021749044 0.056402985 0.132746 -0.09966849
0000e0 c9 79 a0 bd 5f 29 02 bd 38 05 f5 bd 82 92 87 3d
       -0.07835729 -0.031777736 -0.11963886 0.06619741
0000f0 53 52 b1 bd 91 40 73 bd f4 6f 1f 3d fb 1f ce bc
       -0.0865828 -0.059387747 0.038925126 -0.025161734
000100 17 57 d3 3d 70 cb b5 bd 71 26 d3 bd e1 40 89 3c
       0.103193454 -0.08876693 -0.103100665 0.01675457
000110 e1 40 8c bd e3 69 c5 bd d4 78 07 be 75 25 86 bd
       -0.06848312 -0.09639337 -0.13229686 -0.06550113
000120 46 ae ac bd a4 3b bd 3d 2b ac 7a bc f2 aa b3 3d
       -0.084316775 0.09239891 -0.015299837 0.087728396
000130 5b e8 cc bd 1f 07 52 3d 69 bc f4 bd ba bf fa bd
       -0.10005256 0.051276322 -0.11949999 -0.122436
000140 fb a8 a4 bb 80 c1 e9 3d 8a 44 69 3d 86 2e b2 3d
       -0.005025027 0.1141386 0.05695013 0.0870028
000150 3c 19 c7 bd 8d 95 da 3c 51 8b 0e 3d 77 73 e9 bd
       -0.0972161 0.02668264 0.03480083 -0.11398976
000160 4c 90 b6 bc ca 83 a2 3d a7 18 1b 3d b9 8f 58 3c
       -0.022285603 0.07935293 0.037865307 0.01321786
000170 11 19 21 3d 1a 6b 8a 3d 66 2e 09 be a0 93 c8 3d
       0.039330546 0.06758709 -0.13396606 0.09793782
000180 f5 ff ae 3c 29 fc 9d 3d 75 41 b0 3d 0d e2 a8 3d
       0.021362284 0.07714111 0.08606235 0.08246241
000190 63 a6 ab 3d bc ba 98 39 15 81 8d bd 0e ec f8 bc
       0.08381345 0.00029130827 -0.06909386 -0.030385997
0001a0 0f de 8b 3d c5 51 2a bd 2f e9 0d 3e 62 2d a0 bc
       0.06829464 -0.041581888 0.13858484 -0.01955289
0001b0 37 de 04 be 1f b0 1e 3d 26 59 f5 bd 4e 6e 54 bd
       -0.12975393 0.03874218 -0.11979894 -0.051863007
0001c0 bc 07 bd bb 08 4a 53 3c 53 fd a5 bc 90 46 04 bc
       -0.0057687443 0.012896068 -0.020262396 -0.008073464
0001d0 5d cf a0 3d 60 3e 8d 3d d9 b6 4b bd 4f c1 a9 3d
       0.078520514 0.06896663 -0.049734924 0.08288824
0001e0 34 46 7b bb 2f 66 eb bc d1 5d d3 bd 2c 5b e1 3d
       -0.0038341405 -0.028735248 -0.103206284 0.11003718
0001f0 db c7 d1 bd 16 61 7e 3d 86 31 ff 3d 03 f0 a2 3d
       -0.102431975 0.062104307 0.12460618 0.07955935
000200 a7 72 5f bd be 84 9a 3c c5 e2 d8 3d f7 15 85 bc
       -0.0545527 0.018862125 0.10590128 -0.016245825
000210 4a f7 b3 bd 76 e6 9e 3b 94 42 8b bd 8b 63 82 3d
       -0.08787401 0.0048492504 -0.06799808 0.063666426
000220 15 8e f2 bd a2 f0 f7 bc 8b b4 0f 3d 95 92 9d 3d
       -0.11843506 -0.03026611 0.03508429 0.07693974
000230 c8 7d a3 3d a2 dc a3 3d cf ca d7 bd 60 d3 f3 bd
       0.07982975 0.08001067 -0.105367295 -0.11905551
000240 c2 bf e3 3d 2f ab fc bd ce 58 58 3d f5 e6 42 3d
       0.11120559 -0.12337338 0.052819066 0.04758354
000250 3f c5 5d bb 0d 74 ef bc 2d 91 b4 bd e2 25 1a bd
       -0.0033839492 -0.029230142 -0.088167526 -0.037633784
000260 0a bf 32 bc ff ef a2 3d 29 3f 44 3d 9e 9b 0b 3d
       -0.010909805 0.07955932 0.047911797 0.034083955
000270 a1 a1 6e 3d 72 af fa bd 24 12 cd bd 50 4f a2 3d
       0.05825961 -0.12240495 -0.10013226 0.07925284
000280 26 92 9f bc 88 8c 96 3d 2b 03 d9 3c d6 f1 be bc
       -0.019478869 0.07351023 0.026490768 -0.023308676
000290 64 6e c8 bc 96 d1 cc bc ac 77 38 bd 3b 06 67 bc
       -0.0244667 -0.025002282 -0.045036003 -0.014100607
0002a0 b2 2d 76 3d c5 15 c8 bd 03 3a fe ba 23 d7 0c bd
       0.060102172 -0.09769777 -0.0019395951 -0.034384858
0002b0 17 97 a5 3d c5 d9 be bd 44 7e b0 3d 71 25 bc 3d
       0.08085459 -0.0931888 0.08617833 0.09186829
0002c0 31 19 cc 3d aa 0b 12 3d 53 f5 56 3d 0c 8f 98 3d
       0.099657424 0.035655655 0.052480053 0.07449159
0002d0 c8 c6 d1 3d 53 d3 e2 3c 52 36 d8 3d 79 9e 7d 3d
       0.10242993 0.027688658 0.10557236 0.06191871
0002e0 8e a0 b9 3d ed b2 f7 bd a6 ab a2 bc f1 7a ef 3d
       0.090638265 -0.12094674 -0.019857239 0.11693371
0002f0 54 90 35 bd 64 dd ad bd 94 ed 2f bc 8d 63 bc bd
       -0.044327095 -0.084894925 -0.010737795 -0.09198675
000300 87 6d b2 bd a7 50 2a bb 43 65 9e 3d 75 e1 eb 3d
       -0.08712297 -0.0025988014 0.07734158 0.11517612
000310 12 0b c7 bd 8e 1a 31 3d fa 21 9e bd ca 18 be 3d
       -0.09718908 0.043238215 -0.07721324 0.09282072
000320 2e cb d2 bd 08 3f a6 3d 0c be ca 3d 5c 02 e3 3c
       -0.1029266 0.08117491 0.0989953 0.027711086
000330 84 c9 8f bd a0 b0 54 bd 3e f7 7b 3d 53 3c 85 3d
       -0.07020858 -0.051926255 0.061515085 0.065056466
000340 6e 36 47 bd e5 4d 33 bd 71 b4 d1 bd be eb 5e 3d
       -0.048635893 -0.043775458 -0.102394946 0.05442404
000350 1b aa a1 3c a6 70 4c bd 31 84 01 bd f3 ec a6 bb
       0.019734433 -0.049912117 -0.03162021 -0.0050941645
000360 50 cf 89 bd 27 49 35 bc fa 79 ee 3d 75 8a 9f 3c
       -0.06728995 -0.011064804 0.11644359 0.019475201
000370 69 7d 56 bd 4a 5c b9 3c 46 00 88 3d 80 a4 ac bc
       -0.052365694 0.022627015 0.06640677 -0.021074533
000380 68 c7 cd bd 97 90 ea bd fa 8e 51 bc d3 30 17 bc
       -0.10047799 -0.114533596 -0.012790436 -0.009227949
000390 5f 29 7a bd 16 7f d9 3d c1 67 cf bb 73 1b 84 3c
       -0.06107461 0.10619943 -0.006329507 0.01612637
0003a0 40 d9 40 3d e8 0c 8c 3d fa 99 f3 3d 16 0f c2 3d
       0.047082186 0.06838399 0.11894603 0.09475534
0003b0 ef e0 28 bd 54 83 74 bd ee 6c e7 3d c6 43 86 3d
       -0.04123014 -0.059695557 0.113000736 0.065558955
0003c0 fd 75 9d bd 3a 46 8d bb 0a b9 74 3d 84 15 8d 3d
       -0.0768852 -0.00431135 0.05974678 0.068888694
0003d0 79 90 bd 3d 80 78 8f bd 4b 91 49 3b 89 0d c3 3d
       0.092560716 -0.070054054 0.0030756767 0.09524066
0003e0 e9 69 9c 3d 29 b4 37 3d a4 46 74 bd c6 51 fa bd
       0.07637388 0.04484955 -0.05963768 -0.12222628
0003f0 39 9a af bd 76 ce ea 3d 9f 2f 76 3d 14 e0 5b bb
       -0.085743375 0.114651605 0.06010401 -0.003355031

layers.3.bias f4 [64]
000000 4d 0a 95 bd f9 40 1f 3d 5c 90 fa 3d 2e 74 df 3d
       -0.07277355 0.038880322 0.122345656 0.109108314
000010 02 54 92 3d 9d 2b e9 3c e5 d2 a3 3d 01 88 c9 3d
       0.071449295 0.02846318 0.07999209 0.09840394
000020 03 65 48 3d b5 9b ba 3c 35 d7 af bd c5 1d 78 3d
       0.048924457 0.022779325 -0.08585969 0.060575265
000030 c9 26 2d 3d 57 58 d5 bd e4 93 fb 3d a6 77 83 bc
       0.042273317 -0.1041724 0.12284067 -0.016048264
000040 0d e0 dc 3d 85 32 85 3d a8 bd 1f 3c 8f 72 e2 bd
       0.10784922 0.065037765 0.009749807 -0.110570066
000050 3a 52 b0 3c ce 44 ab 3d 75 8a b1 bd f7 70 fd 3d
       0.021523584 0.08362733 -0.08668987 0.12375062
000060 d9 21 bb 3d 88 44 e7 bc 3f 7a fb bc c7 17 80 3d
       0.09137315 -0.02823092 -0.03069794 0.06254535
000070 e6 83 38 3d 03 1d 46 3d 58 19 a7 3d 38 b9 ba bd
       0.045047663 0.04836751 0.08159131 -0.09117359
000080 fd b7 61 3d 51 70 90 3d 86 36 f4 bd c4 71 55 3d
       0.055107106 0.07052673 -0.11924462 0.05211045
000090 85 3e ef bd 3b fe 2d 3c 53 5c f4 3c 23 f8 96 3d
       -0.116818465 0.010619695 0.02982918 0.07371547
0000a0 c4 a3 e0 3d ba a9 a4 bd a9 06 02 3d 12 bb 9b 3d
       0.10968736 -0.08040185 0.031744633 0.0760404
0000b0 17 af fd bc 5f 20 88 bd 94 f6 3c bd a6 9b 7d bd
       -0.030967278 -0.06646799 -0.046133593 -0.061916016
0000c0 aa 21 7b bd 19 af bd 3d 87 3f af bd 91 ed d6 3d
       -0.0613114 0.09261913 -0.08557039 0.10494531
0000d0 d4 86 5f 3d 7a 38 7d bd b4 6b bc 3c e0 35 a9 bc
       0.05457194 -0.06182144 0.023000576 -0.020655572
0000e0 ad 67 9c 3d 81 cf e6 3d c2 be 0f bd 77 06 b5 bd
       0.07636962 0.11270047 -0.03509403 -0.08839124
0000f0 bc 28 c8 bc 95 2a 8e 3c bc 89 4c bd 69 bb 73 bd
       -0.024433486 0.01735429 -0.04993604 -0.0595049

layers.5.weight f4 [64]
000000 8e 89 80 3f 7b ae 7f 3f 2b 50 7f 3f 36 64 80 3f
       1.0041978 0.9987561 0.997317 1.0030582
000010 8a 31 80 3f 1e a7 7f 3f 18 63 80 3f 4a fc 7e 3f
       1.0015118 0.99864376 1.0030241 0.9960371
000020 5c ff 7e 3f c8 3b 80 3f d0 e9 7f 3f 0f d3 7f 3f
       0.996084 1.0018244 0.99966145 0.99931425
000030 04 30 80 3f 23 5e 80 3f 3e cc 7f 3f 8d 3e 7f 3f
       1.0014653 1.0028728 0.99921024 0.9970482
000040 bf 0d 80 3f 5d 46 80 3f 85 ba 7e 3f ca ed 7f 3f
       1.0004195 1.0021473 0.99503356 0.9997221
000050 50 9d 80 3f ed c0 7f 3f 63 7e 80 3f 3c 46 80 3f
       1.0048008 0.99903756 1.003857 1.0021434
000060 55 07 80 3f ab fe 7f 3f 23 c5 7f 3f 57 b1 7f 3f
       1.0002238 0.9999797 0.9991018 0.99879974
000070 19 e0 7f 3f 6b 52 80 3f 8b f7 7f 3f 0a 21 80 3f
       0.9995132 1.0025152 0.99987096 1.0010083
000080 af 25 7f 3f 71 84 7e 3f 79 1c 7f 3f 52 6d 80 3f
       0.99666876 0.9942084 0.9965282 1.0033362
000090 68 77 80 3f f8 32 7f 3f 37 4c 7e 3f 02 d2 7f 3f
       1.003644 0.9968715 0.99335045 0.9992982
0000a0 80 57 80 3f 00 00 80 3f 96 54 7f 3f 8b 7a 7f 3f
       1.0026703 1.0 0.9973844 0.9979636
0000b0 7b 1f 80 3f 80 8e 7e 3f 87 31 80 3f ac 86 7f 3f
       1.0009607 0.9943619 1.0015115 0.9981487
0000c0 5b 89 7f 3f de 95 80 3f 14 09 80 3f e2 c3 7f 3f
       0.9981896 1.0045736 1.000277 0.9990827
0000d0 03 ed 7f 3f 05 81 80 3f e1 db 80 3f 79 c6 80 3f
       0.99971026 1.0039374 1.0067102 1.0060569
0000e0 40 42 80 3f f9 cb 7f 3f 02 32 80 3f c3 27 7f 3f
       1.0020218 0.9992061 1.0015261 0.99670047
0000f0 7f d7 7f 3f a4 09 80 3f f3 07 80 3f dc 96 7f 3f
       0.99938196 1.0002942 1.0002426 0.9983957

layers.5.bias f4 [64]
000000 92 76 b3 3a 55 26 59 bb 81 e8 16 3b cb 31 d2 ba
       0.0013691953 -0.003313442 0.0023026767 -0.0016036568
000010 99 54 21 bc 3e 11 3f 3b 1f f5 ba 3b e1 fd 59 3a
       -0.00984683 0.0029154564 0.0057054902 0.0008315724
000020 0d aa 69 3a f2 75 86 bb a4 28 a8 3b ca f2 d8 3b
       0.0008913584 -0.0041034156 0.005131798 0.0066207396
000030 6e bb 54 3b 45 31 65 3b 1c c5 fc bb 90 92 3f bc
       0.003246035 0.0034971994 -0.007713927 -0.011692658
000040 4d 48 01 bb 24 6b f7 3a 48 e6 ec bb e7 06 82 bb
       -0.0019726933 0.0018876535 -0.0072296 -0.003968108
000050 8b 5e be 3a d5 b1 36 bb 73 52 92 39 c5 7e e3 3b
       0.0014524026 -0.0027876992 0.0002790872 0.0069426023
000060 b4 05 1d bb e9 f8 a8 bb 6c 8d 1c bb 1c 45 de bb
       -0.0023959698 -0.0051566255 -0.0023888005 -0.006783141
000070 66 c4 e3 bb 9f bb e8 bb af a3 26 bb 5a 03 8f ba
       -0.0069509028 -0.0071024443 -0.0025427153 -0.0010911033
000080 cd 4d 3c bb 55 4f 2c bb cc 19 c8 3b 60 2d ba b8
       -0.0028732896 -0.0026292403 0.006106591 -8.877623e-05
000090 e4 85 ba bb d7 ec 8d bb 8f b2 8d bb 1d d7 a3 3b
       -0.0056922305 -0.004331212 -0.0043242644 0.0050000087
0000a0 68 0a e2 38 a1 e1 2b ba db 32 a8 b9 f9 38 f5 39
       0.00010778458 -0.00065567537 -0.00032081347 0.0004677249
0000b0 86 11 c4 b9 4c ba 31 3b b8 93 23 bc 3b 00 72 3b
       -0.0003739709 0.0027119098 -0.009983949 0.0036926407
0000c0 2c 40 53 bb 9c 82 0c 3b 2f 48 0a 3c a9 ab f0 bb
       -0.0032234294 0.0021440154 0.0084400615 -0.0073446822
0000d0 dd b4 d7 3b 92 ed 4b bb 13 70 0c bc c8 c0 85 bb
       0.00658284 -0.0031116945 -0.008571642 -0.004081819
0000e0 4f 06 b9 bb a6 74 47 3a 2d 2f 02 3c 95 ab 01 3b
       -0.005646504 0.00076086295 0.007945818 0.0019786109
0000f0 05 c0 1c bb 0d ce 80 3a 63 69 ad bb 17 61 c7 38
       -0.0023918163 0.0009827033 -0.005292104 9.507144e-05

layers.5.running_mean f4 [64]
000000 ff 57 1a 3e 64 46 72 3e 2a 40 1b 3e f2 1f b1 3e
       0.1507263 0.23659664 0.15161195 0.34594685
000010 aa d1 d3 3e 18 54 16 3e 40 85 e9 3d 7f 23 35 3e
       0.41370898 0.14680517 0.114023685 0.17689322
000020 1f 2b 01 3f da 31 92 3e cc 15 e5 39 27 9e 12 3e
       0.5045642 0.2855366 0.00043694524 0.14318143
000030 b6 26 b1 3e cc be 4b 0f a3 7d 08 3f e6 bd 95 3e
       0.34599847 1.0045419e-29 0.53316706 0.29246444
000040 65 ed 48 3e 48 c7 35 3e 40 8c 39 3e f8 69 4d 3e
       0.19621809 0.17751801 0.18119907 0.20059955
000050 de 02 5c 3e c5 5f 90 3e 59 da 8a 3d c0 32 a8 3e
       0.21485469 0.28198066 0.06779928 0.3285122
000060 b0 c6 25 3e a6 cf 6f 3e 96 d7 fa 3e 42 8e 16 3f
       0.16189075 0.23419055 0.48992604 0.5881082
000070 a7 b2 e9 3e 84 d1 de 3d 26 ee a0 3e 0b fb d1 3c
       0.45644113 0.10879806 0.31431693 0.025632402
000080 50 bc 68 3e 00 57 79 3e 53 22 77 3e 55 42 51 3e
       0.22728086 0.24349594 0.24134187 0.2043546
000090 96 6d 47 3e 38 a7 63 3e d9 08 a3 3e 11 58 51 3e
       0.19475397 0.22231758 0.31842688 0.20443751
0000a0 99 2f 60 3e 00 00 00 00 d4 78 c4 3e 53 be ba 3e
       0.21893157 0.0 0.38373435 0.3647333
0000b0 33 29 0b 3e 6f fc 9e 3a de dc 9d 3e 19 32 9a 3d
       0.13589935 0.0012129674 0.3083257 0.075290866
0000c0 cf 19 07 3e b9 72 cc 3e e2 95 47 3e e7 21 a2 3e
       0.13193439 0.39931276 0.1949077 0.3166649
0000d0 d7 3c 9e 3e 8d 11 29 3e 81 ca b9 3d db 2f 36 3e
       0.30905792 0.16510601 0.09071828 0.17791693
0000e0 3e 92 68 3e b8 35 a8 3e 7d 6f 7b 3e 9b 3e 37 3e
       0.22712037 0.32853484 0.24554248 0.17894976
0000f0 81 a0 a7 3e c1 78 e3 3d 37 93 22 3e f8 60 c3 3d
       0.32739642 0.11107016 0.1587647 0.0953998

layers.5.running_var f4 [64]
000000 19 92 8a 3d 96 bd 2b 3e 3e 38 12 3c ac 0b 4e 3d
       0.06766147 0.1677154 0.008924542 0.0503041
000010 1c 7b 03 3f f6 3a 82 3d 97 a8 cf 3b d9 f7 be 3d
       0.51359725 0.06358902 0.006337236 0.09324617
000020 c3 83 42 3f 5e 82 77 3e 4f 5b 1f 38 52 0c 79 3d
       0.759823 0.24170825 3.7993592e-05 0.060802765
000030 2b 1e b8 3e 96 d4 de 11 ec 29 5a 3f e7 71 09 3d
       0.35960516 3.515644e-28 0.8522022 0.03355589
000040 8d 43 7c 3c ef af 43 3c 14 93 4f 3c 0a 34 88 3c
       0.015396965 0.011943801 0.0126693435 0.016626377
000050 bb b1 92 3c 20 d5 70 3e eb 26 66 3c 5d af 26 3d
       0.017907014 0.235188 0.014047365 0.040694583
000060 89 9c 9c 3d 53 8c 29 3e 08 d6 37 3f 81 af 08 3e
       0.07647044 0.16557436 0.7181096 0.133482
000070 e5 c0 a2 3d 23 17 11 3d 5d c1 18 3d 1c 0e 0c 3b
       0.07946948 0.035422456 0.03729378 0.0021370715
000080 e4 7d a0 3c 19 1e b9 3c 1e e1 34 3e 00 be 8d 3c
       0.01959128 0.02259736 0.17664 0.017302513
000090 c0 ff e9 3d 3a df 9c 3c d7 78 36 3d ba c3 84 3c
       0.114257336 0.019149411 0.044548836 0.016206611
0000a0 54 52 97 3c 0c 93 de 11 bb 5b e0 3e 13 d2 ca 3e
       0.018471874 3.511605e-28 0.43819985 0.396134
0000b0 68 24 62 3d 93 87 95 39 62 16 93 3e 03 72 8e 3c
       0.0552105 0.00028520505 0.28728014 0.01738835
0000c0 27 54 0c 3c 91 2f f1 3e 03 13 82 3c 90 13 99 3e
       0.008564985 0.47106603 0.015878206 0.29897738
0000d0 bd 25 91 3e 17 ed 30 3c 1d 9a ca 3c 4a 0e 4e 3c
       0.28349105 0.010798714 0.02473169 0.012576649
0000e0 03 e2 1d 3e 24 ae 30 3d 7e 6d 3a 3e 5a 41 55 3c
       0.15418248 0.043134823 0.1820583 0.013016069
0000f0 ea ff a3 3e d9 6f 17 3d d2 80 9c 3d 99 0a e2 3c
       0.32031184 0.0369719 0.07641758 0.027592944

layers.6.weight f4 [64, 64]
000000 2d 42 0d 3c 6e 0c 2e bd 3f b0 35 bd cd 61 b1 3d
       0.008621735 -0.042492323 -0.044357534 0.08661232
000010 ea c8 87 3d 91 c6 ca bd 3d 79 ea bd f5 b4 cb bc
       0.06630118 -0.09901155 -0.114489056 -0.02486656
000020 58 e0 e6 bd 1e 8e af bd 79 66 d8 ba 1f 1b cc 3d
       -0.11273259 -0.085720286 -0.0016510031 0.099661104
000030 04 81 ea 3d 1b 81 4c 3d 30 6d c1 bd e5 7c 05 3d
       0.11450389 0.049927812 -0.09444654 0.03258981
000040 11 22 c0 bc 5b 3c a4 3d 49 18 e4 bb 8d 01 98 3d
       -0.023453744 0.080193244 -0.006960903 0.07422171
000050 8b f7 9c 3d f7 a9 a0 bc c8 ba c9 3a 6d f2 b4 3d
       0.076644026 -0.019612296 0.0015390748 0.088353015
000060 06 0a b0 3c 31 e1 af 3d 76 b6 f7 bc 12 61 fd ba
       0.021489155 0.08587874 -0.030238371 -0.0019331297
000070 3e 2f cb 3d ce 7f 2a 3c dd ff 3b 3d 02 9a c6 3c
       0.0992112 0.010406448 0.045898307 0.024243359
000080 19 11 ce 3b d0 75 c7 3d 69 99 dd 3d da d1 b4 bd
       0.0062886593 0.09739268 0.10820276 -0.088290885
000090 12 f1 83 3d 35 98 e0 3c 49 17 16 3d 9f 18 20 bd
       0.06442465 0.027416328 0.0366433 -0.03908598
0000a0 50 b4 d8 bb b3 0f da bd b6 4b 51 bd 15 3c 54 3d
       -0.006613292 -0.10647526 -0.051097594 0.05181511
0000b0 38 d4 8f 3c df ba d2 3d fd 07 42 3d 88 44 39 3b
       0.017557248 0.10289549 0.0473709 0.0028269608
0000c0 52 80 f8 bd a7 eb c1 3d 2f b0 6b bd 4c 42 9c 3d
       -0.1213385 0.09468775 -0.05754107 0.076298326
0000d0 2b c6 95 3d 25 96 7d bd d3 53 8d bd 3f 65 3a bd
       0.07313188 -0.061910767 -0.06900754 -0.045506712
0000e0 19 da 5b bc cc 5e 03 be 84 44 d2 bd ea c7 f3 bd
       -0.013418698 -0.12829131 -0.102669746 -0.11903365
0000f0 b8 83 a7 bc d0 2a 5d 3d f9 a7 83 bd 2f 14 9a 3d
       -0.02044855 0.053995907 -0.064285226 0.07523381
000100 25 f9 55 3d 8f aa 88 3d 35 56 d5 bd 27 88 ef bd
       0.052239556 0.066731565 -0.10416833 -0.11695891
000110 04 e2 ac 3b bc da 7a bd 89 fe 03 3b 7a 7a ae bd
       0.0052759666 -0.061243758 0.0020140728 -0.08519454
000120 0d b2 a5 bd 44 69 a4 3d 9c c8 68 3d b5 87 ed 3d
       -0.08090601 0.0802789 0.05683194 0.1159815
000130 9a 4b d3 3d 30 1a e5 3d 62 52 0a bb f6 c9 f5 3d
       0.10317154 0.111866355 -0.0021106233 0.120014116
000140 82 cd 45 3d 60 c7 40 3d eb 1b 84 bc e9 8c 11 bd
       0.04829169 0.04706514 -0.016126594 -0.035534773
000150 e2 5f 83 bd 59 ae 96 3b a4 ba 64 bd 4d c9 68 bd
       -0.064147726 0.0045984206 -0.055842057 -0.0568326
000160 e3 f3 df bb c4 63 e8 bd 25 f8 d5 3d 51 af da 3c
       -0.0068344935 -0.11347154 0.104477204 0.026694926
000170 41 28 fd bc 78 2f 05 bd c8 1e 69 3d e2 fd 3e bc
       -0.030902984 -0.032515973 0.05691412 -0.01165721
000180 2a 30 89 3c 7a d4 23 bc 53 80 e8 3d 9a 53 17 bc
       0.0167466 -0.009999389 0.11352601 -0.009236241
000190 fb 4f da 3d ed 93 a3 3d a6 f6 89 bc d3 6b df 3b
       0.10659786 0.07987199 -0.016841244 0.0068182736
0001a0 5c 2c c2 3c 0f aa 4f bd 1e aa 85 bc eb 55 43 bc
       0.023702793 -0.05069929 -0.01631647 -0.01192234
0001b0 ac 13 d2 bd dd 59 d6 3c d7 aa d5 3d 0f e9 97 bc
       -0.10257658 0.026165897 0.10432976 -0.018543748
0001c0 a1 3c 93 bd e0 f5 b9 3d 74 c5 aa bc e9 59 27 3c
       -0.071892984 0.090801 -0.020846106 0.010214307
0001d0 61 0c c0 bd 15 7a 71 bd ac 9e 8f 3c 62 f5 8a 3d
       -0.09377361 -0.058954317 0.017531715 0.06785084
0001e0 a7 f0 d7 3d 9f ec 2a bd 2c 7e cb 3d 4a 22 ef bd
       0.10543948 -0.041729566 0.09936175 -0.11676462
0001f0 dd c9 d9 3d 91 49 68 3d f1 fe ea 3d 99 8a 01 3d
       0.106342055 0.056710783 0.114744075 0.031626318
000200 5b b6 e1 bc d9 95 00 3d ba 98 07 3b f6 8c ea bd
       -0.027552774 0.031392906 0.0020690397 -0.114526674
000210 b7 c7 a6 3d 95 d5 c1 bd 5c b7 93 3d ab a5 f4 3d
       0.08143561 -0.09464566 0.072127074 0.11945661
000220 00 84 1d 3d d8 64 b4 3d 9e 47 8d 3c fb 25 e0 bd
       0.038455963 0.08808297 0.017246064 -0.10944744
000230 31 1f ec 3d 82 b9 e8 3c 87 ec f8 bc a4 f9 3a 3c
       0.11529387 0.02840877 -0.030386223 0.011412058
000240 f0 04 6b bd 0c f1 da 3d cf 3f a8 3c 94 6c 80 3d
       -0.057377756 0.10690507 0.020538239 0.0627071
000250 cc be db bd bb 17 a5 3d 4e 9d b5 bb ab 33 f8 bd
       -0.10729751 0.08061167 -0.005542434 -0.1211923
000260 00 d1 81 3d a8 01 ae bd 2a f9 36 bc 6c 68 f3 bb
       0.06338692 -0.0849641 -0.011167804 -0.0074282195
000270 90 6f 7c bd d1 7e 1d bd 50 66 92 3c 91 8b 60 3d
       -0.06162983 -0.03845102 0.017871052 0.0548206
000280 66 9d 8a bd c9 44 be bd 78 fa 09 3d f8 a5 ed 3c
       -0.067683026 -0.092904635 0.03368613 0.029009804
000290 a6 d4 89 3c 2e e4 f2 3c b9 36 31 bd 3d e8 e5 bc
       0.016825031 0.02964982 -0.04326508 -0.028064841
0002a0 36 da f6 3d 39 db 50 3d 14 13 f2 bd 1b 8f f1 3d
       0.12053339 0.050990317 -0.11820045 0.11794873
0002b0 67 7a 93 3d 99 e7 ba 3d 38 b9 f6 3d 23 14 75 3d
       0.07201081 0.09126205 0.120470464 0.059833657
0002c0 f3 fd 9e 3d 7a 27 d9 3d 14 f5 40 bd c1 ce a0 bd
       0.07763281 0.10603233 -0.047108725 -0.07851935
0002d0 13 ef de bd 51 2d ed bd 66 0f aa bd 40 87 8a bd
       -0.108854435 -0.11580909 -0.08303718 -0.06764078
0002e0 27 de 16 3d c9 81 f9 bd 7d 3a 32 3c b1 c5 03 3d
       0.036832955 -0.12182958 0.0108782025 0.032170955
0002f0 42 84 6d 3d 96 f9 16 bd 79 d6 6e bc 71 69 4a bd
       0.05798746 -0.036859117 -0.014577501 -0.049416963
000300 d8 e8 e8 3d e7 15 af 3d 64 ab 8b 3d cf 9b c4 bd
       0.113725364 0.085490994 0.068197995 -0.09600031
000310 2d ad c9 bd 33 d7 74 3d c1 1d 7a 3a 4f 43 64 b9
       -0.09847484 0.059775542 0.0009541177 -0.00021768849
000320 b3 30 b3 bb 38 c9 22 bd 87 f8 fb 3d 09 85 26 3c
       -0.005468452 -0.03974268 0.12303262 0.010163554
000330 92 eb 43 3d 20 94 ff 3d a1 96 ac bd b6 47 57 bd
       0.04783208 0.124794245 -0.08427168 -0.052558623
000340 f3 3c ef bc e1 02 b7 3d cd 48 e2 bd 00 eb 54 3b
       -0.029203868 0.08936096 -0.11049042 0.0032488704
000350 ab bb c6 bd f9 c0 5a bd 51 d6 68 3d c5 93 80 bd
       -0.097037636 -0.05340669 0.056845013 -0.06278185
000360 02 f1 59 3d 57 90 69 3c 77 ed a3 3d 57 22 a9 bd
       0.05320836 0.014255605 0.08004277 -0.08258503
000370 c2 79 0b bd fe 19 a0 3d 97 f6 84 ba 3f f9 39 3c
       -0.034051664 0.078174576 -0.001014429 0.011350929
000380 24 fa e8 3d e6 26 f1 bd a0 96 ce 3d 52 47 97 bd
       0.113758355 -0.117749974 0.10087323 -0.0738665
000390 fb c1 47 bd 8b b7 d5 bd f1 4a 3a bd 57 4c 28 3d
       -0.04876898 -0.10435399 -0.045481626 0.04108843
0003a0 92 a9 77 bd d2 d9 91 3b d9 ca 34 bd 9d 1f c2 bd
       -0.06046445 0.004451015 -0.044138763 -0.09478686
0003b0 33 72 98 3d 62 c5 e0 bd 3b a0 a6 3d 47 75 a5 3d
       0.07443657 -0.10975148 0.0813603 0.080790095
0003c0 84 a6 d7 3d 4a 71 41 3d be 3e 12 3d 7b e1 8b bc
       0.10529807 0.04722718 0.035704367 -0.01707529
0003d0 eb 14 c7 bd cd f8 ed bb 20 62 de bc 38 9c e2 3d
       -0.09720787 -0.0072623254 -0.027146399 0.110649526
0003e0 49 98 d8 bd 61 cb bf bd 0a 05 db bd d9 a4 50 bd
       -0.10575921 -0.09364963 -0.106943205 -0.05093846
0003f0 e4 39 8c 3d 26 95 be bd 91 f0 88 bd b7 ac 98 3d
       0.06846979 -0.093057916 -0.066865094 0.07454818

layers.6.bias f4 [64]
000000 b0 48 89 bd 31 8f 73 3b da aa b3 3d 7c 9d af 3c
       -0.06703317 0.0037164206 0.08772822 0.0214374
000010 03 82 03 bd dc 56 73 3d 92 5b ba 3b 4e 6f b7 bd
       -0.03210641 0.059409007 0.0056871856 -0.089567766
000020 47 b6 34 bd a8 23 03 3e f8 8c 0e 3d b7 5e f1 3d
       -0.044119146 0.1280657 0.034802407 0.117856435
000030 52 d0 43 3d 7e ec 5b 3d 79 98 b5 bd 50 b4 de bd
       0.04780609 0.053692333 -0.088669725 -0.10874236
000040 ce 40 fe 3d 16 1a 0d bd 97 7a 40 bd 5b d0 10 3d
       0.12414704 -0.034448706 -0.04699191 0.035354953
000050 18 1a 3c bd 21 9c a0 3d 89 71 55 bd d6 6d e6 3d
       -0.045923322 0.07842279 -0.05211023 0.11251418
000060 21 09 a4 bc ea 66 7f bc fd 19 ee 3d 8e 58 d8 bc
       -0.020023884 -0.0155885015 0.116260506 -0.026409414
000070 63 e0 b8 bd b4 a8 12 bd 14 1f 8d bd f3 ed 32 bd
       -0.09027173 -0.03580542 -0.06890693 -0.043683957
000080 5f 0f 81 3d 44 66 e9 bd 8b 3a 4f bd 52 c6 e3 3d
       0.0630176 -0.11396459 -0.05059294 0.11121811
000090 de 79 d9 bc 6e ba 74 3d d9 4f da 3d b3 37 c5 3d
       -0.026547369 0.059748106 0.10659761 0.096297644
0000a0 14 0e 97 bd 33 c5 7d 3d 68 21 f9 3d 6a c2 51 bc
       -0.07375732 0.061955642 0.12164575 -0.0128027
0000b0 78 c7 93 bd 7c c2 d3 3d 39 50 c5 3d 4a 95 2c 3c
       -0.0721578 0.10339829 0.09634442 0.01053364
0000c0 21 ae d2 bc 42 73 68 3d a7 b4 c4 bd 85 71 78 bd
       -0.025717797 0.056750543 -0.09604769 -0.060655136
0000d0 bc 47 2f 3d ba d4 0c be fe 9c 65 3d c3 59 28 3d
       0.04279302 -0.13753024 0.056057923 0.04110123
0000e0 da 97 50 3d 02 ec 19 bd fb 44 af bd 50 18 39 3d
       0.050926067 -0.03757859 -0.08558079 0.0451892
0000f0 4c 40 cc 3c 82 f7 c5 3d 2a 9b a5 3d c3 cb c2 bb
       0.024933003 0.09666349 0.08086236 -0.0059447004

layers.8.weight f4 [64]
000000 90 91 80 3f a2 bf 7f 3f 48 04 80 3f bf 6b 7f 3f
       1.0044422 0.99901783 1.0001307 0.9977378
000010 cc 1c 80 3f 54 35 80 3f b2 60 80 3f f4 2d 80 3f
       1.0008788 1.0016274 1.0029509 1.0014024
000020 51 6d 80 3f fc 88 7f 3f 9d 46 80 3f 4a 5d 80 3f
       1.0033361 0.99818397 1.002155 1.002847
000030 74 5a 80 3f bb fc 7f 3f 2d c1 7f 3f 53 be 7f 3f
       1.0027604 0.9999501 0.9990414 0.99899787
000040 72 58 7f 3f cc d3 7e 3f a1 5d 80 3f 39 29 7f 3f
       0.9974433 0.99541926 1.0028573 0.99672276
000050 ab ae 7f 3f 55 95 7e 3f f1 97 7f 3f 5c 59 80 3f
       0.998759 0.9944661 0.9984122 1.002727
000060 c1 66 80 3f d5 58 80 3f 1e 88 7f 3f 37 03 80 3f
       1.0031358 1.0027109 0.99817073 1.0000981
000070 9e 8f 7f 3f 35 55 7f 3f 1b f9 7f 3f c1 99 7f 3f
       0.9982852 0.9973939 0.9998948 0.99843985
000080 ce 34 7f 3f eb cf 7f 3f 92 cc 7f 3f 36 60 80 3f
       0.9968995 0.9992663 0.99921525 1.0029361
000090 36 90 7f 3f 29 c6 7f 3f e9 cb 7f 3f 8f 19 80 3f
       0.99829423 0.99911743 0.9992052 1.00078
0000a0 17 30 80 3f cb 12 80 3f 52 40 80 3f 4c 54 80 3f
       1.0014676 1.0005735 1.0019629 1.0025725
0000b0 f3 bf 80 3f 30 01 80 3f 71 5c 7f 3f 50 f8 7f 3f
       1.0058578 1.0000362 0.9975043 0.9998827
0000c0 6c e3 80 3f d5 20 7f 3f 69 3e 80 3f 8e c6 7f 3f
       1.0069404 0.9965947 1.0019046 0.99912345
0000d0 0e 62 80 3f cb 91 80 3f 1e 26 7f 3f f4 24 80 3f
       1.0029924 1.0044492 0.9966754 1.0011277
0000e0 f9 7d 7f 3f 97 d0 7f 3f 1f 43 80 3f c1 cf 7e 3f
       0.99801594 0.9992766 1.0020484 0.9953576
0000f0 6a 71 7f 3f dd 10 80 3f 99 c6 7e 3f 7c ee 7e 3f
       0.9978243 1.0005146 0.99521786 0.9958265

layers.8.bias f4 [64]
000000 83 7b 25 3b c0 e8 a3 bb fd 12 f5 ba 90 07 ac 3a
       0.002525062 -0.005002111 -0.0018697676 0.0013124812
000010 d8 d5 ba 3a f1 9d f5 3a a2 34 b8 bb 05 b5 5b 3b
       0.0014254404 0.0018739087 -0.0056215087 0.0033524644
000020 51 4f 7b ba b8 1d 2e bb 81 bb 38 ba 63 c4 08 ba
       -0.0009586709 -0.0026568007 -0.0007046983 -0.0005217252
000030 af e1 50 3b 67 c4 ab 3a 6f d9 08 bb e8 c7 5b 3b
       0.00318728 0.0013104797 -0.0020881554 0.0033535901
000040 3b 87 10 bb b7 51 59 3b c4 a3 07 bb f5 10 50 bb
       -0.002205326 0.0033160278 -0.0020696977 -0.0031748388
000050 25 17 a4 3a 5d 81 6d ba d6 9c 19 3b f5 e1 1b ba
       0.0012519105 -0.0009060109 0.0023439429 -0.0005946451
000060 06 ee 05 bb 55 c7 44 ba 0c c5 a0 b9 a3 65 2b bb
       -0.0020436062 -0.00075065094 -0.0003066439 -0.002615311
000070 8e c8 14 3b 64 3c 32 bb a5 08 74 bb 2f 80 f5 3a
       0.0022702548 -0.002719664 -0.0037236598 0.0018730218
000080 92 88 11 3b f9 43 ee b9 0e d8 f2 39 c8 d7 0d bb
       0.0022206646 -0.0004544554 0.0004631881 -0.0021643508
000090 c2 c9 31 3b 0a cd a8 3a 47 a7 f9 ba ab d5 05 3a
       0.0027128314 0.0012878489 -0.0019047045 0.00051053864
0000a0 7d ea 0d 3a b6 04 15 3b cd d5 3a bb 11 68 a4 ba
       0.00054136646 0.0022738404 -0.0028508783 -0.0012543221
0000b0 04 bc f4 3a e6 37 2c 3b 10 9c 99 ba 31 1c 27 bb
       0.0018671756 0.0026278435 -0.0011719484 -0.002549898
0000c0 5b d2 fe 3a 05 0c 48 3a 7e 62 18 ba 80 b3 06 3b
       0.0019441353 0.00076311856 -0.00058130163 0.0020553768
0000d0 a7 46 b8 3a 2b 05 43 bb c4 cc a5 3b b7 0f 47 bb
       0.0014059142 -0.002975772 0.0050598104 -0.0030374357
0000e0 df 94 c9 3a 22 f2 f7 3a 67 53 9e ba 38 7f 9e 3b
       0.001537945 0.0018916766 -0.0012079299 0.004836943
0000f0 a6 37 73 38 76 bb 10 bb 79 ad 21 3b 29 c6 ea ba
       5.798754e-05 -0.0022084392 0.0024670048 -0.001791184

layers.8.running_mean f4 [64]
000000 fe f6 06 3e 68 82 e9 3e 76 24 d3 3e 8b 6f a0 3e
       0.13180158 0.45607305 0.41238755 0.313351
000010 78 d5 7b 3e b9 74 f2 3e aa 73 40 3e d3 29 8f 3e
       0.2459315 0.47354677 0.18794122 0.27961597
000020 d2 51 bc 3e 95 d8 7e 3e 6e df dd 3d 5a 6b 38 3e
       0.36781174 0.24887307 0.108336315 0.18009701
000030 45 70 47 3e 55 d2 6f 3e 47 fe 75 3e d7 60 13 3e
       0.19476421 0.23420079 0.2402278 0.1439241
000040 69 80 3f 3e a4 93 12 3f fd 0b d3 3e 8b cc 22 3f
       0.18701328 0.5725653 0.41220084 0.6359336
000050 f3 1d 88 3e d1 8a 67 3e 50 85 b7 3e 1f e0 c8 3e
       0.2658535 0.22611548 0.35843897 0.3923349
000060 d6 ca a4 3e 51 e3 65 3e 0a f6 7f 3e 6d 00 dd 3e
       0.32186002 0.22449996 0.249962 0.43164387
000070 83 48 73 3e 21 d9 ab 3e 07 a5 57 3e 78 77 eb 3d
       0.2375813 0.33564094 0.21059047 0.11497396
000080 3c 52 a3 3e 91 b1 45 3e 3a 38 5e 3e 70 92 29 3e
       0.31898677 0.19306017 0.21701136 0.16559768
000090 3f 6c 9d 3e 5e 83 67 3f 60 23 90 3e 85 0b c5 3e
       0.30746648 0.90434825 0.2815199 0.3848535
0000a0 4a 48 34 3e 9c 0d 1b 3e 1a 65 9c 3e d0 27 d5 3d
       0.17605701 0.1514191 0.30545884 0.10407984
0000b0 db 29 c8 3e 82 2d 55 3e ec 83 00 3f 54 23 af 3e
       0.39094433 0.20818141 0.50201297 0.3420664
0000c0 bd 20 f1 3d a3 ce 06 3e a4 c8 ba 3d ba 5d bd 3e
       0.117738225 0.13164763 0.091203004 0.3698557
0000d0 96 35 f7 3d a2 88 98 3e 63 e4 b1 3e ae f8 97 3e
       0.120707676 0.29791743 0.34744558 0.29681915
0000e0 dd 6f 1c 3e e6 33 67 3e a9 22 92 3e 80 2b 3f 3e
       0.15277047 0.22578391 0.2854207 0.18668938
0000f0 b0 eb 8c 3e d1 b5 f9 3e 79 a1 49 3e 4d 36 86 3e
       0.27523565 0.48771527 0.19690503 0.26213303

layers.8.running_var f4 [64]
000000 95 fd 43 3d aa 4f 1d 3f 0c fd fd 3e 48 a6 92 3e
       0.047849257 0.6144968 0.49607122 0.28642488
000010 3d e4 ef 3c f8 49 d0 3d 92 56 cf 3d 48 62 08 3d
       0.029283637 0.101703584 0.10123934 0.033296853
000020 da 14 d0 3e 75 dc 09 3d 53 cc 5a 3c b5 38 dc 3c
       0.40640908 0.03365751 0.013354379 0.026882509
000030 15 61 15 3d 97 94 25 3e f7 3f 15 3d eb 7a 84 3d
       0.036469538 0.16169964 0.036437955 0.06468757
000040 2c ff ff 3c 7f 95 79 3f 2a c6 90 3d 8d ef 97 3f
       0.031249605 0.9749374 0.07069047 1.186998
000050 8e 25 54 3e 9a 5b a1 3c 93 df 4f 3d a1 48 90 3d
       0.20717451 0.019697 0.050750326 0.07045103
000060 2e a8 54 3d f6 97 16 3e 70 1d 2c 3e 67 a8 b7 3d
       0.0519182 0.14706406 0.16808105 0.08967667
000070 4a 6c 2c 3e f3 8b 3b 3d 51 ea 07 3e b8 e6 2b 3d
       0.16838184 0.045787763 0.13272978 0.041968077
000080 18 c2 20 3d 01 a9 03 3d 7f 05 9f 3c ec 5f 9f 3d
       0.039247602 0.032143597 0.0194118 0.077819675
000090 0a 39 1b 3d b4 bf 19 40 05 a3 fd 3c 88 be dd 3e
       0.037896194 2.4023256 0.030961523 0.43309426
0000a0 e8 e0 bf 3d 0e 48 a2 3c 6c a2 89 3e d1 10 1f 3d
       0.09369069 0.019809749 0.2688173 0.038834397
0000b0 04 be 82 3d b5 a1 f9 3d e4 38 40 3f c7 a1 b4 3e
       0.06383899 0.12189046 0.7508681 0.35279676
0000c0 34 2b c6 3c b9 a8 58 3d ed 0c d3 3c e3 3b 89 3d
       0.024190523 0.05289528 0.025763 0.067008756
0000d0 3e ba c4 3c d0 48 89 3e db 80 b3 3e ee ac 7b 3e
       0.024014588 0.26813364 0.35059246 0.24577686
0000e0 ac c8 8f 3d f7 99 0b 3d 87 33 7a 3e 31 18 cb 3d
       0.07020697 0.03408238 0.24433719 0.099167235
0000f0 3e 41 05 3d d8 d7 c0 3d ad 54 d6 3d ec 81 db 3c
       0.032532923 0.09416169 0.104653694 0.02679535
