model/trained_model_Mohamed_Salah.pth (torch, 288566 bytes, 31 tensors)

layers.0.weight f4 [128, 5]
0	0x3c43747e	0.011929629
1	0xbdb35350	-0.08756125
2	0xbe4f5f62	-0.2025123
3	0x3c55e095	0.013054033
4	0xbcf2cfac	-0.029640041
5	0xbe2710cf	-0.16315006
6	0xbe83282a	-0.2561658
7	0x3f2cc9e1	0.6749554
8	0xbe0151b5	-0.12628825
9	0xbebbd92f	-0.36689135
10	0x3d8262ec	0.06366524
11	0xbd652541	-0.05594373
12	0xbedd8cef	-0.43271586
13	0xbf09e668	-0.538672
14	0xbe188b89	-0.14896978
15	0x3e1c09e1	0.15238144
16	0xbea1ec95	-0.3162581
17	0x3ed26960	0.4109602
18	0x3ebeda26	0.3727581
19	0x3cf64a69	0.030064778
20	0xbee6f992	-0.45112282
21	0xbd07f537	-0.03319284
22	0xbc1ce707	-0.009576566
23	0xbef3dee5	-0.47630993
24	0xbd04dc35	-0.03243657
25	0xbe3d7d78	-0.18504894
26	0xbe85513b	-0.26038536
27	0x3eb89724	0.3605281
28	0xbec78b42	-0.38973433
29	0xbe1203f3	-0.14259319
30	0xbf187a5c	-0.59561706
31	0x3e9f3596	0.3109557
32	0xbe5ca52f	-0.21547388
33	0x3f03cb52	0.5148212
34	0xbe1de7a9	-0.15420403
35	0x3eb753bf	0.3580608
36	0xbbe9933b	-0.007128147
37	0xbebdd3eb	-0.37075743
38	0x3e760355	0.24024709
39	0xbea48278	-0.3213079
40	0xbdbdf7a8	-0.09275752
41	0xbed625d7	-0.41825745
42	0xbea51214	-0.32240355
43	0xbe2fb314	-0.17158157
44	0x3e2fd523	0.17171149
45	0x3e178b59	0.1479925
46	0x3c7b8b11	0.01535298
47	0xbdc0d478	-0.09415525
48	0xbd198019	-0.03747568
49	0xbedd2d6b	-0.43198714
50	0x3ed246a8	0.4106953
51	0xbe2be19e	-0.16785285
52	0x3d9146e7	0.07093602
53	0x3eb55b6b	0.3542131
54	0xbe908879	-0.2822912
55	0x3df65602	0.120281234
56	0xbe34a884	-0.17642409
57	0x3ec7c668	0.3901856
58	0xbe0bf378	-0.13667095
59	0xbe5ad45f	-0.21370076
60	0xbefcb6fa	-0.4935835
61	0xbe376a1c	-0.17911571
62	0xbeff0fdb	-0.49816784
63	0xbef93e10	-0.48680162
64	0x3dc34550	0.09534705
65	0xbe6fbb95	-0.234114
66	0xbe96fb2f	-0.29488513
67	0xbe5b4e8a	-0.21416679
68	0xbe42cb92	-0.19022968
69	0xbd9a165d	-0.07523797
70	0xbed0724d	-0.40712205
71	0xbeab2496	-0.3342635
72	0x3e9db7f5	0.3080441
73	0x3f3630b9	0.71168095
74	0xbda1c881	-0.07899571
75	0x3b09728b	0.0020972814
76	0xbf05df70	-0.52294064
77	0x3efcafd9	0.4935291
78	0x3e208970	0.15677428
79	0xbf47f101	-0.7810212
80	0xbdbf560b	-0.09342583
81	0xbe740c7b	-0.23832886
82	0xbf036f8e	-0.51342094
83	0xbe945b94	-0.2897612
84	0xbe1bc2c2	-0.15211013
85	0x3d01e97a	0.0317168
86	0xbf139d3e	-0.5766181
87	0xbc887deb	-0.016661605
88	0xbdab79ca	-0.08372839
89	0xbe9d6432	-0.30740505
90	0xbe72886c	-0.23684853
91	0xbeceb04d	-0.40368882
92	0xbba6705c	-0.0050793123
93	0x3e8e0e46	0.27745265
94	0xbda308c4	-0.07960656
95	0xbe73bb34	-0.23801881
96	0xbbed6a8b	-0.007245367
97	0xbf0a4c16	-0.5402235
98	0xbf3560a1	-0.7085057
99	0xbde27cf1	-0.11058987
100	0xbe8d7df2	-0.2763515
101	0xbe985850	-0.29754877
102	0xbe791925	-0.24325998
103	0x3eca9bdf	0.39572045
104	0xbf0720b6	-0.5278429
105	0x3ed35d53	0.41282138
106	0xbcb353da	-0.02189057
107	0xbd8fd5bb	-0.07023188
108	0xbeb73df0	-0.35789442
109	0xbeb916f2	-0.36150318
110	0x3e08059c	0.1328339
111	0x3d933c51	0.07189239
112	0x3ede5692	0.43425423
113	0x3e84aa1e	0.2591104
114	0x3d5a6e47	0.053327825
115	0xbf6ad24a	-0.91727126
116	0x3e018ec9	0.12652124
117	0xbf1acef7	-0.60472053
118	0x3f01a1ad	0.5063732
119	0x3e0e97de	0.1392512
120	0xbe86ce3f	-0.26329228
121	0xbcc6e87d	-0.02428078
122	0xbda28237	-0.07934993
123	0x3efc48f2	0.49274403
124	0xbe67ac6a	-0.22624364
125	0xbf2636cc	-0.64927363
126	0x3f0471ab	0.51735944
127	0xbf90fa71	-1.1326429
128	0x3e23a62d	0.1598136
129	0x3e870b9d	0.26376048
130	0xbd5972df	-0.053088065
131	0x3e99ba06	0.30024737
132	0x3f72cb9e	0.94841945
133	0x3f3f848c	0.74811625
134	0x3f85b577	1.0446004
135	0xbea66632	-0.32499844
136	0xbc6708cb	-0.0141012175
137	0xbf029cf7	-0.5102076
138	0xbddc4447	-0.1075521
139	0xbe31a4d4	-0.17348033
140	0x3e4aa588	0.19789708
141	0x3d26dd06	0.040738128
142	0xbcd5bd0a	-0.026091117
143	0xbea258c4	-0.31708348
144	0xbefe8d77	-0.49717304
145	0x3da637c1	0.08116103
146	0xbe1fe683	-0.15615277
147	0x3f110662	0.56650364
148	0x3e86ebc3	0.26351747
149	0xbed87651	-0.42277768
150	0x3c36fb2a	0.011168281
151	0xbe53b63c	-0.20674986
152	0xbea9751c	-0.3309716
153	0xbddd7137	-0.1081261
154	0xbdda239e	-0.10651325
155	0xbf1bcec7	-0.6086239
156	0x3e758f22	0.23980382
157	0xbeddcf25	-0.433221
158	0x3e728c06	0.23686227
159	0x3d9b569a	0.07584877
160	0xbe4487af	-0.19192384
161	0xbe109b2e	-0.14121696
162	0xbe9b1d01	-0.30295566
163	0xbe73ad8f	-0.23796676
164	0xbe00bb4f	-0.12571453
165	0xbe3ba090	-0.18322968
166	0xbcd35ab7	-0.025800092
167	0xbf08ade9	-0.53390366
168	0xbd577e33	-0.052610587
169	0x3bb8cd1b	0.005639685
170	0x3ebe3d05	0.3715593
171	0xbf132a2e	-0.57486236
172	0x3f0e96c5	0.55698806
173	0xbea2637c	-0.31716526
174	0xbf0d3b59	-0.5516868
175	0x3e5c4f6e	0.21514675
176	0x3d847f61	0.06469608
177	0xbf2be2ce	-0.6714295
178	0x3e704e42	0.23467353
179	0x3e167b33	0.14695434
180	0xbdaddd28	-0.08489448
181	0xbe60b18a	-0.21942726
182	0xbecf02c0	-0.40431786
183	0x3eecc574	0.46244395
184	0xbdfc6a30	-0.12324941
185	0xbe76ad18	-0.24089468
186	0x3fdcc491	1.7247487
187	0x3d1afba1	0.03783763
188	0x3e9d5d0d	0.30735055
189	0x3e954c9a	0.29160005
190	0x3f1bfa8d	0.60929185
191	0x4028c978	2.6372967
192	0x3f64b1dc	0.8933389
193	0x3ef90653	0.48637637
194	0x3fdf9460	1.7467155
195	0x3f070990	0.52748966
196	0x3f0d3e02	0.5517274
197	0x3ef073cd	0.4696335
198	0x3f72b2f7	0.9480433
199	0x3ecb3cf4	0.3969494
200	0x3e5beb7a	0.21476546
201	0xbde96551	-0.11396278
202	0xbf261710	-0.6487894
203	0x3d262f77	0.04057261
204	0xbe5ae990	-0.2137816
205	0x3e029f9f	0.12756203
206	0xbfac09c8	-1.3440485
207	0x3eb8dcf7	0.36106083
208	0x3e7c0b13	0.246136
209	0xbf1a9eaf	-0.6039838
210	0xbe1a2953	-0.15054826
211	0xc00eb2cb	-2.2296627
212	0xbf84fdb5	-1.0389925
213	0xbfc138a8	-1.5095415
214	0xc08c836f	-4.391044
215	0x3f45f231	0.7732268
216	0xbe9fd188	-0.31214547
217	0x3f616a22	0.8805257
218	0x3e0990cf	0.13434146
219	0xbe3bed20	-0.18352175
220	0xbf447ae9	-0.76750046
221	0x3e8d4f8d	0.27599755
222	0xbfc394db	-1.5279802
223	0xbf0932b5	-0.53593
224	0x3eaa19c1	0.33222774
225	0x3eec6ab7	0.46175167
226	0xbe9e203e	-0.30883974
227	0x3f094f8a	0.5363699
228	0xbcd439ad	-0.025906408
229	0xbe1b9175	-0.15192206
230	0x3eb1873e	0.34673494
231	0xbed2e524	-0.41190445
232	0x3ee3dc17	0.44503853
233	0xbe879538	-0.26481032
234	0x3e3e8255	0.18604405
235	0xbefa51af	-0.48890445
236	0x3c80ccb2	0.015722606
237	0xbee2049c	-0.44144142
238	0xbecd1496	-0.40054768
239	0xbe0b3d6b	-0.13597648
240	0xbecd1dae	-0.40061706
241	0xbef67b34	-0.48140872
242	0xbd83ff32	-0.06445159
243	0x3ba7ce3d	0.005121021
244	0x3e3e0b83	0.18559079
245	0x3ddd621a	0.10809727
246	0xbeb5d7b8	-0.35516143
247	0x3eff2ff1	0.49841264
248	0x3d3b8e5d	0.045790065
249	0xbdaa14de	-0.08304761
250	0x3eb261de	0.34840292
251	0xbd58cbdf	-0.0529288
252	0xbed0c687	-0.40776464
253	0x3db6af1f	0.089201204
254	0xbee2b6b8	-0.44280028
255	0x3f1bdfea	0.6088854

layers.0.bias f4 [128]
0	0x3e9ed45f	0.310214
1	0xbe678563	-0.22609477
2	0xbe5d5b75	-0.2161692
3	0xbd051221	-0.032487992
4	0xbcff58cc	-0.031170271
5	0xbb5317b9	-0.0032210185
6	0x3cf40a3f	0.029790042
7	0x3ebeb71f	0.37249085
8	0xbe892cc9	-0.2679198
9	0xbd2f9d11	-0.0428744
10	0x3e90d28f	0.28285643
11	0xbe966c6a	-0.29379588
12	0x3e3360ad	0.17517348
13	0xbe8ed40f	-0.27896163
14	0xbe0a2839	-0.13491906
15	0xbe8caec8	-0.27477098
16	0x3e54624c	0.20740622
17	0x3eb0400f	0.34423873
18	0x3e431a5a	0.19053021
19	0xbecec2bc	-0.40382946
20	0x3ea9afdf	0.33141991
21	0x3e5d8dd0	0.21636128
22	0xbeaea15e	-0.34107488
23	0x3e4f392a	0.2023665
24	0x3e9ebd5c	0.31003845
25	0xbde24ef6	-0.11050217
26	0x3e3d748e	0.18501493
27	0xbbc325e0	-0.005955443
28	0xbe237490	-0.15962434
29	0xbc0c682b	-0.008569757
30	0xbe5dbaef	-0.21653341
31	0xbed1719b	-0.40906987
32	0x3e6007c9	0.2187797
33	0xbe3d99dd	-0.18515725
34	0xbd067b1d	-0.032832254
35	0xbea5fb39	-0.3241823
36	0xb9c2c4e4	-0.00037149258
37	0x3e685309	0.22687925
38	0xbebadb14	-0.36495268
39	0x3e74d029	0.23907532
40	0x3e5e9036	0.217347
41	0xbe82615a	-0.25464898
42	0x3e90720c	0.2821201
43	0x3e166365	0.14686354
44	0x3e266ce4	0.16252476
45	0x3e7dd8e8	0.24789774
46	0xbe3ff513	-0.18745832
47	0xbebdc5ff	-0.37065122
48	0xbedf62be	-0.43630022
49	0x3da21e47	0.07915931
50	0x3e81ca9c	0.2534989
51	0xbe4785ba	-0.19484606
52	0x3e8adf62	0.27123553
53	0x3e568de1	0.2095256
54	0xbe8604ea	-0.26175624
55	0xbae2bf04	-0.0017299359
56	0xbe9f56ce	-0.31120914
57	0x3db23ee0	0.08703399
58	0x3d0561f2	0.03256411
59	0x3e03ef0d	0.1288416
60	0x3e4a49fb	0.19754784
61	0xbe7b43ba	-0.24537554
62	0xbec01fc7	-0.37524244
63	0x3ebadbdc	0.36495864
64	0x3ed98719	0.42485884
65	0x3e901383	0.28139886
66	0x3daab781	0.08335782
67	0xbeab0350	-0.33400965
68	0x3e70ae7a	0.23504058
69	0x3e5dfa06	0.21677408
70	0xbed8e3d3	-0.42361316
71	0x3eb2d8eb	0.3493112
72	0x3e89ba98	0.26900172
73	0x3e8b0332	0.27150875
74	0x3d874e90	0.066067815
75	0xbed3e94f	-0.41388938
76	0x3e330a3a	0.1748437
77	0xbed7b855	-0.42132822
78	0x3c032f48	0.008006878
79	0xbe8844ab	-0.2661489
80	0xbed43178	-0.41443992
81	0xbd1e2aac	-0.038614914
82	0x3e7a3779	0.24435224
83	0xbeb23b0c	-0.34810674
84	0x3d55cdef	0.052198347
85	0xbe82cd52	-0.25547272
86	0xbd5222ad	-0.0513026
87	0x3e0386cd	0.12844391
88	0xbc7f5983	-0.015585306
89	0xbe8f7c4a	-0.28024513
90	0x3e0a1b94	0.13487083
91	0x3d6cd297	0.05781802
92	0xb9b3d6c2	-0.00034301548
93	0x3de528d8	0.11189431
94	0x3e8cca40	0.27498055
95	0xbec1eb22	-0.37874705
96	0xbe98ec98	-0.29868007
97	0xbded24e9	-0.11579306
98	0x3da8b6d9	0.082380004
99	0xbcb21407	-0.021738065
100	0x3eddf6dd	0.43352404
101	0xbb9d7bdc	-0.004806025
102	0xbe48db53	-0.19614916
103	0x3e2eba08	0.17063153
104	0x3e9151ef	0.28382823
105	0x3e750c8a	0.23930565
106	0xbe115d48	-0.1419574
107	0xbebe1d4a	-0.3713172
108	0x3d34684f	0.04404479
109	0xbea6f7ad	-0.32610837
110	0xbeb064b2	-0.34451824
111	0x3d8e6416	0.06952684
112	0xbe3a6016	-0.18200716
113	0xbeb887cc	-0.36041105
114	0xbea9961a	-0.3312233
115	0xbe8961a0	-0.26832294
116	0xbc9e12cf	-0.019296078
117	0xbec17739	-0.37786272
118	0x3d723b47	0.059138563
119	0xbe80748a	-0.25088912
120	0xbecb66dc	-0.39726913
121	0xbcaedcab	-0.021345457
122	0x3e7ec3af	0.24879335
123	0xbecba4be	-0.39774126
124	0xbd920b45	-0.07131056
125	0xbea80411	-0.32815602
126	0x3d9f3044	0.07772878
127	0x3e99a4be	0.300085

layers.2.weight f4 [128]
0	0x3f764f29	0.9621454
1	0x3f84da84	1.0379186
2	0x3f893ccd	1.072168
3	0x3f7c906c	0.9865787
4	0x3f8213ed	1.0162331
5	0x3f7c44fa	0.9854275
6	0x3f4ef4b1	0.8084212
7	0x3f6eb8ce	0.9325074
8	0x3f800000	1.0
9	0x3f7e1c1e	0.99261653
10	0x3f777a41	0.9667092
11	0x3f8370cf	1.0268801
12	0x3f86d1f5	1.0532824
13	0x3f800000	1.0
14	0x3f5f6c0c	0.8727424
15	0x3f896e56	1.0736797
16	0x3f7adfa0	0.97997475
17	0x3f6d6b71	0.9274207
18	0x3f77b528	0.967608
19	0x3f89f159	1.0776778
20	0x3f78d19f	0.97194856
21	0x3f712e18	0.9421096
22	0x3f521770	0.8206701
23	0x3f88a212	1.067446
24	0x3f74919e	0.95534694
25	0x3fa42aa0	1.2825508
26	0x3f7f1ee7	0.9965653
27	0x3f825ae6	1.018399
28	0x3f777493	0.96662253
29	0x3f855301	1.0415956
30	0x3f800000	1.0
31	0x3f7ced73	0.9879982
32	0x3f73da39	0.95254856
33	0x3f8738de	1.056423
34	0x3f8dfd3c	1.1092906
35	0x3f600338	0.8750491
36	0x3f79596d	0.9740208
37	0x3f56e24c	0.8393905
38	0x3f75be4f	0.9599351
39	0x3f810572	1.0079787
40	0x3f812f49	1.0092555
41	0x3f7c42a1	0.9853917
42	0x3f8a6439	1.0811836
43	0x3f8c7a2d	1.0974785
44	0x3fd02f5f	1.6264457
45	0x3f750a6c	0.9571903
46	0x3f800000	1.0
47	0x3f8d642a	1.1046193
48	0x3f7d46d4	0.989362
49	0x3f80bf5d	1.00584
50	0x3f695021	0.9113789
51	0x3fae1899	1.3601257
52	0x3f80f891	1.0075856
53	0x3f66bd82	0.90132916
54	0x3f800000	1.0
55	0x3f685c07	0.9076542
56	0x3f800000	1.0
57	0x3f80527b	1.0025171
58	0x3f736a22	0.9508382
59	0x3f5187c2	0.81847775
60	0x3f73394f	0.9500932
61	0x3f97dafc	1.1863704
62	0x3f8c96a1	1.0983468
63	0x3f886b54	1.0657754
64	0x3f83bbd3	1.0291694
65	0x3f6d1b0e	0.9261941
66	0x3f859541	1.0436174
67	0x3f800000	1.0
68	0x3f70110b	0.93776006
69	0x3f816852	1.0109961
70	0x3fb7f383	1.4371189
71	0x3f8869b4	1.0657258
72	0x3f77a137	0.9673037
73	0x3f70da78	0.94083357
74	0x3f7133d3	0.942197
75	0x3f800000	1.0
76	0x3f502da3	0.81319636
77	0x3f8be207	1.0928353
78	0x3f5a1304	0.85185266
79	0x3f8c75e4	1.0973477
80	0x3f915b62	1.1356013
81	0x3f7ed05a	0.9953667
82	0x3f825157	1.0181073
83	0x3f6b42a3	0.91898555
84	0x3f481d87	0.78170055
85	0x3f726635	0.94687206
86	0x3f7f8fc8	0.9982877
87	0x3f6e5ec4	0.9311335
88	0x3f4a08a2	0.7891942
89	0x3f7d8715	0.99034244
90	0x3f81bd35	1.0135866
91	0x3f5a86c1	0.8536187
92	0x3f4b92d8	0.7952094
93	0x3f74e6b8	0.9566455
94	0x3f77648a	0.96637785
95	0x3f8057c2	1.0026782
96	0x3f800000	1.0
97	0x3f800000	1.0
98	0x3f7260b0	0.94678783
99	0x3f505a5a	0.81387866
100	0x3fa6821a	1.3008454
101	0x3f800000	1.0
102	0x3f60fddf	0.87887377
103	0x3f7224ac	0.94587207
104	0x3f73351d	0.9500292
105	0x3f723e7e	0.94626606
106	0x3f6232c9	0.8835874
107	0x3f947f4b	1.1601347
108	0x3f7cfc07	0.98822063
109	0x3f7b57bd	0.98180753
110	0x3f800000	1.0
111	0x3f7b0797	0.98058456
112	0x3f800000	1.0
113	0x3f772906	0.9654697
114	0x3f82e884	1.0227208
115	0x3f7b8b8e	0.9825982
116	0x3f82c533	1.021643
117	0x3f87ca66	1.0608642
118	0x3f42e8f4	0.7613671
119	0x3f800000	1.0
120	0x3f800000	1.0
121	0x3f85065c	1.0392566
122	0x3f4a76e2	0.7908765
123	0x3f8082c7	1.003991
124	0x3f81559b	1.010425
125	0x3fc86bca	1.5657895
126	0x3f75eddc	0.9606607
127	0x3f60087a	0.87512934

layers.2.bias f4 [128]
0	0xbd32bc6f	-0.043636736
1	0x3dd370ae	0.10324226
2	0x3ca0deb7	0.019637449
3	0x3d07ba31	0.03313655
4	0x3d57aa50	0.052652657
5	0xbd3911b9	-0.045182917
6	0xbb9149f7	-0.004433866
7	0x3c6dcfa1	0.014514835
8	0x3befc2d0	0.0073169246
9	0xbb68d0bc	-0.0035524806
10	0x3d0e800d	0.034790087
11	0x3d5fc962	0.054635413
12	0xbc98fed4	-0.018676199
13	0x3c3096f5	0.010778178
14	0x3c294ec2	0.010333719
15	0x3d7342dc	0.059389934
16	0xbdfaa661	-0.122387655
17	0x3ca4a4ff	0.020098208
18	0xbd5cf922	-0.05394853
19	0x3d9d86f5	0.07691757
20	0xbd8b88b9	-0.06813187
21	0xbd012913	-0.031533312
22	0x3ca68316	0.020326179
23	0xbd66c8b2	-0.05634374
24	0xbc883679	-0.016627537
25	0xbc8023ad	-0.015642012
26	0x3d1fdc74	0.0390286
27	0xbbe0a49d	-0.006855561
28	0x3d7a859d	0.06116258
29	0x3c9a504f	0.018837122
30	0x3d1b11e0	0.037858844
31	0xbc4670f5	-0.012111892
32	0xbd0eb585	-0.03484108
33	0x3cc965e3	0.024584716
34	0x3ca6bdbe	0.020354148
35	0x3d869a20	0.06572366
36	0xbad8e570	-0.001654787
37	0xbcb9411c	-0.022614054
38	0xbd514d44	-0.051099077
39	0xbd5cffae	-0.053954773
40	0xbd04a4fd	-0.032383908
41	0xbc2c73be	-0.010525642
42	0xbd11a84c	-0.03556089
43	0xbcd20d39	-0.02564107
44	0xbca7fa65	-0.02050514
45	0xbcf68853	-0.030094301
46	0xbbb9e26c	-0.0056727435
47	0x3ca996df	0.020701824
48	0xbd41bae0	-0.04729736
49	0x3dbf9c29	0.09355957
50	0x3cc66b8e	0.024221208
51	0x3bfede89	0.007777993
52	0x3d29ab6b	0.041423243
53	0xbd089b50	-0.033351243
54	0x3c597f30	0.013274953
55	0xbcae4f3b	-0.021278014
56	0x3c70ebbe	0.014704643
57	0xbc9748c3	-0.018467313
58	0x3ba14d9b	0.0049225814
59	0xbc3f32bd	-0.011669812
60	0xbd29d66f	-0.041464265
61	0xbd24565b	-0.040121417
62	0x3d9c1f8c	0.076232046
63	0x3d184f0d	0.037184764
64	0x3c8a5624	0.016886778
65	0xbd8b3b95	-0.06798474
66	0x3d4ff4b9	0.050770495
67	0xbbc4f96e	-0.0060111796
68	0xbd1c935f	-0.03822648
69	0x3d0637fe	0.032768242
70	0xbc988dc4	-0.018622287
71	0x3c440338	0.011963658
72	0x3d7ebe21	0.06219304
73	0xbc982daa	-0.018576462
74	0x3d80e387	0.062933974
75	0x3c792f1d	0.015208987
76	0x3c291b43	0.010321441
77	0xbd9b3daf	-0.075801246
78	0x3cd56c2e	0.02605256
79	0x3d961100	0.07327461
80	0xbc420c61	-0.011843772
81	0x3b8fd77a	0.0043897005
82	0xbcd5e922	-0.026112143
83	0xbd48ea56	-0.049051605
84	0x3d43780c	0.047721907
85	0x3d38f645	0.045156736
86	0xbb7beb94	-0.0038439976
87	0xbd641c49	-0.055691037
88	0xbb8f67d0	-0.004376389
89	0x3d301c4f	0.042995747
90	0x3d0f3808	0.034965545
91	0x3c69f450	0.01427944
92	0xbd83d6bb	-0.06437441
93	0xbd24123b	-0.04005645
94	0xbda8a511	-0.08234609
95	0xbd0e06dd	-0.034674514
96	0x3d8ad8ee	0.06779657
97	0x3da28111	0.07934774
98	0xbc7e1ae9	-0.015509346
99	0xba32a83e	-0.0006815231
100	0x3dd2f59b	0.10300752
101	0x3b6ac351	0.0035821984
102	0xbc6bddc2	-0.014396133
103	0xbca8679a	-0.020557214
104	0xbd05f85d	-0.03270756
105	0xbd63a91d	-0.0555812
106	0x3caabd1d	0.02084213
107	0x3cbf9290	0.023385316
108	0x3c564c79	0.013079756
109	0xbcd5f6b6	-0.026118618
110	0xbd187399	-0.037219618
111	0x3d9c92e7	0.07645207
112	0xbc7ddad3	-0.015494066
113	0x3da1206b	0.07867511
114	0x3d7d96e5	0.061911482
115	0x3d1fc726	0.039008282
116	0x3df55137	0.11978381
117	0x3cfd79f9	0.03094195
118	0x3d131816	0.035911642
119	0x3d01c691	0.03168351
120	0x3c3abb60	0.011397213
121	0x3c23fdd2	0.010009246
122	0x3c17b107	0.009258515
123	0x3be4411a	0.0069657685
124	0xbb4784a9	-0.0030444062
125	0x3d77bc77	0.06048247
126	0xbdb9871b	-0.090589724
127	0x3d85d27e	0.06534289

layers.2.running_mean f4 [128]
0	0x3c8775e9	0.016535716
1	0x00eb4932	2.1607599e-38
2	0x00000004	6e-45
3	0x00000004	6e-45
4	0x00000004	6e-45
5	0x009deb13	1.4502502e-38
6	0x41a7e2eb	20.9858
7	0x3ca2a7d9	0.019855427
8	0x00000000	0.0
9	0x3acfb651	0.0015847181
10	0x3c7708cb	0.01507778
11	0x00000004	6e-45
12	0x3c18f6d6	0.009336194
13	0x00000000	0.0
14	0x25c01b25	3.3325085e-16
15	0x00000004	6e-45
16	0x3c351ff1	0.011054979
17	0x3c965192	0.018349443
18	0x3c266540	0.010155976
19	0x2e4f5dfc	4.7149826e-11
20	0x3c90b8bb	0.017666211
21	0x3c3cf67b	0.011533375
22	0x413b45db	11.704555
23	0x41b86732	23.050388
24	0x3c8762a8	0.016526535
25	0x4260cfef	56.20306
26	0x42b55898	90.673035
27	0x00000004	6e-45
28	0x3ba4cdc2	0.005029411
29	0x00000004	6e-45
30	0x00000000	0.0
31	0x41c57118	24.680222
32	0x3c3f10fa	0.011661762
33	0x001ebf40	2.823672e-39
34	0x0000d762	7.7265e-41
35	0x41738780	15.220581
36	0x0003834e	3.2261e-40
37	0x431aadd8	154.67908
38	0x439a8cd8	309.10034
39	0x42993f25	76.62333
40	0x3c3dcfc4	0.01158518
41	0x00000004	6e-45
42	0x3c766282	0.0150381345
43	0x3c00488b	0.007829796
44	0x42083c79	34.059055
45	0x3c5880d0	0.013214305
46	0x00000000	0.0
47	0x086c8fe9	7.118783e-34
48	0x000262de	2.19138e-40
49	0x3b8a39cf	0.004218317
50	0x3c5d65f5	0.013513078
51	0x42f44111	122.12708
52	0x3c6ce21d	0.0144582065
53	0x3c36fc20	0.01116851
54	0x00000000	0.0
55	0x42c75724	99.6702
56	0x00000000	0.0
57	0x3b97f645	0.004637512
58	0x3ae3f0ac	0.0017390451
59	0x4255cdb2	53.450874
60	0x3c2c8416	0.010529539
61	0x2e3c5ecf	4.2830458e-11
62	0x00000004	6e-45
63	0x3c9f5e4b	0.019454142
64	0x3cb985dc	0.022646837
65	0x416322cb	14.195994
66	0x3b91faf3	0.0044549643
67	0x00000000	0.0
68	0x3c4d44b8	0.012528591
69	0x3c3d4e65	0.011554335
70	0x42ac4fcc	86.15585
71	0x3c9888b3	0.01861987
72	0x42063be3	33.558483
73	0x3c6d1e54	0.014472563
74	0x3b66c6f0	0.003521379
75	0x00000000	0.0
76	0x42129ed4	36.655106
77	0x00000009	1.3e-44
78	0x4219121d	38.26769
79	0x00000004	6e-45
80	0x001756c7	2.143346e-39
81	0x3b8f92af	0.0043814997
82	0x3c55663b	0.013024862
83	0x41963343	18.77503
84	0x4197a2ea	18.954548
85	0x3b0859ea	0.0020805546
86	0x00018e9e	1.42997e-40
87	0x3be056d0	0.0068462864
88	0x42573d25	53.80971
89	0x00000004	6e-45
90	0x3bebb305	0.0071929717
91	0x418eaf59	17.835619
92	0x41f06ccd	30.053125
93	0x3bc3635d	0.0059627728
94	0x3c7026ee	0.014657719
95	0x00000004	6e-45
96	0x00000000	0.0
97	0x00000000	0.0
98	0x3b8fc650	0.0043876544
99	0x28c64e94	2.2016494e-14
100	0x3cbd4e6e	0.023108687
101	0x00000000	0.0
102	0x4129e11b	10.617457
103	0x3c1504cc	0.009095382
104	0x3c77e0e9	0.015129306
105	0x3c50ffd4	0.012756307
106	0x41f3671d	30.425348
107	0x067d2d57	4.7617322e-35
108	0x3b177c21	0.0023114758
109	0x129fdc61	1.0088638e-27
110	0x00000000	0.0
111	0x3b723d34	0.003696275
112	0x00000000	0.0
113	0x0111f607	2.680881e-38
114	0x062537d4	3.1074067e-35
115	0x00000004	6e-45
116	0x00000004	6e-45
117	0x00000004	6e-45
118	0x41a71f94	20.890419
119	0x00000000	0.0
120	0x00000000	0.0
121	0x00000004	6e-45
122	0x41c01f08	24.015152
123	0x00000004	6e-45
124	0x160eda7b	1.1539609e-25
125	0x0ec17b7d	4.769709e-30
126	0x3b87ac51	0.0041404148
127	0x44585251	865.2862

layers.2.running_var f4 [128]
0	0x3ba1163c	0.0049159806
1	0x0128d86a	3.1011996e-38
2	0x00000004	6e-45
3	0x00000004	6e-45
4	0x00000004	6e-45
5	0x0005a1f4	5.17275e-40
6	0x424fc211	51.939518
7	0x3be8424a	0.0070879804
8	0x00000004	6e-45
9	0x3a124ebb	0.000558119
10	0x3b85eef4	0.0040873233
11	0x00000004	6e-45
12	0x3acd67fd	0.001567125
13	0x00000004	6e-45
14	0x272cdf17	2.3990732e-15
15	0x00000004	6e-45
16	0x3b0fffc8	0.0021972526
17	0x3bc65cd8	0.0060535483
18	0x3af30fec	0.0018544174
19	0x2eeeb18d	1.0854526e-10
20	0x3bb7dda6	0.0056111393
21	0x3b1cbb53	0.0023915365
22	0x41b13ef6	22.155743
23	0x42991cf2	76.55653
24	0x3ba0e877	0.0049105245
25	0x43aff222	351.89166
26	0x44d1ee39	1679.4445
27	0x00000004	6e-45
28	0x3bb83208	0.0056211986
29	0x00000004	6e-45
30	0x00000004	6e-45
31	0x428597c5	66.796425
32	0x3b203d99	0.0024450778
33	0x002ea935	4.285133e-39
34	0x00019514	1.45315e-40
35	0x4228f041	42.234623
36	0x00051e29	4.69997e-40
37	0x4517a922	2426.5708
38	0x46310c21	11331.032
39	0x443ff7fa	767.87463
40	0x3b1e2492	0.0024130684
41	0x00000004	6e-45
42	0x3b853ae1	0.004065857
43	0x3a90783a	0.0011022158
44	0x4316e15d	150.88033
45	0x3b4dbf26	0.003139445
46	0x00000004	6e-45
47	0x091252f8	1.7613122e-33
48	0x000bc75b	1.081706e-39
49	0x39a7bb6b	0.0003199236
50	0x3b5727d8	0.0032830145
51	0x44db8338	1756.1006
52	0x3b764e0e	0.0037583145
53	0x3b12f8d4	0.0022426145
54	0x00000004	6e-45
55	0x4494fb5e	1191.8552
56	0x00000004	6e-45
57	0x39cab8b0	0.00038666045
58	0x38643acd	5.44142e-05
59	0x43bda3b7	379.27902
60	0x3b02a2cf	0.0019933467
61	0x2edb59b6	9.974903e-11
62	0x00000004	6e-45
63	0x3bdef73f	0.0068043764
64	0x3c1713c9	0.009221026
65	0x420a8f8e	34.64019
66	0x39bb1523	0.00035683168
67	0x00000004	6e-45
68	0x3b38f293	0.0028220757
69	0x3b1d4d4f	0.0024002378
70	0x44467d07	793.95355
71	0x3bcc40a4	0.0062332917
72	0x43256b5c	165.41937
73	0x3b76cb55	0.0037657816
74	0x3969c40a	0.00022293642
75	0x00000004	6e-45
76	0x43bb4c46	374.5959
77	0x0000000b	1.5e-44
78	0x43360a27	182.03966
79	0x00000004	6e-45
80	0x00335a59	4.716021e-39
81	0x3b8bcb65	0.00426619
82	0x3b47e3c1	0.0030500742
83	0x424bc044	50.93776
84	0x43533396	211.2015
85	0x3a7c2b9a	0.0009619534
86	0x0002b980	2.50216e-40
87	0x3a5ce8c7	0.00084270205
88	0x43b5876c	363.05798
89	0x00000004	6e-45
90	0x3a73d974	0.00093021174
91	0x420616a4	33.52211
92	0x4315b402	149.70316
93	0x3a27925d	0.0006392354
94	0x3b7d263d	0.0038627528
95	0x00000004	6e-45
96	0x00000004	6e-45
97	0x00000004	6e-45
98	0x39b577ae	0.0003461218
99	0x29de1fd6	9.864303e-14
100	0x3c1d4d5a	0.009600962
101	0x00000004	6e-45
102	0x4244571c	49.085068
103	0x3ac2f25c	0.0014873254
104	0x3b86d9b1	0.0041153063
105	0x3b3fbb54	0.0029255943
106	0x43a12c9d	322.34854
107	0x0742b227	1.4647292e-34
108	0x38c98119	9.608473e-05
109	0x13768d16	3.1119126e-27
110	0x00000004	6e-45
111	0x3980c836	0.0002456323
112	0x00000004	6e-45
113	0x015704c4	3.9492683e-38
114	0x06983b08	5.7262784e-35
115	0x00000004	6e-45
116	0x00000004	6e-45
117	0x00000004	6e-45
118	0x434a5402	202.32816
119	0x00000004	6e-45
120	0x00000004	6e-45
121	0x00000004	6e-45
122	0x42adf215	86.97282
123	0x00000004	6e-45
124	0x16a344c5	2.637747e-25
125	0x0f718c42	1.190923e-29
126	0x39a197d9	0.00030821448
127	0x47cafced	103929.85

layers.3.weight f4 [128, 128]
0	0xbd21c99d	-0.039498914
1	0xbd195282	-0.0374322
2	0xbdab24e0	-0.08356643
3	0xbc8dfdb8	-0.017332897
4	0xbca9b528	-0.020716265
5	0xbd993e98	-0.07482642
6	0xbc259d69	-0.01010833
7	0x3d9afdae	0.07567917
8	0x3d64c6bc	0.05585359
9	0x3dee3a4d	0.11632214
10	0xbd3ce1be	-0.046113722
11	0x3d8deee5	0.06930331
12	0x3ccb68e6	0.024830293
13	0x3ca270eb	0.019829234
14	0xbcabd898	-0.020977303
15	0xbd2799d8	-0.0409182
16	0x3cd49df4	0.025954224
17	0x3d8f0495	0.06983296
18	0xbd78eb68	-0.060771376
19	0x3cda6a07	0.026661886
20	0x3d803e30	0.06261861
21	0x3b85bb9f	0.004081204
22	0xbd642ce3	-0.05570687
23	0xbd087f9c	-0.033324823
24	0x3d8c19ed	0.068408825
25	0xbd1d0355	-0.038333256
26	0x3c99c4df	0.018770633
27	0xbc9f902e	-0.01947793
28	0x3cf1dfc2	0.029525641
29	0x3db4341e	0.08799003
30	0xbd8e4e4e	-0.06948529
31	0xbd6ea0ca	-0.05825881
32	0x3d8ebc19	0.069694705
33	0x3d727fd0	0.059203923
34	0x3da44ada	0.08022089
35	0xbdc68053	-0.09692445
36	0x3d1c3403	0.03813554
37	0x3d7fc88a	0.06244711
38	0x3ce5a64f	0.028033404
39	0xbd1cd987	-0.038293388
40	0xbd5e9e1b	-0.05435
41	0x3d24e915	0.040261347
42	0xbd3030ce	-0.043015294
43	0xbca732f3	-0.020410037
44	0xbc5b4adc	-0.013384547
45	0xbce41251	-0.027840765
46	0x3d2988ef	0.041390356
47	0xbd540cc9	-0.051770005
48	0x3d349ca3	0.044094693
49	0xbac120cf	-0.0014734509
50	0x3d890b88	0.066916525
51	0x3d846a71	0.064656146
52	0x3d967a1e	0.07347511
53	0x3da325c1	0.07966185
54	0x3d3156e6	0.043295763
55	0xbd75b305	-0.05998518
56	0x3c03d5d2	0.008046584
57	0x3d471352	0.04860241
58	0x3d0ba456	0.03409227
59	0x3c2cb8af	0.010542079
60	0xbd551c47	-0.05202892
61	0x3dd2add1	0.10287059
62	0x3cdd9671	0.027049275
63	0xbd1cad93	-0.03825147
64	0xbcb4f04f	-0.022087244
65	0xbd7c6b65	-0.061625857
66	0x3ce1a2be	0.027543422
67	0x3d75f183	0.060044777
68	0xbcd2dabc	-0.025739066
69	0xbd989aad	-0.07451377
70	0x3d4042ae	0.04693859
71	0x3cfb1def	0.030653922
72	0x3de77fb4	0.11303654
73	0xbd9e4dbe	-0.07729672
74	0x3d265284	0.040606037
75	0xbc80f2a6	-0.015740704
76	0xbcfcfbe8	-0.030881837
77	0xbd50ef55	-0.051009495
78	0x3cff6f02	0.031180862
79	0xbd9d6485	-0.07685188
80	0x3cbcbed3	0.02304021
81	0x3d8e9976	0.06962864
82	0x3d555e81	0.05209208
83	0x3dff75f7	0.12473672
84	0x3ba1c1c9	0.004936431
85	0x3d1fccf9	0.039013837
86	0x3d63a4a4	0.055576935
87	0x3c9b8de7	0.018988563
88	0xbd8fd9a0	-0.070239305
89	0x3cfecb2f	0.031102745
90	0x3d415e41	0.04720903
91	0xbc38394b	-0.011244128
92	0xbd9e150e	-0.077188596
93	0xbd72c845	-0.059273023
94	0x3d1435be	0.036184065
95	0x3d5a4e0a	0.05329708
96	0x3d5e0ffd	0.054214466
97	0x3cfce83a	0.030872453
98	0x3d351d3a	0.044217326
99	0x3c2509ca	0.010073135
100	0x3cc006fa	0.023440827
101	0xbd872c58	-0.06600255
102	0xbd0bdd96	-0.034146868
103	0xbd837fdd	-0.06420872
104	0x3cfc52b1	0.03080115
105	0xbdb227c4	-0.08698991
106	0xbd8e618b	-0.069521986
107	0x3d4104ca	0.047123708
108	0xbc50230c	-0.012703668
109	0x3d1ce63c	0.038305506
110	0xbda18542	-0.07886745
111	0x3ca62f95	0.02028636
112	0x3c172545	0.009225194
113	0x3d2cc002	0.0421753
114	0xbc6090ca	-0.013706395
115	0xbda50ee4	-0.08059481
116	0x3d170144	0.03686644
117	0x3d93c6a7	0.07215624
118	0xbd91d435	-0.071205534
119	0xbc9d050e	-0.01916745
120	0x3d3dbe46	0.046324037
121	0x3dbfa340	0.09357309
122	0x3d4bd2f5	0.04976173
123	0xbc9de1c2	-0.019272689
124	0xbb55c5e9	-0.0032619184
125	0x3c4ef2a0	0.0126310885
126	0x3da3c74b	0.079969965
127	0x3dd510ba	0.10403581
128	0xbbffb63c	-0.0078037065
129	0xbcebc189	-0.028778808
130	0x3d747983	0.059686195
131	0x3dccc005	0.09997562
132	0xbdc1dc99	-0.09465904
133	0xbd616bfa	-0.055034615
134	0x3b544662	0.0032390584
135	0xbcccbdb2	-0.024992798
136	0xbd8f3e50	-0.06994307
137	0x3dc86f54	0.09786859
138	0xbc4b99cb	-0.012426804
139	0x3d8b4266	0.06799774
140	0xbdb7785b	-0.08958503
141	0xbbbf7d61	-0.0058438038
142	0x3e160af9	0.14652623
143	0x3d6115a5	0.054952282
144	0xbdb45a5e	-0.08806299
145	0x3d965893	0.07341113
146	0x3d62d795	0.055381376
147	0xbe41ab2b	-0.18912952
148	0xbc3fba91	-0.011702196
149	0x3c8ff1e9	0.017571406
150	0xbc1ffefc	-0.009765383
151	0x3d2aad56	0.041669212
152	0x3d29e593	0.041478705
153	0xbcf325f8	-0.02968119
154	0x3e06d5de	0.13167521
155	0x3c420c8a	0.01184381
156	0x3d8ab87b	0.06773468
157	0x3d76384b	0.06011228
158	0x3b82e61d	0.003994717
159	0xbd3ca902	-0.046059616
160	0xbd8ebc1a	-0.06969471
161	0xbdf1ac61	-0.11800457
162	0xbb7f0889	-0.0038915
163	0xbc848788	-0.016177908
164	0xbd321796	-0.043479525
165	0xbe01e065	-0.12683256
166	0x3c3a2166	0.011360502
167	0x3e3832a3	0.17988066
168	0x3c0300bf	0.007995783
169	0xbd1e148d	-0.038593818
170	0xbe48584c	-0.19564933
171	0xbd193120	-0.037400365
172	0xbdbe0fe2	-0.09280373
173	0xbd75f506	-0.060048126
174	0x3ba08dd8	0.0048997216
175	0xbdd55a4b	-0.10417613
176	0x3d87e63f	0.06635713
177	0xbdbd3781	-0.09239102
178	0x3d383274	0.04496999
179	0x3d8bebf1	0.068321116
180	0x3d905028	0.070465386
181	0xbd645958	-0.055749267
182	0xbc91d95c	-0.01780384
183	0x3db00101	0.085939415
184	0x3d68e393	0.056857657
185	0x3d4caac4	0.049967542
186	0xbd8d2182	-0.06891157
187	0xbce6f4b5	-0.028192857
188	0xbdb612d5	-0.08890311
189	0x3d89dde3	0.06731775
190	0xbd50a033	-0.050934028
191	0x3cd4f26c	0.025994502
192	0x3c0ccf35	0.008594324
193	0x3e2fcbde	0.17167613
194	0x3d1c69d9	0.03818688
195	0x3ce9252c	0.028460108
196	0x3cce66d1	0.025195511
197	0xbd3e7792	-0.04650075
198	0xbd096c1f	-0.033550378
199	0xbdb73313	-0.089452885
200	0xbdd81f46	-0.1055284
201	0x3d97a36f	0.07404219
202	0xbdc83bac	-0.097770065
203	0x3db08e17	0.086208515
204	0x3be56bbc	0.0070013683
205	0x3ccead86	0.025229227
206	0xbdae080b	-0.08497628
207	0x3ccbb034	0.024864294
208	0x3d0a3696	0.033743463
209	0x3dc9df82	0.09857084
210	0xbada5432	-0.0016657172
211	0xbe5cab40	-0.21549702
212	0xbd92cf5c	-0.07168457
213	0xbd6b05be	-0.057378523
214	0x3d774479	0.060368035
215	0x3d29d5e4	0.041463748
216	0xbd92ecf1	-0.07174099
217	0x3c7b5d09	0.0153420055
218	0x3b0a1faf	0.0021076014
219	0xbbc40c92	-0.005982944
220	0xbd8261d9	-0.06366319
221	0xbd71adb5	-0.05900355
222	0xbd90fbc6	-0.07079272
223	0xbb9c1886	-0.0047636656
224	0x3d83e98e	0.064410314
225	0x3c428f0f	0.011874928
226	0xbcab77a0	-0.020931065
227	0x3cdb9d29	0.026808338
228	0xbe0c978c	-0.13729686
229	0x3d9c8037	0.076416425
230	0x3e0a08fb	0.13479988
231	0xbd02910a	-0.0318766
232	0x3d0ddbec	0.034633562
233	0xbd6384cc	-0.055546567
234	0x3cbb5ba8	0.022870854
235	0x3e085b88	0.13316166
236	0xbccd07d5	-0.025028149
237	0x3d73a3a6	0.05948224
238	0xbd8594a7	-0.06522494
239	0xbdb7e7a2	-0.08979727
240	0xbd91f8bf	-0.07127523
241	0xbe0c8ae9	-0.13724865
242	0x3d940c32	0.072288886
243	0x3d6f4c8f	0.05842262
244	0x3d938fc5	0.07205156
245	0xbd004a0f	-0.031320628
246	0x3c734b21	0.014849455
247	0xbca9d58b	-0.020731708
248	0x3d0c6843	0.03427912
249	0xbaba1fb8	-0.0014200127
250	0xbcd78f0b	-0.026313325
251	0xbdc1fd59	-0.0947215
252	0xbe26665f	-0.16249989
253	0xbe1a227b	-0.15052216
254	0xbd1e2c5b	-0.03861652
255	0x3c49519c	0.012287524

layers.3.bias f4 [128]
0	0x3dd55f85	0.104186095
1	0x3c68c459	0.014206969
2	0xbc8520b5	-0.016250947
3	0x3da062e9	0.078313656
4	0x3d5ee4f0	0.05441755
5	0xbd8e60ee	-0.069520816
6	0xbc87aaee	-0.016560998
7	0xbdc4db84	-0.09612182
8	0xbcfd1ed8	-0.030898497
9	0x3d5d7b3b	0.0540726
10	0x3e04d82e	0.12973091
11	0xbd5366f8	-0.05161187
12	0xbd0ac9b3	-0.03388376
13	0xbca8d4b6	-0.020609241
14	0xbd80efc5	-0.062957324
15	0x3d39ffa1	0.045409802
16	0x3bdae2c7	0.006679866
17	0x3d1263ce	0.035739712
18	0xbd9b73c0	-0.07590437
19	0x3d87d107	0.06631666
20	0x3c9b19d9	0.018933224
21	0x3e355f62	0.17712167
22	0xbe139444	-0.14412028
23	0x3d81ba0e	0.06334315
24	0xbad988bf	-0.001659654
25	0x3d3ab215	0.04557999
26	0xbd58ebe0	-0.052959323
27	0x3e8a12d7	0.269675
28	0x3d234131	0.039857093
29	0x3d9a32e1	0.07529236
30	0xbd34f8ba	-0.044182517
31	0x3db4e795	0.08833233
32	0xbd572449	-0.05252484
33	0x3d695820	0.05696881
34	0xbd403a63	-0.046930682
35	0x3d28ba73	0.041193437
36	0xbd4d875e	-0.050177924
37	0xbe00ca7c	-0.12577242
38	0x3bae3a76	0.0053170277
39	0x3d78e72c	0.060767338
40	0x3e333549	0.17500795
41	0xbc24c7b4	-0.010057379
42	0xbcb749e9	-0.02237411
43	0x3d1d9874	0.03847547
44	0xbbe5f2aa	-0.007017453
45	0xbd849c24	-0.06475094
46	0xbce7c700	-0.028293133
47	0x3dabf7b1	0.08396853
48	0x3c93cfc8	0.018043414
49	0x3e20487b	0.15652649
50	0x3df6ffb4	0.1206049
51	0xbd32d00f	-0.04365545
52	0xbde2bf8c	-0.11071691
53	0x3e04d931	0.12973477
54	0x3c545312	0.012959259
55	0x3cc68910	0.024235278
56	0x3d638f3c	0.05555652
57	0x3de99f7f	0.114073746
58	0x3c26f33f	0.01018983
59	0x3db8ddb5	0.09026662
60	0x3e13a417	0.14418064
61	0x3d8f98e9	0.07011587
62	0x3da72d4f	0.08162939
63	0xbd8bdcac	-0.06829199
64	0x3d826ad0	0.06368029
65	0xbc6743f1	-0.01411532
66	0xba169b38	-0.00057451753
67	0x3d64a937	0.05582544
68	0xbd089efc	-0.033354744
69	0x3bf753a5	0.007547813
70	0x3e0297d5	0.12753232
71	0xbd2d96e0	-0.042380214
72	0x3d9c9859	0.076462455
73	0x3e03d170	0.12872863
74	0x3d4a6a9f	0.049418088
75	0x3e03b6aa	0.1286265
76	0xbd79cd9f	-0.06098711
77	0x3cabd924	0.020977564
78	0xbd1b54fe	-0.03792285
79	0x3db770bd	0.0895705
80	0x3dd8d962	0.105883375
81	0xbd74a5ac	-0.05972831
82	0xbd1faf55	-0.03898557
83	0x3cf2b5ed	0.029627765
84	0x3d801dbe	0.06255673
85	0x3d4d9a32	0.05019588
86	0x3de48055	0.1115729
87	0xbc94cee2	-0.018165056
88	0x3d69abb2	0.057048507
89	0xbdb6256a	-0.08893855
90	0x3e5435e9	0.2072369
91	0x3c094b9b	0.008379842
92	0x3d84f151	0.0649134
93	0x3cd18df6	0.025580388
94	0xbd89eedc	-0.06735012
95	0x3e396be8	0.18107569
96	0xbdf0e8f7	-0.117631845
97	0x3d464d67	0.04841366
98	0xbcd1b1e4	-0.02559752
99	0x3da33de9	0.07970793
100	0x3da4c119	0.08044643
101	0x3d8d27e7	0.068923764
102	0x3d8b7d0f	0.068109624
103	0xbd31da97	-0.043421354
104	0xbb87b6c7	-0.004141662
105	0xbda636c3	-0.08115914
106	0xbcdf61ae	-0.027268257
107	0xbbfad4e8	-0.007654775
108	0x3da2a1ec	0.079410404
109	0xbdb04cf4	-0.08608428
110	0x3e1385f4	0.14406568
111	0x3dddfefd	0.10839651
112	0xbd0c6959	-0.034280155
113	0x3ddc3695	0.10752598
114	0xbd673d26	-0.0564548
115	0x3d0d0d6d	0.034436632
116	0x3db67b0c	0.08910188
117	0x3b9e9637	0.0048396843
118	0xbd7ec172	-0.062196203
119	0xbd0e35dd	-0.034719337
120	0xbded3622	-0.11582591
121	0x3cc55c07	0.024091734
122	0xbb2bbb63	-0.002620422
123	0xbd56a778	-0.052405804
124	0x3d276906	0.040871643
125	0x3d11f44c	0.03563337
126	0xbd9cfde9	-0.07665617
127	0xbdbfb127	-0.09359961

layers.5.weight f4 [128]
0	0x3f802982	1.0012667
1	0x3f82d734	1.0221925
2	0x3f781c81	0.96918494
3	0x3f7badd7	0.98312134
4	0x3f809984	1.0046849
5	0x3f846328	1.034276
6	0x3f841fcf	1.0322207
7	0x3f83d142	1.0298235
8	0x3f79168c	0.9730003
9	0x3f782d82	0.9694444
10	0x3f7d357a	0.98909724
11	0x3f7e9635	0.9944795
12	0x3f760885	0.9610675
13	0x3f77eec5	0.9684871
14	0x3f7fa569	0.9986177
15	0x3f8f4f97	1.1196164
16	0x3f7d1dac	0.988734
17	0x3f72df78	0.94872236
18	0x3f7c36e8	0.9852128
19	0x3f765502	0.9622346
20	0x3f78aaf2	0.9713584
21	0x3f7d1ef6	0.9887537
22	0x3f7d92bd	0.9905203
23	0x3f84faf7	1.0389088
24	0x3f79f933	0.9764587
25	0x3f7a0032	0.9765655
26	0x3f81424c	1.0098357
27	0x3f98b378	1.192977
28	0x3f806f96	1.0034053
29	0x3f78527b	0.97000855
30	0x3f7d158f	0.9886102
31	0x3f81a63f	1.0128859
32	0x3f7fce88	0.99924517
33	0x3f8194ec	1.0123572
34	0x3f7f8cdd	0.99824315
35	0x3f729b4c	0.94768214
36	0x3f7d6a28	0.98990107
37	0x3f860634	1.0470643
38	0x3f82a183	1.020554
39	0x3f80d22e	1.0064142
40	0x3f7c44df	0.9854259
41	0x3f7d28b6	0.98890245
42	0x3f76740d	0.9627083
43	0x3f792c83	0.97333544
44	0x3f7db838	0.9910922
45	0x3f82303a	1.0170968
46	0x3f826167	1.0185975
47	0x3f7c049c	0.98444533
48	0x3f7716c7	0.9651913
49	0x3f829d21	1.0204202
50	0x3f8af79c	1.0856814
51	0x3f81d6f9	1.014373
52	0x3f7c673b	0.9859502
53	0x3f7ada19	0.9798904
54	0x3f72c3af	0.9482984
55	0x3f7e1350	0.9924822
56	0x3f86c857	1.0529889
57	0x3f77268e	0.96543205
58	0x3f7c740c	0.98614573
59	0x3f79537d	0.9739302
60	0x3f88fea7	1.0702714
61	0x3f95b61d	1.1696202
62	0x3f826395	1.018664
63	0x3f74700b	0.95483464
64	0x3f815ee9	1.0107089
65	0x3f8435fc	1.0328975
66	0x3f80ffa2	1.0078013
67	0x3f7ca6f7	0.9869227
68	0x3f8a0a19	1.0784332
69	0x3f83b18e	1.028856
70	0x3f8752aa	1.0572102
71	0x3f792a64	0.9733031
72	0x3f741114	0.9533856
73	0x3f877cb1	1.0584928
74	0x3f82f321	1.0230447
75	0x3f7e05ab	0.992274
76	0x3f820e23	1.0160564
77	0x3f7e3cea	0.993117
78	0x3f7e0ffe	0.9924315
79	0x3f7ffad3	0.999921
80	0x3f792701	0.9732514
81	0x3f7f726d	0.99783975
82	0x3f74c3c6	0.95611227
83	0x3f7d2290	0.98880863
84	0x3f7cf6a9	0.98813874
85	0x3f7baf2f	0.98314184
86	0x3f83cff1	1.0297834
87	0x3f7c9a88	0.98673296
88	0x3f7d5311	0.98954874
89	0x3f754eb5	0.9582322
90	0x3f8b4b97	1.0882443
91	0x3f7b7d0e	0.98237693
92	0x3f8630ee	1.0483682
93	0x3f7b4c3b	0.98163193
94	0x3f776e24	0.96652436
95	0x3f8207b3	1.01586
96	0x3f714106	0.9423984
97	0x3f741137	0.9533877
98	0x3f7d9ca6	0.9906715
99	0x3f7df92c	0.9920833
100	0x3f7ab7c4	0.97936654
101	0x3f815154	1.0102944
102	0x3f847a09	1.0349742
103	0x3f850e2b	1.0394949
104	0x3f77cf1d	0.96800405
105	0x3f7b0e89	0.98069054
106	0x3f740bf5	0.95330745
107	0x3f7ea6a9	0.99473053
108	0x3f810b7d	1.0081631
109	0x3f7fd41c	0.9993303
110	0x3f849490	1.0357838
111	0x3f711eb1	0.94187456
112	0x3f74905b	0.9553277
113	0x3f739df9	0.9516292
114	0x3f95df08	1.1708689
115	0x3f7e324e	0.9929551
116	0x3f8162e2	1.0108302
117	0x3f8346dd	1.0256001
118	0x3f7b590b	0.98182744
119	0x3f6b4f67	0.91918033
120	0x3f770685	0.96494323
121	0x3f7bd280	0.9836807
122	0x3f80f6fe	1.0075376
123	0x3f8122ad	1.0088707
124	0x3f7f5495	0.99738437
125	0x3f735214	0.95047116
126	0x3f7f98e9	0.998427
127	0x3f7411e6	0.9533981

layers.5.bias f4 [128]
0	0x3ccde050	0.025131375
1	0xbd03d169	-0.03218213
2	0x3bb1e0e9	0.0054284227
3	0xbc9295b7	-0.017893655
4	0x3b4862ef	0.0030576547
5	0x3c7cf261	0.015438647
6	0x3c19b11f	0.009380608
7	0x3cc1f240	0.023675084
8	0x3c8f1de0	0.0174703
9	0x3c88a423	0.016679829
10	0xbbfdb804	-0.0077428836
11	0xbc53a05c	-0.012916651
12	0x3b9e7d4c	0.004836714
13	0xbca64e36	-0.020300966
14	0xbb87fc61	-0.004149959
15	0xbbd75497	-0.006571363
16	0x3cc53e39	0.024077522
17	0x3d04bc3b	0.032406073
18	0x3c791064	0.015201662
19	0x3c991e25	0.018691132
20	0x3c8f87ea	0.017520864
21	0x3cb149d4	0.02164165
22	0x3ccc2d42	0.024923924
23	0x3c3ced4f	0.011531188
24	0x3cbe3069	0.023216443
25	0x3abd3289	0.0014434616
26	0xba6a0188	-0.000892662
27	0x3cc7c96e	0.024388041
28	0xbce0b08e	-0.027427938
29	0x3c3e4021	0.011611969
30	0xbc5f56dd	-0.01363155
31	0x3c3a200f	0.011360182
32	0x3c3f1abd	0.01166409
33	0x3a4d01ad	0.0007820379
34	0xbc9036a9	-0.017604189
35	0x3a7c1f18	0.00096176704
36	0x3ca11abe	0.019666072
37	0x3851a362	4.9981645e-05
38	0x3c661cf9	0.014044994
39	0x3c8dca9d	0.017308528
40	0x3c70949e	0.014683871
41	0x3baf5381	0.0053505306
42	0x3c8d798f	0.017269878
43	0xbb01ea18	-0.0019823369
44	0x3ca3bc43	0.019987231
45	0x3c099a9e	0.00839868
46	0xbb4ca09c	-0.003122366
47	0xbc805f9c	-0.01567059
48	0x3b8ef61c	0.0043628346
49	0xbcae3578	-0.02126573
50	0xbb28ea53	-0.0025774434
51	0x3c61e1a4	0.013786707
52	0x3c0195fb	0.007909293
53	0x3cd1cee0	0.025611341
54	0x3c81df48	0.01585354
55	0x3caae8f5	0.020863036
56	0xbc7fcf5b	-0.015613402
57	0xbb7907c1	-0.0037999006
58	0x3ba9f403	0.005186559
59	0x3c3d13b2	0.01154034
60	0x3cad8a60	0.021184146
61	0xbc1daf6d	-0.009624344
62	0x3bfd9867	0.007739115
63	0x3be02426	0.0068402467
64	0x3ca4ba92	0.020108495
65	0xbbe3014a	-0.006927644
66	0x3cc97e3f	0.024596332
67	0x3ac03bd3	0.0014666267
68	0x3ce57f2a	0.028014738
69	0x3b9c62bc	0.0047725122
70	0x3c1ee59b	0.009698297
71	0x3abdea27	0.0014489339
72	0x3cec67b9	0.028858053
73	0xbb14b711	-0.0022692124
74	0x3d1aa7ce	0.037757687
75	0x3baccf82	0.0052737603
76	0x3c8de4b2	0.017320964
77	0x3adb6dcf	0.00167411
78	0x3d46cba3	0.048534047
79	0x3cc4b754	0.024013199
80	0x3c75d190	0.015003577
81	0xbc05f770	-0.0081766695
82	0x3c6002a5	0.0136725055
83	0x3c8a4ebb	0.016883245
84	0x3c380f3c	0.011234101
85	0x3be15e32	0.006877684
86	0xbc43252c	-0.011910718
87	0xbb0a8c01	-0.0021140578
88	0x3bc30469	0.0059514535
89	0x3ca0da0c	0.019635223
90	0xbb87b80b	-0.0041418127
91	0x3b7fc5a8	0.0039027724
92	0xbc06b3b6	-0.008221557
93	0xbc27312e	-0.010204596
94	0xbc8af1b1	-0.01696095
95	0x3d027c53	0.031856846
96	0x3c4086b6	0.011750868
97	0x3c26daae	0.010183973
98	0xbb8f18a3	-0.0043669506
99	0xbab211fd	-0.0013585683
100	0x3a7c9460	0.00096351467
101	0xbd135c2d	-0.035976578
102	0x3bb48310	0.005508788
103	0xbc9a7655	-0.018855253
104	0x3cab836c	0.02093669
105	0xbc07ed56	-0.008296331
106	0x3d0313d2	0.032001324
107	0x3b516968	0.0031953696
108	0x3d081763	0.03322543
109	0x3ba7eaff	0.0051244493
110	0xbb7f80d1	-0.0038986693
111	0x3b810ead	0.003938517
112	0x3cc0b581	0.023524048
113	0x3d239e80	0.03994608
114	0x3d2838a8	0.041069657
115	0x3c9c2bf2	0.019063924
116	0x3c82a9cb	0.015950104
117	0xbc17ce1e	-0.009265451
118	0x3c4920e3	0.012275907
119	0x3bb3bfec	0.0054855254
120	0x3c6e27d3	0.014535862
121	0x3c3a936a	0.011387685
122	0x3bf97db1	0.0076138605
123	0x3bddecc7	0.006772611
124	0x3d03f5e1	0.03221691
125	0xbc259aa8	-0.010107674
126	0xbc126b49	-0.008936712
127	0x3c00d3ce	0.007862998

layers.5.running_mean f4 [128]
0	0x3e6a643c	0.22889799
1	0x3e83781b	0.2567757
2	0x3e9b2b12	0.30306298
3	0x3f54633e	0.8296393
4	0x3e976a03	0.29573068
5	0x3e5bedb9	0.21477403
6	0x3e9ea1c3	0.3098279
7	0x3f006c01	0.501648
8	0x3e96233a	0.2932375
9	0x3e254d25	0.1614271
10	0x3eb9fbac	0.36324823
11	0x3e92e072	0.28686863
12	0x3ea94cde	0.33066458
13	0x3ecfcf87	0.40588018
14	0x3e95f517	0.2928855
15	0x3edb2467	0.4280121
16	0x3e8bdfeb	0.27319273
17	0x3e4e472f	0.20144342
18	0x3e3c1e78	0.18370998
19	0x3eba3b6f	0.3637347
20	0x3ea66778	0.32500815
21	0x3eb1dd56	0.34739178
22	0x3e9d12e6	0.3067848
23	0x3eec1891	0.46112493
24	0x3e79e653	0.24404268
25	0x3e99586e	0.2995028
26	0x3e3f47c3	0.18679719
27	0x3f791b0a	0.97306883
28	0x3eb1b786	0.3471033
29	0x3eba4ff5	0.36389127
30	0x3e7faf26	0.24969158
31	0x3ea8323a	0.3285082
32	0x3eb797ca	0.35857993
33	0x3ee6b444	0.45059407
34	0x3e0d74f7	0.1381415
35	0x3eb737de	0.3578481
36	0x3e9c3e61	0.3051634
37	0x3e5b66a1	0.21425869
38	0x3ebf130a	0.37319213
39	0x3ee5f940	0.44916725
40	0x3efd0706	0.4941942
41	0x3e8f1213	0.27943477
42	0x3eceac25	0.4036571
43	0x3e09550a	0.13411346
44	0x3e51830f	0.20460151
45	0x3f13522c	0.5754726
46	0x3e3ae07a	0.18249694
47	0x3e76686c	0.24063271
48	0x3ddfc308	0.10925871
49	0x3f177e94	0.5917752
50	0x3f1131ae	0.5671643
51	0x3e466ec7	0.19378196
52	0x3e9fc313	0.31203517
53	0x3e89f4e2	0.26944643
54	0x3e9dacae	0.30795807
55	0x3dde49ad	0.10853896
56	0x3ede841b	0.43460163
57	0x3f5fdf93	0.8745052
58	0x3e84eeb5	0.2596337
59	0x3e84ebac	0.25961053
60	0x3f057b89	0.52141625
61	0x3f2ede60	0.6830807
62	0x3eab2bce	0.33431858
63	0x3e2d80c3	0.1694365
64	0x3ebe855f	0.3721113
65	0x3e84f640	0.25969124
66	0x3e67889b	0.22610705
67	0x3e6fdaaf	0.23423265
68	0x3ee64ff3	0.4498287
69	0x3ed5ac19	0.41732863
70	0x3f169868	0.58826303
71	0x3e7bc6d7	0.2458757
72	0x3ecd53f1	0.40103105
73	0x3ef73f3c	0.48290431
74	0x3eaf4126	0.34229392
75	0x3eb8bb7a	0.36080533
76	0x3e61ba46	0.22043714
77	0x3e71d089	0.23614706
78	0x3ea79415	0.32730165
79	0x3ea3650e	0.31913036
80	0x3ef61ccc	0.48068845
81	0x3e807d8e	0.2509579
82	0x3ed18c00	0.40927124
83	0x3ee778f6	0.45209473
84	0x3e888eae	0.26671356
85	0x3ed8057b	0.4219168
86	0x3eacf05d	0.33777133
87	0x3eaf4c64	0.3423797
88	0x3e3110c7	0.17291556
89	0x3dee8dfe	0.116481766
90	0x3f0c12f9	0.5471645
91	0x3ec2b67a	0.38029844
92	0x3eaab101	0.33338168
93	0x3ede9c21	0.43478492
94	0x3ec573aa	0.38564807
95	0x3f0db97b	0.55361146
96	0x3e22b86f	0.15890668
97	0x3e7cd3a6	0.24690112
98	0x3e91fef2	0.2851482
99	0x3e2c6694	0.16836005
100	0x3ee314d9	0.44351843
101	0x3ebaf0f7	0.36511967
102	0x3f23a124	0.63917756
103	0x3e998040	0.2998066
104	0x3e7aaabc	0.24479192
105	0x3e4847c0	0.1955862
106	0x3ea6d77f	0.32586285
107	0x3ea47086	0.321171
108	0x3ef6a998	0.48176265
109	0x3e42ad19	0.19011344
110	0x3ec3670a	0.3816455
111	0x3ec27002	0.3797608
112	0x3e81bee3	0.25340948
113	0x3e8f1016	0.2794196
114	0x3e9a3f64	0.30126488
115	0x3e625fff	0.22106932
116	0x3ecd6c6e	0.40121788
117	0x3f19fbed	0.60150033
118	0x3e6bd884	0.23031813
119	0x3eb8b5d6	0.3607623
120	0x3dcb648f	0.099312894
121	0x3ec21cdd	0.37912646
122	0x3e8df905	0.2772905
123	0x3ee91574	0.4552418
124	0x3e5187a4	0.20461899
125	0x3e869002	0.26281744
126	0x3e40036e	0.18751308
127	0x3e581c61	0.21104576

layers.5.running_var f4 [128]
0	0x3e1a2d04	0.15056235
1	0x3dbd2227	0.0923503
2	0x3f81f9b4	1.0154328
3	0x400119c0	2.0171967
4	0x3d784901	0.060616497
5	0x3d9ae2b8	0.075627744
6	0x3dc5717f	0.09640788
7	0x3f9c89ab	1.2229513
8	0x3eb702f6	0.35744447
9	0x3e9d05fa	0.30668622
10	0x3de868ac	0.113480896
11	0x3e5470df	0.20746182
12	0x3f0bed92	0.5465938
13	0x3f373e33	0.71579283
14	0x3eb95ffb	0.3620604
15	0x3dfdb10b	0.12387284
16	0x3ee7ca02	0.45271307
17	0x3eb18eaa	0.34679157
18	0x3ea56865	0.3230621
19	0x3dc127f9	0.09431452
20	0x3e2133cc	0.15742415
21	0x3d67a90e	0.056557707
22	0x3f2e5b24	0.6810782
23	0x3e6fdfac	0.23425168
24	0x3d89f6d5	0.067365326
25	0x3efe2cf8	0.49643683
26	0x3d0581a2	0.03259433
27	0x3e26abde	0.162765
28	0x3e146666	0.14492187
29	0x3e6d4fb9	0.23174943
30	0x3e073b13	0.13206129
31	0x3e0fa329	0.14027084
32	0x3f82907b	1.0200342
33	0x3e597c1f	0.21238755
34	0x3e145f41	0.14489461
35	0x3dd82c23	0.105552934
36	0x3e80985f	0.2511625
37	0x3f070e1c	0.52755904
38	0x3e8baf15	0.27282014
39	0x3dffc570	0.1248883
40	0x3d92fcc3	0.07177117
41	0x3ecf216b	0.40455183
42	0x3f702d48	0.93819094
43	0x3deeec98	0.116662204
44	0x3efb84d8	0.4912479
45	0x4016a588	2.3538532
46	0x3ed268d1	0.41095594
47	0x3e1d6107	0.15369044
48	0x3da6cbd2	0.081443444
49	0x3d8f2534	0.06989518
50	0x3e4ae090	0.19812226
51	0x3dc5a216	0.09650056
52	0x3f2eed33	0.6833069
53	0x3e47a7d4	0.19497615
54	0x3e741346	0.23835477
55	0x3df4dfd4	0.11956754
56	0x3e3f1ada	0.18662587
57	0x3f761d5f	0.96138567
58	0x3ead064a	0.3379386
59	0x3deeddda	0.116634086
60	0x3e00d0b4	0.12579614
61	0x3fa418bc	1.2820048
62	0x3f273683	0.65317553
63	0x3d9b659f	0.07587742
64	0x3e093638	0.13399589
65	0x3e0bba56	0.136453
66	0x3d8d1a22	0.0688975
67	0x3e151417	0.14558445
68	0x401c5ae0	2.4430466
69	0x3f632eb0	0.88743114
70	0x3ec72567	0.38895723
71	0x3ddd5fff	0.108093254
72	0x3e561749	0.2090732
73	0x3df5ff25	0.120115556
74	0x3ee5cac3	0.44881257
75	0x3d300624	0.042974606
76	0x3f17eeda	0.59348834
77	0x3f101168	0.5627656
78	0x3e571fa0	0.21008158
79	0x3e5289cf	0.20560382
80	0x3e407d50	0.18797803
81	0x3f35137c	0.70732856
82	0x3dda8bb6	0.10671179
83	0x3d519823	0.05117048
84	0x3e9fe66c	0.31230485
85	0x3d805848	0.06266838
86	0x3e4a4d1e	0.1975598
87	0x3e3734b8	0.17891204
88	0x3e6d0da7	0.23149739
89	0x3e83b967	0.25727388
90	0x3e933650	0.28752375
91	0x3f19a90a	0.6002356
92	0x3eff5281	0.49867633
93	0x3e9e7a86	0.30952853
94	0x3e5006bc	0.20315069
95	0x3db63bc9	0.08898122
96	0x3e6dea85	0.23233993
97	0x3d8a6b80	0.06758785
98	0x3d426a86	0.04746487
99	0x3d4b63aa	0.049655594
100	0x3e2fc3a3	0.17164473
101	0x3e22e3fe	0.15907285
102	0x3f2d3057	0.67651886
103	0x3ee8e0a6	0.45483893
104	0x3dc56b6c	0.0963963
105	0x3e659212	0.22419003
106	0x3f1906c1	0.5977593
107	0x3e1628a1	0.14663936
108	0x3d823657	0.06358021
109	0x3e8a24f8	0.2698133
110	0x3e294d77	0.16533457
111	0x3f68782f	0.90808386
112	0x3eed0452	0.4629236
113	0x3de3627a	0.11102767
114	0x3e422545	0.1895953
115	0x3e9f83a7	0.3115513
116	0x3e60e3f0	0.21961951
117	0x3f9accd2	1.2093756
118	0x3de6952b	0.1125892
119	0x3d86a9fc	0.06575391
120	0x3d30eb6b	0.043193262
121	0x3e9a7901	0.30170444
122	0x3eb28589	0.34867504
123	0x40092efc	2.1434927
124	0x3ef41887	0.47674963
125	0x3dc2c305	0.09509853
126	0x3de5c910	0.1121999
127	0x3f134bd0	0.57537556
