model/trained_tuned_model.pth (torch, 288566 bytes, 31 tensors)

layers.0.weight f4 [128, 5]
0.08569428 -0.12949903 0.31729987 0.2701057 -0.32236493 -0.3992836 -0.031233326 -0.42880586
0.13282739 -0.27175286 0.08710096 -0.004245289 -0.83889925 -0.36416465 -0.013010045 -0.3566756
1.0076741 -1.4638183 -0.3137884 0.43613684 0.18076025 -0.17264035 0.08439265 -0.026412157
-0.30023524 -0.34409857 -0.07878338 -0.17070207 0.5411621 -0.17549825 -0.23694424 2.8725505
-0.1723218 0.76351905 1.3598154 0.09265831 -7.7774675e-05 -0.10277586 -0.007611126 0.3306154
0.2410754 -0.073543124 0.4397058 -0.3298061 -0.43435162 0.5080843 1.9083202 0.36023468
-0.022658598 2.0444129 0.01261181 -0.031746794 -0.23898834 -0.23380816 -0.17014039 -0.36776567
-0.0629268 -0.67132586 -0.3436167 -0.102802545 0.61080056 0.42934415 1.1307125 0.40333244
0.24851379 0.07485785 -0.24705364 0.23886523 -0.12874846 -0.21032438 0.7137322 0.85560775
0.5507649 0.8444263 0.9878002 0.5119466 -0.14169773 0.43446288 -0.1671512 0.08599567
-0.05611519 -0.41127187 0.09599011 0.6389955 -0.33538124 0.28750196 -0.09034758 0.85900354
0.6370038 -0.2976592 -0.4307654 -0.27249268 0.3156655 0.04578233 0.08422307 -0.10661231
-0.12058822 0.15416133 0.34745726 -0.14724593 0.32927406 -0.4352747 0.2480529 0.5189832
-0.1291084 -0.2702737 -0.029493088 0.0015535654 -0.30775654 -0.050382737 -0.5990325 0.010237347
-0.7229626 -0.295992 -0.2034803 -0.033297613 -0.61037683 0.36147884 0.020796569 0.04323694
0.22241344 -0.17092678 0.569024 0.23401776 -0.40310538 0.114673235 -0.39857364 0.10866097
-0.35395226 -0.220402 0.17955706 -0.4273901 -0.041017305 -0.18463172 -0.30332744 -0.21893366
-0.024094991 0.1103871 -0.3578963 0.036913216 -0.23778264 -0.25434873 -0.054699507 0.5387293
-0.01845264 -0.323806 -0.43195367 -0.3522367 0.14886916 -0.11305756 -0.026620707 -0.17216833
-0.20293267 -0.14312269 0.5434513 -0.41497955 -0.08487102 0.26213086 0.25263116 -0.7691575
-0.88991463 0.2759518 -1.5319804 0.09634064 0.12725563 -0.29223496 -0.07498234 -0.5455074
0.0021597112 -0.16348599 0.060929395 -0.2341969 0.3087078 -0.06766494 -0.35713303 -0.4380139
-0.39829487 -0.3133078 0.3006473 -0.18308742 -0.08742237 -0.51087683 0.41776222 -0.049435966
-0.7345763 0.28574488 -0.25121993 0.55555594 0.3678316 -0.32735297 -0.2911729 -0.19229314
0.1862693 0.36164635 -0.012481515 -0.307052 0.02322174 0.00826516 -0.05652331 -0.42117578
-0.096821174 -0.44694853 0.35751128 -0.017981254 -0.49337676 0.057356086 -0.030532164 0.31343803
0.5624784 -0.31131288 0.057339825 -0.55070865 0.4568847 -0.3846102 -0.73438257 -0.12100345
-0.15283436 0.37223253 -0.09240374 -0.27348605 0.052396912 -0.40484467 0.27323383 0.39856553
-0.15651394 0.44156656 -0.0030395535 -0.020455074 -0.25860336 -0.25617096 0.61276925 0.6650862
0.5354304 0.5234382 0.32224444 -0.009403973 -0.40879562 -0.021486022 0.3509853 -0.21947597
-0.51313764 -0.12935267 0.10085934 -0.040024597 0.58395684 0.34761417 -0.29476243 0.710212
-0.3697263 -0.4932653 0.049716145 -0.25849745 -0.27338198 -0.6827285 -0.20042561 0.14847524
00000000: 7c80 af3d 659b 04be 2175 a23e 4b4b 8a3e
00000010: 040d a5be e66e ccbe 08dd ffbc 718c dbbe
00000020: e703 083e 3123 8bbe fd61 b23d 111c 8bbb
00000030: 1ac2 56bf ca73 babe 1528 55bc 2f9e b6be
00000040: 77fb 803f 665e bbbf e0a8 a0be 544d df3e
00000050: 3719 393e a2c8 30be 0ed6 ac3d 4f5e d8bc
00000060: 6fb8 99be b02d b0be 2e59 a1bd 86cc 2ebe
00000070: 9989 0a3f d0b5 33be 83a1 72be ded7 3740
00000080: 2075 30be fc75 433f 6e0e ae3f a4c3 bd3d
00000090: f61a a3b8 267c d2bd c166 f9bb 6c46 a93e
000000a0: 78dc 763e c79d 96bd 1e21 e13e 58dc a8be
000000b0: 5663 debe d011 023f d643 f43f ae70 b83e
000000c0: 869e b9bc a9d7 0240 c4a1 4e3c ed08 02bd
000000d0: 5cb9 74be 686b 6fbe 4839 2ebe c84b bcbe
000000e0: c4df 80bd 03dc 2bbf 87ee afbe 248a d2bd
000000f0: 6d5d 1c3f ffd2 db3e 30bb 903f 9781 ce3e
00000100: 667a 7e3e 134f 993d a1fb 7cbe 1699 743e
00000110: a3d6 03be 465f 57be 27b7 363f 1c09 5b3f
00000120: eefe 0c3f 522c 583f 79e0 7c3f ef0e 033f
00000130: 3619 11be eb71 de3e af29 2bbe 7f1e b03d
00000140: 0bd9 65bd 3a92 d2be 7696 c43d 3695 233f
00000150: 17b7 abbe 7533 933e 2708 b9bd a8e7 5b3f
00000160: ae12 233f c966 98be 488d dcbe 2984 8bbe
00000170: e99e a13e 4186 3b3d 257d ac3d 8e57 dabd
00000180: f5f6 f6bd 78dc 1d3e ebe5 b13e a3c7 16be
00000190: 9c96 a83e 53dc debe 9401 7e3e 15dc 043f
000001a0: fe34 04be 5061 8abe 7d9b f1bc 01a1 cb3a
000001b0: 4492 9dbe 215e 4ebd 325a 19bf 8cba 273c
000001c0: 1414 39bf 438c 97be 245d 50be 1463 08bd
000001d0: a841 1cbf c113 b93e 915d aa3c 3819 313d
000001e0: 59c0 633e 6e07 2fbe 8fab 113f 5aa2 6f3e
000001f0: d463 cebe cdd9 ea3d d811 ccbe a589 de3d
00000200: 3b39 b5be 10b1 61be cedd 373e e0d2 dabe
00000210: c301 28bd 1910 3dbe bc4d 9bbe 2530 60be
00000220: dc62 c5bc a212 e23d 2f3e b7be 5032 173d
00000230: 4b7d 73be ff39 82be 970c 60bd 2aea 093f
00000240: fe29 97bc e6c9 a5be 0829 ddbe 5e58 b4be
00000250: 2871 183e b98a e7bd ab13 dabc e54c 30be
00000260: 95cd 4fbe c18e 12be a01f 0b3f 3378 d4be
00000270: dbd0 adbd 0436 863e df58 813e 82e7 44bf
00000280: 72d1 63bf 8e49 8d3e ef17 c4bf 3e4e c53d
00000290: 4d4f 023e d29f 95be 5790 99bd 5fa6 0bbf
000002a0: f189 0d3b df68 27be 1a91 793d 50d1 6fbe
000002b0: f30e 9e3e eb93 8abd 24da b6be 5c43 e0be
000002c0: 4eed cbbe e169 a0be 71ee 993e 457b 3bbe
000002d0: 800a b3bd d3c8 02bf eee4 d53e 5e7d 4abd
000002e0: 310d 3cbf 274d 923e e69f 80be ea38 0e3f
000002f0: 6c54 bc3e cf9a a7be 9d14 95be 7ee8 44be
00000300: 61bd 3e3e b629 b93e 457f 4cbc eb35 9dbe
00000310: 853b be3c 986a 073c fc84 67bd 5aa4 d7be
00000320: 2e4a c6bd 70d6 e4be b80b b73e 6c4d 93bc
00000330: e19b fcbe 37ee 6a3d 971e fabc f37a a03e
00000340: 96fe 0f3f 6764 9fbe 2add 6a3d 3efb 0cbf
00000350: cbec e93e a1eb c4be 7f00 3cbf a8d0 f7bd
00000360: 9c80 1cbe 4395 be3e 2c3e bdbd 5d06 8cbe
00000370: 259e 563d cd47 cfbe 4ee5 8b3e c810 cc3e
00000380: 3145 20be 0315 e23e 3f33 47bb 6691 a7bc
00000390: a967 84be d728 83be 72de 1c3f 1743 2a3f
000003a0: f711 093f 0c00 063f 39fd a43e 1f13 1abc
000003b0: a94d d1be 7403 b0bc 58b4 b33e 4fbe 60be
000003c0: fd5c 03bf 0775 04be 578f ce3d d5f0 23bd
000003d0: 327e 153f 7cfa b13e 1aeb 96be 74d0 353f
000003e0: c44c bdbe 458d fcbe 28a3 4b3d c759 84be
000003f0: b9f8 8bbe 4cc7 2ebf 5f3c 4dbe e509 183e

layers.0.bias f4 [128]
-0.22304018 0.045738254 0.40967783 0.12577008 -0.38263378 0.08668893 -0.05501985 0.062794395
0.36523557 0.12661491 0.33284742 0.2547666 -0.009682301 -0.108346134 -0.25411707 -0.10424314
-0.3774158 -0.13096261 -0.0041077975 -0.29214713 0.31739208 -0.31840584 -0.050866775 -0.012963398
-0.214681 0.42671153 0.43688503 -0.12929007 -0.010464936 -0.3450166 -0.043540213 0.35281685
-0.38857466 -0.11873552 0.40316823 -0.2819072 0.17214635 0.07155115 -0.112115115 -0.18761714
-0.2685663 -0.15220179 -0.39758477 0.44402847 0.36004487 0.060729425 -0.17852601 0.26888645
-0.025375618 0.089129984 -0.051522143 0.06741476 0.21077058 -0.05957929 -0.17294173 -0.41288453
0.20992576 -0.042127475 0.25336123 -0.41129062 0.2978334 0.17557299 0.41647017 -0.063215256
0.4073426 -0.095438585 -0.21974684 0.31528622 0.19077538 0.056321632 0.10243278 0.038699664
-0.020684632 0.42604926 -0.14204557 0.059779696 -0.21994253 -0.4304845 -0.3925434 0.2991005
-0.023183689 0.15712 0.26017827 -0.21765105 -0.12005732 0.22865039 -0.025342293 -0.06745068
-0.09292759 0.06697465 -0.35276657 0.18443489 0.30169913 -0.16502196 0.23810376 -0.04503591
-0.049406163 -0.40207618 -0.3405954 0.37533483 -0.0023544717 0.19372685 -0.27152404 -0.19576353
0.011311943 0.12898946 -0.2949472 0.3590525 0.3873317 0.4156623 0.12708034 -0.053166356
-0.30583987 0.27602684 -0.35155854 0.37966272 -0.29175028 0.27510068 0.28836247 -0.43768346
0.3526534 0.09812522 -0.43922925 0.20401947 -0.24462318 -0.15730883 -0.007750394 -0.18269098
00000000: a564 64be 0958 3b3d 4bc1 d13e dfc9 003e
00000010: 93e8 c3be f789 b13d 7f5c 61bd 599a 803d
00000020: 2800 bb3e 57a7 013e fa6a aa3e c570 823e
00000030: 84a2 1ebc 94e4 ddbd a21b 82be 6d7d d5bd
00000040: a53c c1be 101b 06be b49a 86bb 4f94 95be
00000050: 3781 a23e 1706 a3be ae59 50bd 6f64 54bc
00000060: 56d5 5bbe ef79 da3e 65af df3e 9e64 04be
00000070: 1f75 2bbc 04a6 b0be 3957 32bd 69a4 b43e
00000080: 42f3 c6be 9c2b f3bd 116c ce3e 2456 90be
00000090: 2247 303e 6989 923d 9c9c e5bd b51e 40be
000000a0: 8681 89be c9da 1bbe 3b90 cbbe b357 e33e
000000b0: cd57 b83e 6bbf 783d 86cf 36be 7cab 893e
000000c0: 87e0 cfbc c889 b63d e208 53bd c010 8a3d
000000d0: 3ed4 573e 6a09 74bd a317 31be 9a65 d3be
000000e0: c7f6 563e dc8d 2cbd 90b8 813e af94 d2be
000000f0: 9f7d 983e 68c9 333e 943b d53e 0077 81bd
00000100: 368f d03e 4e75 c3bd 5105 61be 326d a13e
00000110: 9f5a 433e 83b1 663d 47c8 d13d 8a83 1e3d
00000120: d172 a9bc 2123 da3e 6574 11be 8edb 743d
00000130: 9d38 61be 7768 dcbe 73fb c8be b323 993e
00000140: b8eb bdbc 11e4 203e 1636 853e ebdf 5ebe
00000150: 9de0 f5bd 5423 6a3e a49a cfbc 9523 8abd
00000160: d250 bebd 012a 893d d29d b4be 80dc 3c3e
00000170: 4f78 9a3e 84fb 28be 79d1 733e 9377 38bd
00000180: 1e5e 4abd eedc cdbe 8562 aebe e32b c03e
00000190: 7b4d 1abb 5560 463e 3305 8bbe 3c76 48be
000001a0: ba55 393c d015 043e 5203 97be bbd5 b73e
000001b0: 5750 c63e b0d1 d43e 5921 023e f7c4 59bd
000001c0: 0b97 9cbe 6453 8d3e 7bff b3be 2763 c23e
000001d0: 4b60 95be ffd9 8c3e 3fa4 933e 0c18 e0be
000001e0: fd8e b43e e0f5 c83d a8e2 e0be 7bea 503e
000001f0: 807e 7abe 9115 21be 04f7 fdbb 5813 3bbe

layers.2.weight f4 [128]
1.0134598 0.98643297 1.0019493 1.5389599 1.0 0.968275 0.65421087 0.82402176
0.9410719 0.88691974 0.97994095 1.096861 1.1679809 0.99925566 0.95221204 0.88250965
0.9154189 1.2289871 1.0 1.0012318 0.88175035 0.99511933 1.1335391 0.98407406
1.0916266 0.9740661 0.9944131 1.0082738 0.9769718 1.0 0.93963367 0.8927878
1.5624182 1.1125549 0.9754363 1.0 1.0124387 1.0647136 1.0 1.0376502
0.9977106 1.0494637 0.9814712 1.013029 0.9637382 0.9823506 0.9266847 0.99553996
0.8354469 0.94932 1.073739 0.975384 0.99373776 1.015805 1.0 1.0
0.79547554 1.0 0.8717371 1.042065 0.99961257 0.8399044 0.73920184 1.0365684
0.84985554 1.1143929 1.0 1.3459862 0.98753405 0.96932745 0.99939334 0.97993344
0.9471831 0.99408877 0.9142511 1.0002526 0.9974074 1.0403067 0.80896103 0.9962568
1.0 1.0219121 0.9673982 1.0001051 1.0 1.5000421 1.0 1.0
0.9710287 0.83563066 1.0 0.9571509 1.0517144 0.97353506 1.065334 1.0
1.0 1.0 0.9966272 0.95954835 1.0 0.96889895 0.9247059 1.0
0.74052685 0.97849977 1.0087614 0.99309593 0.8185193 1.0688905 1.027026 0.9999901
0.84739566 0.99406403 1.025184 1.3080013 1.0844849 1.068399 0.983299 0.99969625
0.91941667 0.99635863 0.9932725 0.95190686 1.0 0.96758425 1.0 1.0230776
00000000: 0db9 813f df86 7c3f e03f 803f a3fc c43f
00000010: 0000 803f dfe0 773f 5d7a 273f 17f3 523f
00000020: 17ea 703f 2c0d 633f 69dd 7a3f f165 8c3f
00000030: 6680 953f 38cf 7f3f 2bc4 733f 27ec 613f
00000040: e558 6a3f 734f 9d3f 0000 803f 5d28 803f
00000050: 64ba 613f 24c0 7e3f cf17 913f 47ec 7b3f
00000060: 6cba 8b3f 655c 793f db91 7e3f 1e0f 813f
00000070: d31a 7a3f 0000 803f d58b 703f be8d 643f
00000080: 52fd c73f 3368 8e3f 31b6 793f 0000 803f
00000090: 9797 813f 8948 883f 0000 803f b9d1 843f
000000a0: f669 7f3f d454 863f b241 7b3f efaa 813f
000000b0: 8cb7 763f 547b 7b3f 353b 6d3f b5db 7e3f
000000c0: d9df 553f a306 733f 4870 893f c4b2 793f
000000d0: 9965 7e3f e605 823f 0000 803f 0000 803f
000000e0: 49a4 4b3f 0000 803f 2a2a 5f3f 6362 853f
000000f0: 9ce6 7f3f fa03 573f 553c 3d3f 46ae 843f
00000100: 2290 593f 6da4 8e3f 0000 803f 4749 ac3f
00000110: 08cf 7c3f d825 783f 3ed8 7f3f ebdc 7a3f
00000120: 977a 723f 9a7c 7e3f 5c0c 6a3f 4708 803f
00000130: 1756 7f3f c528 853f 1218 4f3f b00a 7f3f
00000140: 0000 803f 04ce 823f 69a7 773f 7203 803f
00000150: 0000 803f 6101 c03f 0000 803f 0000 803f
00000160: 5695 783f e4eb 553f 0000 803f d707 753f
00000170: 949e 863f 9839 793f dd5c 883f 0000 803f
00000180: 0000 803f 0000 803f f622 7f3f f6a4 753f
00000190: 0000 803f c309 783f 87b9 6c3f 0000 803f
000001a0: 2b93 3d3f f67e 7a3f 181f 813f 893b 7e3f
000001b0: 7b8a 513f 67d1 883f 9775 833f 5aff 7f3f
000001c0: ecee 583f fb7a 7e3f 3b39 833f 966c a73f
000001d0: 67d0 8a3f 4cc1 883f 7cb9 7b3f 18ec 7f3f
000001e0: e45e 6b3f 5c11 7f3f 1b47 7e3f 2bb0 733f
000001f0: 0000 803f 9ab3 773f 0000 803f 35f4 823f

layers.2.bias f4 [128]
0.07251222 -0.0063792313 0.032939877 -0.11693977 0.054241173 0.026346711 0.03940802 -0.030024003
0.019166555 0.052284807 -0.0016092997 -0.03238884 0.004569324 0.023280334 0.019318588 0.010234855
0.013749768 0.030288097 -0.019799005 0.06626412 0.029662184 0.049944382 -0.008070365 -0.0017012152
0.1267041 -0.014355027 -0.06135963 0.06355834 0.016670838 0.071247175 0.021294244 -0.030433388
-0.015014108 0.017485147 0.018907258 -0.06439694 0.045628626 -0.029783538 -0.017592873 0.029324474
-0.0146562625 0.08627315 0.022115052 -0.030126598 -0.02873432 0.025634808 0.02380676 -0.07981775
0.005563104 -0.051010903 -0.058454815 0.032823797 -0.05465101 0.019967305 0.048992727 0.03598171
0.009131324 -0.064620495 0.09229649 -0.044229183 0.0015721294 0.016876424 -0.04340229 -0.033715773
0.04156868 -0.002955278 -0.030623376 -0.041927133 -0.018482544 -0.028582348 -0.064863786 0.003920112
0.030077126 -0.011624707 0.02902013 -0.0011491154 0.008621864 0.06497163 0.010444962 0.007602238
0.01081902 -0.008927691 0.0033121489 -0.0054509733 0.023628568 0.009216937 -0.02881097 -0.0033028587
-0.03002357 0.0034120118 -0.039841536 0.051848244 0.031323265 0.07555112 0.15662616 0.018189367
0.035251793 0.020258266 -0.04127064 0.034336694 -0.027207814 0.021545913 0.11295506 0.06609596
-0.07066588 -0.031034997 -0.02116513 -0.004698839 -0.014386221 0.033092193 -0.0116992965 -0.09397672
0.055398677 0.0012221921 -9.733715e-05 0.08065956 -0.045753602 0.052906226 -0.07686894 0.0056156786
0.012185951 -0.024322277 0.007006628 -0.0011689604 0.0022681507 0.07335656 -0.02118942 0.08167519
00000000: 4981 943d df08 d1bb f7eb 063d 1e7e efbd
00000010: fe2b 5e3d 0fd5 d73c 4e6a 213d e6f4 f5bc
00000020: 2e03 9d3c 9828 563d 23ef d2ba 29aa 04bd
00000030: 45ba 953b 66b6 be3c 0442 9e3c 18b0 273c
00000040: b546 613c be1e f83c 8631 a2bc 7cb5 873d
00000050: 1cfe f23c 7b92 4c3d 9039 04bc 4ffb deba
00000060: b8be 013e 5931 6bbc 3c54 7bbd e02a 823d
00000070: 4891 883c 0aea 913d 4471 ae3c 714f f9bc
00000080: bcfd 75bc 033d 8f3c 65e3 9a3c 8be2 83bd
00000090: 15e5 3a3d 9bfc f3bc ee1e 90bc e139 f03c
000000a0: d220 70bc faaf b03d a02a b53c 0ecc f6bc
000000b0: 3d64 ebbc 1700 d23c 6506 c33c 7d77 a3bd
000000c0: b34a b63b cff0 50bd 516e 6fbd 3f72 063d
000000d0: bdd9 5fbd 7992 a33c 99ac 483d 8f61 133d
000000e0: 8c9b 153c c057 84bd f105 bd3d a929 35bd
000000f0: e90f ce3a 6d40 8a3c 9ac6 31bd 8d19 0abd
00000100: ec43 2a3d 56ad 41bb e0dd fabc c9bb 2bbd
00000110: b468 97bc 8725 eabc 4ed7 84bd 4874 803b
00000120: 4e64 f63c 8e75 3ebc a0bb ed3c ea9d 96ba
00000130: b842 0d3c d90f 853d 5921 2b3c 321c f93b
00000140: 4242 313c 7345 12bc a310 593b 149e b2bb
00000150: b390 c13c a302 173c fc04 ecbc c674 58bb
00000160: fdf3 f5bc 0f9c 5f3b e130 23bd d35e 543d
00000170: d34c 003d 8cba 9a3d 9c62 203e de01 953c
00000180: 2f64 103d aaf4 a53c 670b 29bd a2a4 0c3d
00000190: ece2 debc 0e81 b03c fc54 e73d 525d 873d
000001a0: 46b9 90bd 1b3d febc 7f62 adbc b8f8 99bb
000001b0: 2fb4 6bbc ae8b 073d 68ae 3fbc de76 c0bd
000001c0: b9e9 623d f631 a03a 7c21 ccb8 d730 a53d
000001d0: 2168 3bbd 33b4 583d 766d 9dbd ba03 b83b
000001e0: 95a7 473c 833f c7bc db97 e53b cd37 99ba
000001f0: 41a5 143b f73b 963d 6f95 adbc 5245 a73d

layers.2.running_mean f4 [128]
6e-45 0.0018638526 0.018531695 100.02023 0.0 0.003840445 309.95755 18.112774
0.016113967 262.79504 0.014685036 0.0112394225 53.752884 6e-45 131.17924 0.0034221064
0.6511075 2.0091845e-32 0.0 6e-45 0.014003332 6e-45 0.0007143736 6e-45
6e-45 0.018826336 0.019275159 6e-45 1.884966e-29 0.0 15.406216 0.015566101
27.340181 6e-45 0.017787568 0.0 0.007597694 0.003204476 0.0 0.0071426295
6e-45 6e-45 6e-45 0.019590411 0.015885223 0.0032802199 76.62038 0.011863169
22.118835 0.003945733 6e-45 0.0029769118 0.009299441 75.84046 0.0 0.0
28.8394 0.0 33.203335 1.7e-44 0.01314062 47.16639 34.534683 2.234e-42
23.374714 117.9253 0.0 0.013909396 0.008417142 0.0025017145 0.004517871 0.0017049887
10.612294 0.018797114 2.0042577e-30 0.0025846213 6e-45 6e-45 218.26805 0.013196463
0.0 0.006929051 0.011479288 6e-45 0.0 19.724909 0.0 0.0
0.009942735 16.305838 0.0 0.008142506 0.013311202 2.53e-42 0.010506105 0.0
0.0 0.0 0.0053095426 0.016559606 0.0 0.008550342 135.52913 0.0
25.79745 0.005691894 6e-45 0.015841225 0.017088898 0.018339027 0.006331262 6e-45
38.577038 0.012178894 6e-45 0.016749993 0.0010890657 0.012137977 0.012722381 0.0017025003
0.015558993 0.004338488 6e-45 0.0090012625 0.0 1.2540113e-36 0.0 6e-45
00000000: 0400 0000 844c f43a c8cf 973c 5c0a c842
00000010: 0000 0000 faaf 7b3b 91fa 9a43 f6e6 9041
00000020: 7001 843c c465 8343 8199 703c 8e25 383c
00000030: f402 5742 0400 0000 e32d 0343 6b45 603b
00000040: fbae 263f 49a5 d00a 0000 0000 0400 0000
00000050: 3b6e 653c 0400 0000 cd44 3b3a 0400 0000
00000060: 0400 0000 b039 9a3c f0e6 9d3c 0400 0000
00000070: 8428 bf0f 0000 0000 dc7f 7641 f608 7f3c
00000080: b1b8 da41 0400 0000 3cb7 913c 0000 0000
00000090: 14f6 f83b 3002 523b 0000 0000 b80c ea3b
000000a0: 0400 0000 0400 0000 0400 0000 127c a03c
000000b0: ba21 823c f5f8 563b a23d 9942 bd5d 423c
000000c0: 60f3 b041 354b 813b 0400 0000 4b18 433b
000000d0: af5c 183c 51ae 9742 0000 0000 0000 0000
000000e0: 17b7 e641 0000 0000 37d0 0442 0c00 0000
000000f0: c14b 573c 62aa 3c42 8423 0a42 3a06 0000
00000100: 6aff ba41 c1d9 eb42 0000 0000 3ce4 633c
00000110: 0de8 093c cef3 233b a60a 943b ed79 df3a
00000120: f5cb 2941 68fc 993c ce9a 220e c062 293b
00000130: 0400 0000 0400 0000 9f44 5a43 fa35 583c
00000140: 0000 0000 180d e33b a013 3c3c 0400 0000
00000150: 0000 0000 9dcc 9d41 0000 0000 0000 0000
00000160: dae6 223c 5b72 8241 0000 0000 2568 053c
00000170: 3a17 5a3c 0d07 0000 cc21 2c3c 0000 0000
00000180: 0000 0000 0000 0000 acfb ad3b 03a8 873c
00000190: 0000 0000 bc16 0c3c 7587 0743 0000 0000
000001a0: 2d61 ce41 1183 ba3b 0400 0000 75c5 813c
000001b0: 04fe 8b3c ba3b 963c 7a76 cf3b 0400 0000
000001c0: e34e 1a42 fc89 473c 0400 0000 4837 893c
000001d0: fbbe 8e3a 5ede 463c 8971 503c 6e26 df3a
000001e0: 26eb 7e3c e029 8e3b 0400 0000 087a 133c
000001f0: 0000 0000 e55b d503 0000 0000 0400 0000

layers.2.running_var f4 [128]
6e-45 7.4835174e-05 0.007047299 915.2252 6e-45 0.0003162401 9307.03 96.16804
0.005567331 8294.186 0.004623727 0.0027085075 312.70032 6e-45 2234.611 0.002446507
1.7078137 5.4332636e-32 6e-45 6e-45 0.004204407 6e-45 0.00019392525 6e-45
6e-45 0.0075993016 0.007965961 6e-45 6.506338e-29 6e-45 174.41843 0.0051951953
72.64604 6e-45 0.0067838365 6e-45 0.0012376753 0.00022022544 6e-45 0.008361296
6e-45 6e-45 6e-45 0.008228665 0.005410392 0.00029151601 598.5735 0.0030174747
248.50247 0.00033382178 6e-45 0.00019001096 0.0018541979 495.01086 6e-45 6e-45
80.050735 6e-45 162.274 2.8e-44 0.0037023185 289.72122 119.73847 4.062e-42
45.99838 1559.4857 6e-45 0.00414819 0.0015190478 0.00013420288 0.00043762982 6.234148e-05
11.713916 0.0075757285 5.43097e-31 0.00014327731 6e-45 8e-45 4036.1875 0.0037338538
6e-45 0.0010294091 0.0028253496 6e-45 6e-45 43.698727 6e-45 6e-45
0.020652195 91.91813 6e-45 0.0014332966 0.0037990652 2.989e-42 0.0023666057 6e-45
6e-45 6e-45 0.005889374 0.0058795256 6e-45 0.0015675114 1652.5769 6e-45
159.14049 0.0006946366 6e-45 0.005380463 0.006261384 0.0072109858 0.0008759385 6e-45
301.06714 0.0031802265 6e-45 0.0060154935 0.00045070433 0.003158893 0.0034703955 0.0011014327
0.0051904535 0.0004035784 6e-45 0.0017371972 6e-45 2.4746154e-36 6e-45 6e-45
00000000: 0400 0000 d4f0 9c38 07ed e63b 6ace 6444
00000010: 0400 0000 07cd a539 1f6c 1146 0956 c042
00000020: 286e b63b be98 0146 a282 973b 3781 313b
00000030: a459 9c43 0400 0000 c7a9 0b45 9455 203b
00000040: a499 da3f 3b0e 8d0b 0400 0000 0400 0000
00000050: 1fc5 893b 0400 0000 6a58 4b39 0400 0000
00000060: 0400 0000 9003 f93b a983 023c 0400 0000
00000070: 8cf4 a410 0400 0000 1e6b 2e43 753c aa3b
00000080: c64a 9142 0400 0000 f24a de3b 0400 0000
00000090: 7e39 a23a 51ec 6639 0400 0000 d1fd 083c
000000a0: 0400 0000 0400 0000 0400 0000 86d1 063c
000000b0: a849 b13b 9ed6 9839 b4a4 1544 d3c0 453b
000000c0: a280 7843 cd04 af39 0400 0000 ae3d 4739
000000d0: 8f08 f33a 6481 f743 0400 0000 0400 0000
000000e0: fa19 a042 0400 0000 2546 2243 1400 0000
000000f0: 99a2 723b 51dc 9043 197a ef42 530b 0000
00000100: 57fe 3742 8bef c244 0400 0000 8aed 873b
00000110: c91a c73a d0b8 0c39 ae71 e539 54bd 8238
00000120: 336c 3b41 d13d f83b bc3e 300d b63c 1639
00000130: 0400 0000 0600 0000 0043 7c45 acb3 743b
00000140: 0400 0000 3ded 863a 8029 393b 0400 0000
00000150: 0400 0000 7fcb 2e42 0400 0000 0400 0000
00000160: cb2e a93c 15d6 b742 0400 0000 74dd bb3a
00000170: bdf9 783b 5508 0000 0e19 1b3b 0400 0000
00000180: 0400 0000 0400 0000 a6fb c03b 09a9 c03b
00000190: 0400 0000 f474 cd3a 7692 ce44 0400 0000
000001a0: f723 1f43 4618 363a 0400 0000 984e b03b
000001b0: 4c2c cd3b 224a ec3b 3d9f 653a 0400 0000
000001c0: 9888 9643 596b 503b 0400 0000 9e1d c53b
000001d0: 834c ec39 6e05 4f3b 936f 633b f35d 903a
000001e0: ae14 aa3b 6097 d339 0400 0000 aab2 e33a
000001f0: 0400 0000 5a84 5204 0400 0000 0400 0000

layers.3.weight f4 [128, 128]
-0.09237337 0.027391424 0.029939828 -0.054747257 0.07760224 0.027921809 0.036138818 -0.061697584
-0.058343433 -0.004974743 0.0899467 -0.04147323 -0.018054493 -0.08270522 -0.02930656 0.02210738
-0.044697963 -0.100927696 -0.026436072 0.030946163 -0.026683982 0.009020538 0.009859302 0.048857428
0.051136203 0.055322863 0.061719656 -0.023416666 -0.11843874 0.028656919 -0.064270146 -0.062236696
-0.061978396 -0.069749296 0.08351459 -0.019091051 -0.07110335 0.080706075 0.038630188 -0.0026150267
-0.06399874 -0.0691151 -0.084835075 0.030097203 0.01831633 -0.001066116 0.03249124 0.0066201915
-0.08900241 0.023888659 0.014288767 -0.039624143 0.03160437 -0.091925964 -0.04553906 0.0020062972
0.06950745 0.038797885 -0.039029993 -0.0014901443 0.0011224423 0.024062479 -0.062785976 0.055958375
-0.019563349 0.07132012 -0.065099105 0.09521924 0.049135897 0.003279414 0.060795512 0.09354532
-0.08654962 0.09037542 0.061218757 0.088078626 0.066724434 -0.051340394 -0.08788717 -0.07283979
0.08544277 0.058781248 0.07334785 -0.05480884 0.018571677 0.022914011 0.07823203 0.051790006
-0.04482049 0.030777885 0.04991861 -0.046109017 -0.033558015 0.030787678 0.0013742272 -0.042125076
-0.0027888638 -0.050324313 -0.03258606 -0.0077411397 0.029714065 0.018167337 -0.111530855 -0.05638665
0.021076953 -0.047768977 0.0063934308 0.013956974 -0.048724502 -0.082158625 0.08099562 -0.008901307
0.018460358 -0.050235994 -0.027628517 0.02805761 0.022802195 -0.0735371 -0.044673003 0.07825051
0.07345278 -0.0074036107 0.031207966 0.0141608585 -0.08039024 3.715775e-05 0.05444829 -0.059533637
0.05259147 -0.0069314367 0.07449056 0.076082796 -0.02086406 -0.038796283 -0.051289108 -0.058094434
-0.015614735 0.120333925 0.07961054 -0.07824681 0.016400706 0.0625315 0.05439492 0.08456086
0.111587346 -0.011966622 -0.0302812 0.07715687 -0.0316623 0.08490372 -0.014343273 0.06617035
0.083624646 0.053471103 0.05673247 0.062265195 0.0004243968 -0.07223288 0.03401035 -0.0034810668
0.10830905 0.03361566 -0.07927665 -0.05536367 0.06726246 -0.09778438 -0.015741048 0.028467583
3.924311e-05 -0.007787023 0.104274035 0.016402245 0.0033659695 -0.031749208 0.090280995 0.06604259
0.061648883 -0.053283993 0.0548506 0.044210166 -0.03327522 0.030639848 -0.052451525 0.012817388
0.06177934 -0.0082895355 -0.00423588 -0.041699167 -0.028789297 0.02730608 -0.04291726 -0.068151414
0.11212564 0.042551 0.0065982 0.04257015 -0.054939706 0.019826222 -0.04362924 -0.0392942
0.0299284 0.01723714 -0.029639583 0.020962248 0.056076646 0.023137577 0.024264729 0.07858496
0.0578477 0.05497177 -0.0053903693 -0.041800745 -0.043816473 -0.028717669 0.01748326 -0.06349819
-0.035818364 0.068636656 -0.001367477 0.04193585 -0.010168905 0.06613885 -0.07103972 0.0022633728
0.06970925 -0.057893794 -0.08248568 -0.0100553995 -0.045208145 -0.016061367 0.07685321 0.0410956
0.0033420466 0.041130837 0.08115304 -0.08252728 0.023205802 0.098943226 -0.015273325 -0.07108453
-0.06912002 0.059013713 0.046936043 0.10900557 -0.040707737 -0.019683214 0.05433221 0.025964303
0.05023455 -0.0022379213 -0.060653474 0.0567052 -0.015671553 -0.003062901 0.015682261 0.09044415
00000000: 402e bdbd fb63 e03c 5f44 f53c a93e 60bd
00000010: eced 9e3d 47bc e43c 4c06 143d 9bb6 7cbd
00000020: 86f9 6ebd 2b03 a3bb fa35 b83d d5df 29bd
00000030: 04e7 93bc 5b61 a9bd 5014 f0bc 891a b53c
00000040: 3615 37bd 2eb3 cebd 7690 d8bc cf82 fd3c
00000050: 5e98 dabc e1ca 133c e988 213c ba1e 483d
00000060: 3274 513d 3a9a 623d c0cd 7c3d 4fd4 bfbc
00000070: 0390 f2bd eac1 ea3c 11a0 83bd e8eb 7ebd
00000080: 0fdd 7dbd b8d8 8ebd b309 ab3d d664 9cbc
00000090: a29e 91bd 3a49 a53d b03a 1e3d de60 2bbb
000000a0: c511 83bd 388c 8dbd 03be adbd 698e f63c
000000b0: 210c 963c ebbc 8bba 8915 053d 31ee d83b
000000c0: e546 b6bd 26b2 c33c 6f1b 6a3c ed4c 22bd
000000d0: 9573 013d ae43 bcbd 2a87 3abd 157c 033b
000000e0: ec59 8e3d 88ea 1e3d eadd 1fbd f250 c3ba
000000f0: ea1e 933a ad1e c53c ef95 80bd 9c34 653d
00000100: 5143 a0bc 4810 923d ae52 85bd 4e02 c33d
00000110: b942 493d 70eb 563b b704 793d b094 bf3d
00000120: ed40 b1bd c016 b93d 85c0 7a3d 9162 b43d
00000130: d2a6 883d 4e4a 52bd 30fe b3bd 072d 95bd
00000140: 9efc ae3d 9bc4 703d 6637 963d 3c7f 60bd
00000150: a123 983c 2ab6 bb3c 1d38 a03d c221 543d
00000160: b195 37bd e721 fc3c 7577 4c3d cfdc 3cbd
00000170: 2174 09bd 7136 fc3c 6a1f b43a 588b 2cbd
00000180: 5fc5 36bb de20 4ebd f678 05bd 63a9 fdbb
00000190: e96a f33c abd3 943c 4a6a e4bd b0f5 66bd
000001a0: 93a9 ac3c 67a9 43bd fc7f d13b cbab 643c
000001b0: 5893 47bd c842 a8bd 08e1 a53d cad6 11bc
000001c0: 2d3a 973c 42c4 4dbd 3355 e2bc 13d9 e53c
000001d0: abcb ba3c 9e9a 96bd 0afb 36bd ce41 a03d
000001e0: 696e 963d fd99 f2bb d9a7 ff3c f202 683c
000001f0: a3a3 a4bd d5d9 1b38 2c05 5f3d 8bd9 73bd
00000200: 276a 573d 1b21 e3bb 828e 983d 4cd1 9b3d
00000210: 1beb aabc dae8 1ebd 8714 52bd 6ef4 6dbd
00000220: f2d4 7fbc a271 f63d da0a a33d dd3f a0bd
00000230: c65a 863c 8410 803d 35cd 5e3d 3f2e ad3d
00000240: e887 e43d a70f 44bc 4710 f8bc 6c04 9e3d
00000250: 54b0 01bd 00e2 ad3d 0c00 6bbc 5284 873d
00000260: 6643 ab3d 8404 5b3d 4e60 683d ca09 7f3d
00000270: 9381 de39 d5ee 93bd 704e 0b3d 9c22 64bb
00000280: 23d1 dd3d 93b0 093d cc5b a2bd 04c5 62bd
00000290: e7c0 893d 2d43 c8bd 5ff3 80bc d934 e93c
000002a0: f898 2438 492a ffbb a08d d53d 005e 863c
000002b0: 9997 5c3b 750b 02bd 3ee5 b83d 5641 873d
000002c0: 8a83 7c3d 5140 5abd 06ab 603d b815 353d
000002d0: 994b 08bd 6b00 fb3c 69d7 56bd 0600 523c
000002e0: 550c 7d3d d5d0 07bc 23cd 8abb bfcc 2abd
000002f0: 88d7 ebbc 00b1 df3c 02ca 2fbd f892 8bbd
00000300: 21a2 e53d f549 2e3d b735 d83b 0a5e 2e3d
00000310: 7508 61bd 9a6a a23c 93b4 32bd f4f2 20bd
00000320: 672c f53c e734 8d3c b6ce f2bc 05b9 ab3c
00000330: a0b0 653d 048b bd3c d3c6 c63c 27f1 a03d
00000340: b6f1 6c3d 142a 613d b2a1 b0bb 4237 2bbd
00000350: e778 33bd 5141 ebbc 0e39 8f3c 570b 82bd
00000360: 47b6 12bd 6091 8c3d ea3c b3ba edc4 2b3d
00000370: 7b9b 26bc ce73 873d 467d 91bd 1855 143b
00000380: b9c3 8e3d 0b22 6dbd 41ee a8bd 67bf 24bc
00000390: 2d2c 39bd 2193 83bc 3765 9d3d dc53 283d
000003a0: 3d06 5b3b cf78 283d 9133 a63d 1004 a9bd
000003b0: 181a be3c bfa2 ca3d f83c 7abc c494 91bd
000003c0: cc8e 8dbd 5db8 713d 0240 403d 503e df3d
000003d0: 28bd 26bd b13e a1bc 748b 5e3d 17b3 d43c
000003e0: bec2 4d3d 17aa 12bb c76f 78bd b643 683d
000003f0: a161 80bc f4ba 48bb 1678 803c c83a b93d

layers.3.bias f4 [128]
0.07618363 -0.059394944 2.4305029e-05 0.073002994 -0.020761585 0.105350316 -0.07004539 -0.02852115
-0.02543216 0.11712468 0.06676829 0.01164607 0.002388821 -0.04305379 0.04875102 0.097046316
-0.04045447 0.05404416 0.07631345 -0.032072015 0.061520077 0.08866236 0.038985934 -0.122298665
0.14058484 -0.009020657 -0.009489335 0.19069542 0.004224262 0.0485384 -0.059271812 -0.005269799
0.029855708 -0.033230286 -0.016446602 0.0019418604 -0.0065703914 0.027743654 0.07891419 -0.061334714
-0.084880896 0.05619493 -0.070425004 0.11791736 0.087254785 0.09336277 -0.04795084 -0.035197355
0.116597556 0.0052426597 0.066187665 0.052800503 0.06577837 -0.06525748 0.11165915 -0.004250948
-0.095249996 -0.044550877 0.07017544 0.23669635 -0.005090627 0.07521116 -0.068277985 0.14629221
0.032132804 0.030946 0.018432567 0.12403823 -0.15778577 0.07086274 0.02986824 0.006465512
0.03348926 0.06472331 -0.03798846 0.007462222 0.08814246 0.07117391 0.20454587 0.027777908
-0.05666289 0.04822821 0.015242734 0.07097513 0.08938981 -0.03151822 0.021132141 -0.05493415
0.0006643069 -0.054713782 -0.03465349 -0.040702395 -0.011672713 -0.014176538 0.06649408 -0.036855064
-0.045724433 -0.08134575 0.027257102 -0.17592025 0.089475505 0.054220285 0.07880015 -0.0035090356
0.20730075 0.014014876 -0.03202746 -0.046048526 0.06117838 0.020968458 0.0018074516 -0.060012005
0.11278865 0.032529004 0.043927036 0.058517862 0.03218373 0.05524205 -0.023678964 0.11453584
0.063678175 -0.09465773 -0.050858475 -0.0808455 0.074299864 0.0006658351 0.06111285 -0.10428315
00000000: 2a06 9c3d 1d48 73bd a7e2 cb37 9882 953d
00000010: 3314 aabc e8c1 d73d f573 8fbd 30a5 e9bc
00000020: 1b57 d0bc 10df ef3d d0bd 883d 28cf 3e3c
00000030: c48d 1c3b 2c59 30bd 26af 473d 38c0 c63d
00000040: 96b3 25bd 695d 5d3d 3a4a 9c3d f25d 03bd
00000050: 7afc 7b3d 9d94 b53d b7af 1f3d b977 fabd
00000060: 79f5 0f3e 61cb 13bc 2879 1bbc a945 433e
00000070: ae6b 8a3b 34d0 463d 00c7 72bd 47ae acbb
00000080: f593 f43c 7b1c 08bd 06bb 86bc 0686 fe3a
00000090: 704c d7bb a946 e33c c39d a13d 1c3a 7bbd
000000a0: 09d6 adbd a82c 663d fc3a 90bd a87e f13d
000000b0: a3b2 b23d fb34 bf3d 1a68 44bd 1a2b 10bd
000000c0: b3ca ee3d 9eca ab3b 668d 873d 5745 583d
000000d0: cfb6 863d b7a5 85bd 8dad e43d 894b 8bbb
000000e0: 6e12 c3bd fb7a 36bd 24b8 8f3d 8760 723e
000000f0: 46cf a6bb 4f08 9a3d 54d5 8bbd a0cd 153e
00000100: b09d 033d 7782 fd3c e5ff 963c c107 fe3d
00000110: 9892 21be 7c20 913d 3dae f43c a5dc d33b
00000120: 092c 093d a88d 843d ca99 1bbd a885 f43b
00000130: 0984 b43d a0c3 913d 7974 513e 7f8e e33c
00000140: 5917 68bd f28a 453d a9bc 793c 695b 913d
00000150: 0112 b73d 4019 01bd 501d ad3c a202 61bd
00000160: e224 2e3a 8f1b 60bd d1f0 0dbd 8eb7 26bd
00000170: e83e 3fbc b644 68bc 0c2e 883d 56f5 16bd
00000180: 8b49 3bbd 9a98 a6bd 494a df3c 7024 34be
00000190: ef3e b73d 1716 5e3d f961 a13d d9f7 65bb
000001a0: a646 543e a79e 653c 3a2f 03bd 619d 3cbd
000001b0: 2e96 7a3d 0bc6 ab3c 03e8 ec3a 26cf 75bd
000001c0: bcfd e63d 223d 053d d6ec 333d 6db0 6f3d
000001d0: 16d3 033d 7d45 623d 63fa c1bc c491 ea3d
000001e0: b469 823d e9db c1bd fa50 50bd 5392 a5bd
000001f0: 872a 983d 708b 2e3a 7851 7a3d 6792 d5bd

layers.5.weight f4 [128]
0.96863043 0.97490275 0.99901646 0.9853219 1.0607939 1.0451686 0.9734755 0.97148126
1.079158 0.9909182 0.98260915 0.9977312 0.96466434 1.0077021 0.9689467 0.95317745
1.0609266 0.9343312 1.012909 1.0220345 0.95015556 0.9769914 0.99204075 1.0057715
1.1560057 1.0027477 0.9982287 1.0670143 0.99457353 1.0104231 1.0004227 1.0282956
0.9831496 0.95119137 0.9945087 1.0143076 1.0206686 1.0865979 1.0223851 0.99769676
0.94128835 0.99978197 1.0007192 1.1214648 0.97191656 1.00944 0.9902493 1.0013341
0.98394656 0.99246997 0.99856764 1.0025194 0.9845077 0.99279416 0.98434323 0.98697627
1.0134617 0.9552776 0.9895095 1.0035138 0.98455644 1.0221883 0.99798113 1.0760958
1.004894 0.9765672 0.9784448 0.9777265 1.0006775 1.0113841 0.97502375 0.99773186
0.948626 0.98371255 0.98291284 1.0535932 0.9860883 0.9575919 1.0497978 0.9687617
1.0047523 1.0384439 1.0213063 0.9753958 1.0248617 0.94189906 0.9605732 0.9746599
1.01781 0.94472706 1.0133499 0.99176776 1.0042742 0.9683033 1.0066584 0.9760838
0.9944959 1.019472 1.159 1.0005952 0.98840696 0.98374635 1.0056506 1.0036373
1.0770937 1.0001009 1.0018991 1.0103452 0.99553156 0.98629516 0.9776768 0.9999496
0.9898281 0.9733521 1.0050579 0.9830192 1.0034034 0.9826299 0.9705937 0.9776983
0.9837369 0.9964306 1.0247757 0.99831593 0.9832858 1.0048577 1.0026369 0.9844759
00000000: 2af8 773f 3a93 793f 8bbf 7f3f 0e3e 7c3f
00000010: 18c8 873f 16c8 853f b135 793f ffb2 783f
00000020: d921 8a3f d1ac 7d3f 468c 7b3f 506b 7f3f
00000030: 3ef4 763f 62fc 803f e40c 783f 7003 743f
00000040: 71cc 873f 5430 6f3f 01a7 813f 07d2 823f
00000050: 653d 733f 1c1c 7a3f 62f6 7d3f 1fbd 803f
00000060: fff7 933f 095a 803f eb8b 7f3f ed93 883f
00000070: 5f9c 7e3f 8b55 813f da0d 803f 319f 833f
00000080: b1af 7b3f 4781 733f 1f98 7e3f d5d4 813f
00000090: 45a5 823f a415 8b3f 84dd 823f 0e69 7f3f
000000a0: 46f8 703f b6f1 7f3f 9117 803f 298c 8f3f
000000b0: 86cf 783f 5435 813f fa80 7d3f b72b 803f
000000c0: ece3 7b3f 8312 7e3f 21a2 7f3f 8e52 803f
000000d0: b208 7c3f c227 7e3f ebfd 7b3f 7aaa 7c3f
000000e0: 1db9 813f 138d 743f 7f50 7d3f 2473 803f
000000f0: e40b 7c3f 11d7 823f b17b 7f3f 82bd 893f
00000100: 5ea0 803f 4f00 7a3f 5c7b 7a3f 494c 7a3f
00000110: 3316 803f 0975 813f 289b 793f 5b6b 7f3f
00000120: 27d9 723f 96d4 7b3f 2da0 7b3f 24dc 863f
00000130: 4870 7c3f be24 753f c65f 863f c400 783f
00000140: b99b 803f bbeb 843f 2aba 823f 8ab3 793f
00000150: ab2e 833f 4c20 713f 20e8 753f 5083 793f
00000160: 9947 823f a2d9 713f 73b5 813f 7ee4 7d3f
00000170: 0f8c 803f bae2 773f 2fda 803f a1e0 793f
00000180: 4997 7e3f 0f7e 823f 1d5a 943f 8113 803f
00000190: 3d08 7d3f cdd6 7b3f 29b9 803f 3077 803f
000001a0: 35de 893f 4e03 803f 3b3e 803f fe52 813f
000001b0: 28db 7e3f d77d 7c3f 0749 7a3f b2fc 7f3f
000001c0: 6065 7d3f 9a2d 793f bda5 803f 25a7 7b3f
000001d0: 866f 803f a28d 7b3f d478 783f 704a 7a3f
000001e0: 2ed6 7b3f 1316 7f3f da2b 833f a291 7f3f
000001f0: 9eb8 7b3f 2d9f 803f 6856 803f 9d06 7c3f

layers.5.bias f4 [128]
0.0147210425 0.029098136 -0.00010651468 0.02831932 -0.0026545236 9.879053e-05 0.0124647645 0.0074069016
-0.0044442583 0.01855217 0.004634694 -0.019754818 -0.0024341936 -0.0018303886 0.01002619 -0.0015910468
0.011704899 0.018899256 -0.0008710537 -0.026992671 -0.004732872 0.014052749 0.04540339 0.016194368
0.03305044 0.00996517 0.022051712 -0.018339036 -0.010675151 0.021878444 -0.0010872394 -0.0017142874
0.014432767 -0.017231345 -0.0033550067 -0.002289156 0.0071225637 0.00013405128 -0.0038755531 -0.0012566317
0.008982026 -0.0077184895 0.017150266 0.0142339645 0.0027809192 -0.0052030035 -0.00012998268 0.03577803
0.0065282085 -0.009335309 -0.011505385 0.008124287 0.009642506 -0.007576464 -0.0090036355 -0.010847157
-0.0002034612 0.008030605 0.014221982 0.03611194 0.027884308 0.00904816 0.01712985 -0.0010494462
-0.0024820005 -0.00514231 0.0013891025 0.026618972 0.005830065 -0.02108256 -0.007040234 -0.0076360735
0.025968352 0.008826838 0.0042463155 0.007631871 0.029600728 0.0126420045 -0.00843445 0.012813622
0.0062849233 -0.03176224 -0.015798641 -0.014894707 -0.012719201 0.0076544196 0.025115166 -0.0016695472
-0.0013272384 0.0033666699 0.024519337 -0.0054722605 0.02643556 -0.005534958 0.0052455813 0.020525308
0.0075117 -0.0014826289 0.025756208 0.009998114 0.027813371 -0.009593951 0.010342223 -0.005934324
-0.021513827 0.030628607 -0.0013177736 -0.027176816 0.01445115 -0.017788917 0.005003003 -0.029129475
0.017119993 0.0140655935 -0.009112826 0.02377351 0.021494757 -0.0050213113 -0.0043561407 0.02077622
0.008487472 -0.018868955 0.011291721 0.000681053 0.015615199 0.016908417 0.016889734 0.008572294
00000000: 8730 713c 375f ee3c a260 dfb8 ebfd e73c
00000010: 84f7 2dbb c32d cf38 0339 4c3c 98b5 f23b
00000020: 24a1 91bb b8fa 973c a2de 973b dbd4 a1bc
00000030: fe86 1fbb a6e9 efba e444 243c ac8a d0ba
00000040: e8c5 3f3c 9dd2 9a3c 6d57 64ba bc1f ddbc
00000050: 3516 9bbb 803d 663c e8f8 393d 0daa 843c
00000060: e65f 073d f444 233c cba5 b43c bf3b 96bc
00000070: d4e6 2ebc 6c3a b33c b381 8eba f1b1 e0ba
00000080: 6a77 6c3c c028 8dbc acdf 5bbb aa05 16bb
00000090: 6564 e93b 1e90 0c39 fefc 7dbb 90b5 a4ba
000000a0: 5929 133c 62eb fcbb b77e 8c3c 9335 693c
000000b0: 1540 363b f57d aabb f64b 08b9 fc8b 123d
000000c0: 95ea d53b 20f3 18bc 1581 3cbc bb1b 053c
000000d0: 9afb 1d3c fd43 f8bb fc83 13bc 46b8 31bc
000000e0: 3358 55b9 cc92 033c 5103 693c 1dea 133d
000000f0: a26d e43c bc3e 143c e653 8c3c 928d 89ba
00000100: 0fa9 22bb d380 a8bb 8c12 b63a 0810 da3c
00000110: 210a bf3b 55b5 acbc c3b1 e6bb 0738 fabb
00000120: 95bb d43c 719e 103c ad24 8b3b c614 fa3b
00000130: 3a7d f23c 6920 4f3c a630 0abc 3af0 513c
00000140: c2f1 cd3b 1f19 02bd 276c 81bc ee08 74bc
00000150: 3264 50bc edd1 fa3b 52be cd3c b5d4 daba
00000160: bbf6 adba 59a3 5c3b c7dc c83c a650 b3bb
00000170: 638f d83c 985e b5bb 20e3 ab3b b124 a83c
00000180: b524 f63b c554 c2ba affe d23c 21cf 233c
00000190: ded8 e33c f22f 1dbc 6d72 293c b874 c2bb
000001a0: c43d b0bc d8e8 fa3c 25b9 acba eaa1 debc
000001b0: 84c4 6c3c 10ba 91bc 3bf0 a33b f0a0 eebc
000001c0: 3a3f 8c3c 6073 663c f64d 15bc aac0 c23c
000001d0: c615 b03c d089 a4bb f5bd 8ebb e432 aa3c
000001e0: 0a0f 0b3c 1193 9abc e900 393c b188 323a
000001f0: e4d6 7f3c 8583 8a3c 575c 8a3c cf72 0c3c

layers.5.running_mean f4 [128]
0.26184967 0.23351872 0.20031862 0.25672987 0.32336244 0.24281569 0.1944717 0.3993804
0.47661862 0.2781571 0.38718098 0.32151496 0.11927857 0.2898286 0.29907882 0.21727845
0.197517 0.30307457 0.6783416 0.15692025 0.30239317 0.4842327 0.23970544 0.12732272
0.48055804 0.34224528 0.21716268 0.59967256 0.22183245 0.35686922 0.20213243 0.21517894
0.18046027 0.18368277 0.17519541 0.23909064 0.33996513 0.544107 0.21135174 0.16116372
0.1857608 0.18034156 0.2330387 0.53307265 0.18181415 0.34704638 0.21296737 0.1566425
0.28930292 0.3001193 0.30511335 0.18252322 0.33602884 0.24098472 0.3929147 0.55142653
0.43523714 0.15078771 0.20047164 0.44022915 0.2436616 0.33112398 0.37988093 0.4309373
0.24988969 0.3288115 0.5459707 0.37101734 0.1120027 0.2888967 0.10951858 0.1819699
0.27699044 0.44381982 0.12275239 0.40180287 0.24447574 0.482857 0.4248036 0.3195979
0.30535287 0.37527466 0.20263486 0.34951377 0.26860225 0.30497402 0.27025878 0.14466003
0.47155127 0.16354977 0.16057496 0.11883264 0.32499418 0.25642243 0.18912834 0.10740188
0.19415517 0.22308417 0.33472532 0.19907272 0.31049162 0.2484018 0.28059205 0.38484055
0.69988906 0.40934873 0.17896736 0.23721302 0.21384755 0.22820865 0.32619447 0.21266821
0.28161365 0.15373378 0.39324567 0.3725543 0.40874386 0.46246827 0.27563587 0.35017708
0.124178015 0.117439315 0.20444915 0.19231479 0.18254726 0.5157395 0.30348638 0.16382852
00000000: 2911 863e 881f 6f3e 5320 4d3e 1972 833e
00000010: c38f a53e ada4 783e 9723 473e 967b cc3e
00000020: 5b07 f43e 9b6a 8e3e 963c c63e 9c9d a43e
00000030: 5348 f43d 6a64 943e dc20 993e 3e7e 5e3e
00000040: e541 4a3e 972c 9b3e cca7 2d3f b4af 203e
00000050: 47d3 9a3e 59ed f73e 5875 753e e360 023e
00000060: b40b f63e c63a af3e e55f 5e3e 2484 193f
00000070: 0c28 633e 90b7 b63e cefb 4e3e de57 5c3e
00000080: 94ca 383e 5617 3c3e 6d66 333e 2dd4 743e
00000090: e90f ae3e 994a 0b3f 976c 583e 1a08 253e
000000a0: 1438 3e3e 75ab 383e b2a1 6e3e 7377 083f
000000b0: 7d2d 3a3e 10b0 b13e 1e14 5a3e e466 203e
000000c0: 831f 943e 3da9 993e d137 9c3e 5ee7 3a3e
000000d0: f90b ac3e b3c4 763e 1e2c c93e 4a2a 0d3f
000000e0: 67d7 de3e 1868 1a3e 7048 4d3e b765 e13e
000000f0: 6d82 793e 1589 a93e c17f c23e d0a3 dc3e
00000100: 15e3 7f3e fb59 a83e bcc4 0b3f fcf5 bd3e
00000110: ac61 e53d 45ea 933e 474b e03d 5156 3a3e
00000120: b1d1 8d3e 5a3c e33e 9b65 fb3d 1bb9 cd3e
00000130: d957 7a3e 0839 f73e dc7f d93e 56a2 a33e
00000140: 3657 9c3e 0024 c03e 837f 4f3e 78f3 b23e
00000150: 3c86 893e 8e25 9c3e 5c5f 8a3e c221 143e
00000160: 2b6f f13e 9779 273e c36d 243e 875e f33d
00000170: a365 a63e cd49 833e dcaa 413e 84f5 db3d
00000180: 9dd0 463e 2d70 643e 1e61 ab3e b8d9 4b3e
00000190: c2f8 9e3e 0b5d 7e3e c3a9 8f3e d209 c53e
000001a0: ee2b 333f 2896 d13e 3843 373e f8e7 723e
000001b0: dafa 5a3e 87af 693e f602 a73e b2c5 593e
000001c0: aa2f 903e 636c 1d3e 7f57 c93e 70bf be3e
000001d0: e046 d13e a4c8 ec3e 2520 8d3e 694a b33e
000001e0: 0b51 fe3d 0684 f03d 1e5b 513e 2bee 443e
000001f0: abed 3a3e 8107 043f 9162 9b3e aac2 273e

layers.5.running_var f4 [128]
0.6856847 0.08542678 0.5587997 0.059902903 0.07274715 0.062171757 0.35644832 2.2324612
0.33907005 0.13231573 0.1250538 0.085529394 0.12643807 0.1235503 0.14104772 0.15254323
0.33236438 0.07624811 0.21195363 0.12985368 0.0819882 0.25763732 0.6555243 0.14085469
0.5171178 2.1244965 0.087828085 0.19889696 0.10257095 0.18358444 0.14318979 0.066985846
0.17836565 0.045995295 0.20318995 0.32820556 0.2188009 0.2106026 0.1553325 0.18011531
0.37614745 0.24735214 0.67115414 0.26741463 0.18457021 0.73505557 0.25566497 0.23621584
0.5685761 0.4898034 0.20967197 0.19614609 0.13799898 0.32767367 0.07799774 0.49192336
0.9308121 0.16070877 0.12694691 0.11585684 0.75211525 0.06319722 0.12035641 0.2049986
0.08308499 0.05599068 0.29697162 0.12673882 0.09902829 0.28574467 0.12730584 0.09537986
0.10074357 0.27448672 0.18283214 0.28369457 0.5832098 0.20003904 0.13802637 0.16505031
0.1985178 0.15251386 0.1428562 0.68556994 0.0602278 0.20041768 0.14415546 0.13851176
2.2057319 0.06450059 0.03963649 0.15175673 0.15979849 0.0785932 0.27233845 0.18895742
0.32946274 0.3948218 0.95487064 0.9305563 0.3578338 0.22419576 0.081156366 1.0312095
0.15685916 0.13925418 0.21517624 0.1333794 0.14419302 0.10516396 0.15676032 0.12963602
0.087922454 0.2326038 0.8663086 0.14257051 0.1993974 0.14349607 0.98314023 0.10017115
0.16130154 0.05477466 0.29151824 0.10503928 0.03393454 1.2795835 0.12462781 0.3775717
00000000: 0889 2f3f 3cf4 ae3d 7f0d 0f3f bf5c 753d
00000010: 75fc 943d d0a7 7e3d 6580 b63e a5e0 0e40
00000020: 979a ad3e c67d 073e 1a0e 003e 092a af3d
00000030: fb78 013e f107 fd3d d06e 103e 4b34 1c3e
00000040: aa2b aa3e f827 9c3d 5f0a 593e 5df8 043e
00000050: 6ee9 a73d 0ae9 833e 71d0 273f 363c 103e
00000060: d561 043f c0f7 0740 36df b33d a5ab 4b3e
00000070: b810 d23d 8ffd 3b3e 58a0 123e e02f 893d
00000080: 7ca5 363e 9065 3c3d 0711 503e 8f0a a83e
00000090: 580d 603e 35a8 573e 7c0f 1f3e 2670 383e
000000a0: 6696 c03e e149 7d3e c2d0 2b3f 92ea 883e
000000b0: f9ff 3c3e 9a2c 3c3f 85e6 823e 91e2 713e
000000c0: 348e 113f 83c7 fa3e 40b4 563e 85da 483e
000000d0: 9b4f 0d3e d8c4 a73e 47bd 9f3d 61dd fb3e
000000e0: b449 6e3f d790 243e 5ffe 013e 5a46 ed3d
000000f0: a08a 403f 8b6d 813d 6c7d f63d 27eb 513e
00000100: 7728 aa3d 7c56 653d aa0c 983e d2c7 013e
00000110: 58cf ca3d 204d 923e 765c 023e 8456 c33d
00000120: a552 ce3d 8689 8c3e 5938 3b3e 6a40 913e
00000130: 3d4d 153f 09d7 4c3e c956 0d3e f302 293e
00000140: 4048 4b3e 982c 1c3e e548 123e 8381 2f3f
00000150: 6db1 763d 4b3a 4d3e 7d9d 133e 07d6 0d3e
00000160: b62a 0d40 e318 843d df59 223d 1e66 1b3e
00000170: 37a2 233e 79f5 a03d f26f 8b3e 0e7e 413e
00000180: 57af a83e 1526 ca3e 6772 743f f038 6e3f
00000190: fe35 b73e 9393 653e 4f35 a63d acfe 833f
000001a0: b09f 203e a698 0e3e 2957 5c3e 9c94 083e
000001b0: 56a7 133e 3460 d73d c785 203e 4ebf 043e
000001c0: b010 b43d b12f 6e3e 67c6 5d3f 01fe 113e
000001d0: d52e 4c3e a2f0 123e 14af 7b3f 8826 cd3d
000001e0: 3b2c 253e 655b 603d e141 953e d61e d73d
000001f0: f2fe 0a3d 64c9 a33f de3c ff3d 1451 c13e

layers.6.weight f4 [128, 128]
-0.06507235 -0.061218143 0.005102709 0.03234858 -0.007787806 -0.017695883 -0.008869306 0.015981954
-0.036736254 0.09377419 0.011906076 -0.055709183 -0.024771305 -0.06854359 0.029497428 0.034795426
0.02164859 0.0383164 -0.050906688 -0.020543031 -0.02918724 0.10832703 -0.035918757 0.06291814
0.045505855 -0.04877176 0.019598123 -0.01623246 -0.020929744 0.05078066 -0.1031705 -0.11252101
-0.09568765 -0.011866596 -0.016461717 0.034961622 0.036822148 0.073272854 -0.08529176 0.0134778675
-0.05316418 -0.01967748 0.018225705 -0.037415653 -0.03210203 -0.012705021 -0.056860644 0.08313795
-0.066238284 -0.026693178 0.06006845 -0.0019025289 0.08076223 -0.0834969 -0.01739436 0.007345881
-0.00924576 0.044691008 -0.044072546 0.04742413 0.07482436 0.00839851 -0.012530894 -0.05693342
-0.023329653 0.033875167 0.07271688 0.06996699 0.079732604 -0.06661282 0.023813803 0.028396975
0.090917505 0.009166225 -0.09243651 -0.081644565 0.015069194 -0.07100649 -0.013703075 0.043523733
-0.04825554 -0.057192773 -0.017581895 -0.019728854 0.06820887 0.02825633 -0.027470032 -0.046608195
-0.07970337 -0.025695544 0.07131448 0.041136276 0.107526146 -0.0810327 0.015439988 -0.05638103
0.081921786 0.02584041 0.041304033 -0.072837606 0.06653639 -0.052647237 0.064941846 0.020105978
-0.045982093 0.0592658 0.061851732 0.047509287 0.045606613 0.05620224 0.11073546 0.04449334
-0.06943634 -0.0047096177 -0.09434855 -0.0010297165 0.13327377 -0.00018085875 -0.023545016 0.06400174
0.063275315 0.0030353058 0.1171451 0.06542218 -0.0050604492 -0.04741989 0.10288785 -0.006850683
-0.015317242 0.037069477 -0.086686134 0.008887043 -0.09031785 0.00037883117 -0.062085893 -0.02798812
0.025285793 -0.09713866 0.063206136 -0.088428825 0.00031235066 -0.100245655 0.07650244 -0.062023763
-0.04079514 -0.04118017 -0.017718708 -0.055253576 -0.022558805 -0.053720087 0.035823133 0.0048232498
0.031515498 -0.044185787 -0.074273266 0.07338565 -0.060031667 -0.023876175 -0.13333136 -0.01976027
-0.10280803 0.03898774 -0.019522177 0.0018685672 -0.13615297 0.06581708 -0.0081983805 -0.033274595
0.035551783 -0.07242395 -0.0549797 0.09797471 -0.011695848 -0.054385833 -0.068853974 -0.056821506
0.022969333 -0.10315108 0.0151541 -0.041046392 -0.017393226 -0.07003882 0.042540837 -0.0033993318
0.022549875 -0.04326687 -0.0639173 0.019990953 0.05128467 -0.02929462 -0.10569444 -0.042935975
-0.07572449 0.071200855 0.110207655 -0.054946132 -0.0020425653 -0.049003802 -0.034657996 -0.104239784
-0.04237139 -0.055331215 0.059730332 -0.07068567 0.030653533 0.05907414 -0.09893353 -0.0018822132
0.03579865 -0.001716104 -0.09606501 -0.030085482 0.058075402 0.050503876 -0.07364552 -0.027229086
-0.016731951 0.008778247 -0.020792054 -0.0954001 0.008174991 0.01835167 0.0037784846 0.052222215
-0.066512614 0.11616348 -0.04582342 -0.01660303 -0.018088972 -0.05433123 -0.043347087 0.042795714
0.03825044 0.08533672 0.047599968 0.0065535093 -0.06540158 -0.08303516 0.004486684 -0.06478039
-0.025967048 -0.0018254219 0.05350278 -0.06748677 0.020136923 0.08078901 0.017740978 -0.006884682
-0.03654682 0.06306123 -0.06995367 -0.022412112 -0.07307195 0.018072022 -0.11937489 -0.01049281
00000000: a744 85bd e0bf 7abd a034 a73b f27f 043d
00000010: da30 ffbb f5f6 90bc 9150 11bc 96ec 823c
00000020: c178 16bd af0c c03d b411 433c 502f 64bd
00000030: 31ed cabc 9560 8cbd 97a4 f13c a685 0e3d
00000040: 6258 b13c a8f1 1c3d 8883 50bd dc49 a8bc
00000050: 141a efbc 90da dd3d 8c1f 13bd 3adb 803d
00000060: 5964 3a3d e6c4 47bd 3e8c a03c f0f9 84bc
00000070: db74 abbc 62ff 4f3d 0e4b d3bd 6a71 e6bd
00000080: e3f7 c3bd 1c6c 42bc b9da 86bc eb33 0f3d
00000090: d2d2 163d 1410 963d 72ad aebd 46d2 5c3c
000000a0: afc2 59bd ab32 a1bc 134e 953c 2841 19bd
000000b0: 6b7d 03bd b828 50bc b5e6 68bd 3b44 aa3d
000000c0: f0a7 87bd a7ab dabc 560a 763d 475e f9ba
000000d0: ab66 a53d 6c00 abbd 9e7e 8ebc b7b5 f03b
000000e0: 877b 17bc eb0d 373d 6a85 34bd ce3f 423d
000000f0: 843d 993d e799 093c 614e 4dbc 0533 69bd
00000100: d41d bfbc b0c0 0a3d 96ec 943d da4a 8f3d
00000110: d94a a33d 4d6c 88bd 2a15 c33c c6a0 e83c
00000120: f532 ba3d ef2d 163c 5a4f bdbd 4435 a7bd
00000130: c8e4 763c da6b 91bd dd82 60bc f145 323d
00000140: 9aa7 45bd f842 6abd e807 90bc 689e a1bc
00000150: 18b1 8b3d d279 e73c d508 e1bc 3ce8 3ebd
00000160: 853b a3bd 767f d2bc 530d 923d 837e 283d
00000170: ab36 dc3d 79f4 a5bd 01f8 7c3c cbef 66bd
00000180: 9cc6 a73d 44af d33c 6b2e 293d e22b 95bd
00000190: 3b44 883d a1a4 57bd 3b00 853d 4bb5 a43c
000001a0: b857 3cbd b2c0 723d 3e58 7d3d 1999 423d
000001b0: 00ce 3a3d 5234 663d 46c9 e23d a63e 363d
000001c0: a434 8ebd 2353 9abb d039 c1bd 8df7 86ba
000001d0: eb78 083e e7a4 3db9 7ae1 c0bc 5813 833d
000001e0: 7d96 813d fbeb 463b c5e9 ef3d 10fc 853d
000001f0: 20d2 a5bb 5c3b 42bd ddb6 d23d b27b e0bb
00000200: 2bf5 7abc 2ad6 173d 8088 b1bd f69a 113c
00000210: 91f8 b8bd dc9d c639 c74d 7ebd 5847 e5bc
00000220: 2724 cf3c a2f0 c6bd 3872 813d 2c1a b5bd
00000230: ffc2 a339 984d cdbd 50ad 9c3d a10c 7ebd
00000240: ce18 27bd 8aac 28bd d326 91bc 9351 62bd
00000250: 3ecd b8bc 9809 5cbd 47bb 123d 5a0c 9e3b
00000260: 6516 013d 28fc 34bd 951c 98bd 374b 963d
00000270: c4e3 75bd f897 c3bc 0488 08be 4ae0 a1bc
00000280: 048d d2bd 9cb1 1f3d f9ec 9fbc b6ea f43a
00000290: af6b 0bbe 1bcb 863d 8052 06bc f14a 08bd
000002a0: bf9e 113d 0253 94bd 6532 61bd f7a6 c83d
000002b0: f19f 3fbc aec3 5ebd 5003 8dbd abbd 68bd
000002c0: 2f2a bc3c e040 d3bd e748 783c 4320 28bd
000002d0: 3d7c 8ebc 8370 8fbd 4d3f 2e3d 53c7 5ebb
000002e0: 84ba b83c 9a38 31bd 13e7 82bd 11c4 a33c
000002f0: e00f 523d 45fb efbc 5476 d8bd a2dd 2fbd
00000300: 7115 9bbd c1d1 913d 8db4 e13d 320f 61bd
00000310: 8fdc 05bb 36b8 48bd 8bf5 0dbd ab7b d5bd
00000320: 9f8d 2dbd fca2 62bd cba7 743d a6c3 90bd
00000330: 1e1d fb3c baf7 713d aa9d cabd 98b4 f6ba
00000340: 9ba1 123d e5ee e0ba bbbd c4bd d475 f6bc
00000350: 79e0 6d3d 27dd 4e3d 76d3 96bd 880f dfbc
00000360: 7211 89bc a3d2 0f3c 1954 aabc 2161 c3bd
00000370: 66f0 053c 3e56 963c 74a0 773b f6e6 553d
00000380: c437 88bd 1ee7 ed3d 57b1 3bbd 1403 88bc
00000390: 532f 94bc 6d8a 5ebd b78c 31bd 8f4a 2f3d
000003a0: 7eac 1c3d 05c5 ae3d 2ff8 423d d2be d63b
000003b0: 43f1 85bd 570e aabd 0905 933b 95ab 84bd
000003c0: d9b8 d4bc ff42 efba bb25 5b3d 8136 8abd
000003d0: 30f6 a43c b574 a53d 8755 913c e698 e1bb
000003e0: 1eb2 15bd 3f26 813d df43 8fbd 9b99 b7bc
000003f0: bfa6 95bd c70b 943c d37a f4bd 09ea 2bbc
