model/trained_model_Harry_Kane.pth (torch, 288566 bytes, 31 tensors)

layers.0.weight f4 [128, 5]
000000 e1 3b 87 3e 8f 2d 6d be 96 55 bb 3e 71 82 bf be
       0.2641287 -0.2316191 0.36588734 -0.37404206
000010 5b 2d c5 be ae e0 55 be b9 b6 de be 08 ab d2 be
       -0.38511166 -0.2088649 -0.4349878 -0.4114611
000020 80 6b 89 3e cd fb 42 3e 03 d9 af be 9d a7 1c bf
       0.26839828 0.19041367 -0.34345254 -0.6119326
000030 c3 0e 7e 3e 1b 0a a7 3e 2e c0 bb 3d b1 0c 80 bd
       0.24810319 0.32624897 0.09167515 -0.06252421
000040 f5 7b d4 3e 68 e6 0c be 01 7a 66 be 23 2c 7b 3d
       0.41500822 -0.13759768 -0.22507478 0.06132139
000050 56 e9 b0 3e 4d 93 5e be a0 e6 9a bd 09 6c e0 be
       0.3455302 -0.21735878 -0.075635195 -0.43832424
000060 99 5e 3e be b1 5e 3a be 9e 86 46 be 6c a7 c0 be
       -0.18590774 -0.18200184 -0.1938729 -0.37627733
000070 93 e3 d1 be 98 41 5a be 57 d2 7f be 87 4f 30 be
       -0.40993938 -0.21314085 -0.24982582 -0.17217837
000080 fb e5 3c 3f fe 75 64 3e 84 dd c4 3c 9f 90 d4 3e
       0.7378842 0.22310635 0.024031408 0.41516587
000090 af 5b a6 be 32 7e 5c 3e 5b b5 8f 3c f0 51 30 bc
       -0.32491824 0.21532515 0.017542532 -0.010761723
0000a0 59 69 91 3e e5 2d a1 be 5c 53 00 be 77 d0 8a 3e
       0.28400686 -0.31480327 -0.12531799 0.2711217
0000b0 43 ae 02 bb 21 67 42 3e bb 6b 0f bd df 34 72 3e
       -0.0019940294 0.18984653 -0.03501485 0.23652981
0000c0 2c db 22 be 34 aa 0c 3f 0e 50 48 be 42 bc 47 bf
       -0.1590392 0.5494721 -0.19561788 -0.78021634
0000d0 30 3c aa 3e 66 51 1d be 4f b3 6c be db 64 3c 3d
       0.33249044 -0.15363082 -0.23115276 0.04599462
0000e0 19 b3 18 3f f1 f0 de 3e 4b bc f3 3e 73 1f c9 3e
       0.5964828 0.435432 0.47604594 0.39281806
0000f0 91 8f b5 3d a6 32 fd 3e 29 52 54 3e 09 10 c1 3e
       0.08865274 0.49452704 0.20734467 0.37707546
000100 0f 96 70 be 67 2b a6 3e d9 5c f1 3e 24 b7 6a 3e
       -0.23494743 0.32454988 0.4714115 0.22921425
000110 d1 60 cd 3e b2 39 a8 3e 96 10 51 3e 09 6f a0 3f
       0.40112928 0.32856518 0.20416483 1.2533885
000120 4d 14 87 3f 8d 5e e3 3e 0c 86 5d 3f c8 c0 2a 3e
       1.055307 0.44408074 0.86532664 0.16675103
000130 c0 f4 10 bd ca c9 f1 3e a5 0e d7 3a 59 f3 2e bf
       -0.03538966 0.47224265 0.0016407563 -0.6834007
000140 73 cb b5 3e e2 36 8f 3e 33 d0 7d 3f 7f 67 a6 3e
       0.35506782 0.2797156 0.9914581 0.32500836
000150 ec 69 2e 3d fc 93 97 3e 19 e5 d1 be 66 da a2 be
       0.042581484 0.2960509 -0.409951 -0.3180725
000160 d5 55 79 be 5a 73 10 3e 83 b2 ab be 98 73 8a 3f
       -0.24349149 0.14106503 -0.3353463 1.0816526
000170 97 05 05 bf d6 2a f0 3e 85 b2 a4 3f 1b 6d 09 3e
       -0.51961654 0.4690768 1.286698 0.13420527
000180 19 55 ed bd fe bb 82 be 80 60 fc 3d 69 a4 ad be
       -0.11588497 -0.25534052 0.123230934 -0.33914497
000190 1f df 60 bc e0 41 b8 be 3a 3a 77 bd e5 38 1a 3e
       -0.013725071 -0.3598776 -0.060358264 0.15060766
0001a0 90 6d 16 bd b1 ea 36 bd f5 7b fd 3e c5 96 85 bd
       -0.03672558 -0.044657413 0.49508634 -0.06522898
0001b0 2f 9a a3 3e a4 f3 49 be 2e dd 9b bd 76 0c 0c 3f
       0.3195357 -0.19721848 -0.07610546 0.54706514
0001c0 c5 30 75 be 2d cd 1b 3e 70 7f 8d be 60 4b ba be
       -0.23944385 0.15214987 -0.2763629 -0.36385632
0001d0 4d dd e8 3d 89 dc b6 3d 21 f1 12 3d ae 1a 99 3e
       0.11370335 0.089287825 0.03587449 0.29903167
0001e0 fb 42 9f bd 78 3e 6b 3e 40 19 ef be 1e 06 76 3d
       -0.077764474 0.22973049 -0.46698952 0.060064428
0001f0 d0 c4 e5 3e be d5 22 be ae a3 d6 bd 59 39 3a be
       0.4487672 -0.15901849 -0.10480438 -0.18185939
000200 14 af 07 3c 10 f6 8f bd fa 2b ce be f5 e0 d2 bb
       0.008281488 -0.070293546 -0.40267926 -0.0064355084
000210 ca a8 c7 3d 95 0e 18 be 73 5a e3 be d7 67 4f 3e
       0.09748991 -0.14849313 -0.44404945 0.20254456
000220 26 75 ee 3e 42 fc 3a be 2f 37 fb 3e 57 ab f1 bd
       0.46573752 -0.18260291 0.4906554 -0.118002586
000230 57 54 b7 3e 32 c6 b8 be a9 32 a0 3d 0e ed 9b bd
       0.35806534 -0.3608871 0.07822163 -0.07613574
000240 a5 8e 88 be f5 48 e9 bd 32 94 98 be 79 17 df be
       -0.2667133 -0.113908686 -0.29800564 -0.43572596
000250 32 dc ae 3e a2 22 d4 be 75 66 50 3e ce 94 d3 be
       0.3415237 -0.41432673 0.20351584 -0.41324466
000260 4b 62 a6 be 7f e3 a6 3e e5 e3 fb 3d fa e4 d1 3e
       -0.32496867 0.3259544 0.12299327 0.40995008
000270 df 77 de 3e f0 14 44 3e 44 b3 c9 3d 2a 86 a9 3e
       0.4345083 0.19148612 0.09848645 0.33110172
000280 cd f2 73 bc 91 12 20 3e e4 36 a1 3e 0d 7f bd 3e
       -0.014889431 0.15632083 0.3148719 0.37010995
000290 e4 d4 a6 3e 69 1d 9b be d8 94 43 be 51 d8 50 be
       0.32584298 -0.30295876 -0.19099748 -0.20395018
0002a0 e7 39 76 3e 8b 19 a2 be cf 4c 93 3c 99 ee 19 3d
       0.24045525 -0.31660113 0.017980961 0.03758106
0002b0 38 97 af 3e 53 a5 1f 3e 51 7a b5 3e 70 8f f5 bd
       0.34295058 0.1559041 0.35444883 -0.11990249
0002c0 05 4d 85 3e 5e 4c da 3e 74 e6 bd be b2 2b 4b 3e
       0.26035324 0.4263639 -0.37089884 0.19840887
0002d0 06 ed e2 be b3 eb 3c be 7b 96 e1 3e c9 99 b4 3d
       -0.4432146 -0.18449287 0.4406012 0.08818395
0002e0 10 ca af 3d bf 7f 9e 3d 04 59 8d be c6 a6 14 3e
       0.08583462 0.077392094 -0.27606976 0.14516744
0002f0 d3 ca fc bc 59 96 8a bc ee 12 88 be 06 91 df 3e
       -0.030858433 -0.016917394 -0.26576942 0.43665332
000300 2a 2f a3 3e b1 4a c2 be 4f c8 50 3e a8 f7 c6 3e
       0.3187192 -0.3794761 0.20388912 0.38860822
000310 fd cc 2a 3f c8 1c 46 3f 0e db a1 3e 5c fd 4b 3e
       0.6671904 0.77387667 0.31612438 0.19920868
000320 a9 7a 8c be b8 c9 52 bd 43 15 cb 3e 65 d9 94 3e
       -0.27437332 -0.051461905 0.3966466 0.2907211
000330 9b b0 99 3e 72 c3 a4 bd 21 80 cf 3e 53 68 83 be
       0.30017552 -0.08045091 0.40527442 -0.2566553
000340 05 a5 c9 be f0 b2 2b 3e 92 11 16 3e ff 4b cd be
       -0.39383712 0.16767478 0.1465514 -0.40097043
000350 b0 d1 3f 3b 14 39 a5 3e 8d b4 24 3e 70 18 22 be
       0.002926927 0.3227011 0.160845 -0.15829635
000360 b4 a7 b3 3d 34 d7 1d bd 2b 4b b6 be 24 81 e2 3e
       0.08772221 -0.03853531 -0.35604224 0.4423915
000370 29 df c7 bd ba ec bd bd 3e e7 d8 be d2 ea 2a be
       -0.09759361 -0.09273668 -0.42363924 -0.1669114
000380 54 f4 f9 bc fc 09 09 be 23 c2 7b bd 06 8c 02 bf
       -0.030512013 -0.13382715 -0.06146444 -0.5099491
000390 fb 50 f8 3c 0f c4 25 bc fb fd bb be cc e3 c5 bc
       0.030312052 -0.010117545 -0.3671721 -0.024156474
0003a0 6f 3f 9f bc 1c a8 37 3e 32 71 bb be 3d e7 91 3e
       -0.019439427 0.17935222 -0.366098 0.28496733
0003b0 4d 64 bf bd 0d bb 9a be e8 a2 16 be fe 7f d8 bd
       -0.09345303 -0.30220833 -0.14710581 -0.105712876
0003c0 7b c4 65 3e 75 0e 0e bd 7d 6c 5b be c6 7d 86 bd
       0.22438233 -0.034681756 -0.21428104 -0.06566958
0003d0 aa 37 3f bd 31 1e 8b 3e ed 48 30 bc d9 b4 38 be
       -0.046683945 0.27171472 -0.010759574 -0.18037738
0003e0 fc fe 41 3e f4 f8 de be f7 e2 9b 3e c3 e7 2d bf
       0.18944925 -0.4354931 0.30446598 -0.67931765
0003f0 04 15 b8 be 6d d8 6b be 13 22 52 be 86 6d cc be
       -0.35953534 -0.23031779 -0.20520811 -0.3992731

layers.0.bias f4 [128]
000000 8c 49 d2 be a2 c1 80 be d2 63 65 3e 04 ca 88 3e
       -0.41071737 -0.2514773 0.2240136 0.26716626
000010 41 29 5f 3e 11 92 4b be d3 10 cc bd 7c 6d 1d 3e
       0.21793081 -0.19879939 -0.099641465 0.15373796
000020 9a 08 e1 be 0e 8c 9f 3e c4 6e 5a be 94 9f 6b 3e
       -0.43951875 0.3116154 -0.21331316 0.23010093
000030 1c d6 c2 3e 38 f6 46 3e fd 98 ea 3e 08 a7 59 3e
       0.38053977 0.19429862 0.45819846 0.21255124
000040 37 3c 5d 3e d0 6f b6 3e 0b 0f c7 3e 83 7c dd be
       0.21605001 0.3563218 0.38878664 -0.43259057
000050 e3 70 1d be 35 18 87 be 60 f1 d5 be 8f a3 91 bd
       -0.15375094 -0.26385656 -0.41785717 -0.071112745
000060 9c 10 08 be 10 85 3f 3d 8d 22 2a 3e 6b 43 d9 3e
       -0.13287586 0.046757758 0.16614743 0.42434248
000070 1c c7 fa bd b7 43 51 bd 65 36 a7 3e ce b0 92 3e
       -0.12245008 -0.05108997 0.32658687 0.28650516
000080 d2 6a 9d 3e 25 dc 8c bd c2 21 ca 3e b6 84 cc be
       0.3074556 -0.06877927 0.3947888 -0.39945
000090 89 71 9e 3e 58 a0 d5 3e 34 78 ce 3d fe 9e 25 be
       0.30945995 0.41723895 0.10081521 -0.16173932
0000a0 8b d7 91 3d 90 8d 58 3e 78 e8 7d 3d 96 2c 8d 3e
       0.0712119 0.21147752 0.061989278 0.2757308
0000b0 bf 68 5d bc 62 fa 95 be d2 42 83 be 1d a2 5a 3e
       -0.013513743 -0.2929259 -0.25636917 0.21350904
0000c0 3a 09 69 3e 15 9f bb be 70 2f b9 3e bd eb 90 3d
       0.22757426 -0.36644807 0.36169004 0.070762135
0000d0 46 40 66 be 56 03 fb bd 27 16 98 3d bf a2 85 be
       -0.22485456 -0.12256496 0.074261 -0.26100728
0000e0 e6 0f ad be 9f d4 66 3e 29 21 f9 bd cd e1 c5 3e
       -0.33801192 0.22542046 -0.12164528 0.38648835
0000f0 fd 3e 14 3e 6d 03 41 be cd 2f bb 3e 0c 68 bb 3d
       0.14477153 -0.18848963 0.36559907 0.09150705
000100 a2 3b a3 3e 07 3c 0a bd cc 7b 98 3e ac 10 00 3e
       0.31881434 -0.033748653 0.2978195 0.1250636
000110 e1 c8 57 bd ea 58 9e be 1b e3 6b 3e 89 9a 3d 3e
       -0.052681807 -0.3092721 0.23035853 0.18515982
000120 99 70 05 be 78 47 a6 be da 43 9f be 59 a4 a8 be
       -0.13031234 -0.324764 -0.31106454 -0.32937887
000130 22 56 a2 be 55 da 93 3e 2e c4 bf 3d 57 4b d1 bd
       -0.3170634 0.28877512 0.0936359 -0.10219448
000140 d5 a0 72 3e 19 3a e0 be f1 53 51 be 9b e9 10 3e
       0.23694165 -0.43794325 -0.20442177 0.14151613
000150 83 ea 84 be 3d 43 de 3d 51 86 54 3e 25 6e b2 be
       -0.25960168 0.108526684 0.20754363 -0.3484966
000160 dc 67 df 3e c9 ed 6c 3d 53 b2 2e 3e 17 8f c4 be
       0.43633926 0.057843957 0.17060213 -0.3839042
000170 76 32 0d 3e a6 b5 87 be 90 41 e3 3e bf 3b 2d be
       0.1378878 -0.26505774 0.44385958 -0.16917323
000180 94 58 90 bd 27 12 be be 80 09 b7 3e 0b 77 32 bd
       -0.07048145 -0.37123224 0.35749435 -0.04357056
000190 b5 43 d5 be df da 24 be d6 28 0e 3e 4c 20 c6 3e
       -0.4165322 -0.16099118 0.13882765 0.38696516
0001a0 8b a5 80 bd 9f 83 8c 3e df c0 80 bd aa 49 0f 3e
       -0.06281575 0.2744417 -0.06286787 0.13992944
0001b0 24 75 98 be 74 8e 1a be 3e 88 0f be 56 bd 1f be
       -0.2977687 -0.15093404 -0.14016816 -0.1559957
0001c0 db 1a b4 be cf 11 97 be bc 4f 15 be 3e d1 6d 3e
       -0.3517674 -0.29505774 -0.14581198 0.23224351
0001d0 f4 cf c7 3e 89 6c 8f be 95 1e 45 3d 83 f9 be bd
       0.39025843 -0.28012493 0.04812487 -0.09324934
0001e0 f1 57 e1 be f2 57 7e 3e 5d d0 7c be 2d 95 ba 3e
       -0.44012406 0.24838236 -0.2468886 0.36441937
0001f0 a6 a5 86 bb 38 28 ae be d2 9c 83 3e 53 59 23 be
       -0.0041091023 -0.3401506 0.25705582 -0.15952043

layers.2.weight f4 [128]
000000 00 00 80 3f 00 00 80 3f 74 3e 82 3f 48 5f 74 3f
       1.0 1.0 1.0175309 0.9545789
000010 81 14 82 3f b5 6d 82 3f a1 78 87 3f 71 55 7d 3f
       1.0162507 1.018973 1.0583688 0.989585
000020 00 00 80 3f 32 d1 50 3f ae 46 7e 3f 47 bd 85 3f
       1.0 0.81569207 0.993266 1.0448388
000030 4f 55 61 3f 6a 5c 77 3f a7 f6 95 3f a5 f5 77 3f
       0.88020796 0.9662539 1.1715897 0.968592
000040 8e e9 a3 3f 12 5c 7d 3f 5b 33 80 3f 00 00 80 3f
       1.280565 0.98968613 1.0015672 1.0
000050 00 00 80 3f 72 b6 6a 3f 6f a7 69 3f 9e 8c 66 3f
       1.0 0.9168464 0.9127111 0.90058315
000060 80 bf 7d 3f 31 c9 7e 3f e6 40 79 3f ba bf 74 3f
       0.9912033 0.99525744 0.9736465 0.9560505
000070 70 70 7f 3f 00 00 80 3f d1 9c 7c 3f 7b 60 73 3f
       0.9978094 1.0 0.9867678 0.9506909
000080 21 89 69 3f 00 00 80 3f d1 60 63 3f f1 0b 71 3f
       0.9122487 1.0 0.88819605 0.94158846
000090 18 1e 80 3f b2 9c 7e 3f 00 87 75 3f c5 00 98 3f
       1.0009184 0.9945785 0.9590912 1.1875235
0000a0 aa aa 65 3f 71 1e 7c 3f e2 74 81 3f 36 a0 54 3f
       0.8971354 0.9848395 1.0113795 0.8305696
0000b0 00 00 80 3f 53 fc 84 3f 00 00 80 3f a1 d0 7b 3f
       1.0 1.0389503 1.0 0.9836522
0000c0 26 83 7d 3f 0a 4a 7f 3f 8f 6c 81 3f 10 b6 7d 3f
       0.9902824 0.9972235 1.0111254 0.9910593
0000d0 46 67 74 3f cc 48 77 3f 3d d0 7e 3f 4b ff 81 3f
       0.9547008 0.96595454 0.99536496 1.0156034
0000e0 0a af 53 3f ba 15 8c 3f 55 e7 77 3f 97 1f 8b 3f
       0.82688963 1.094413 0.9683736 1.0869015
0000f0 f0 63 86 3f 00 00 80 3f e8 e1 83 3f 11 18 80 3f
       1.0499249 1.0 1.0303316 1.0007344
000100 dc 55 84 3f 96 a4 57 3f 38 07 7e 3f fb 9c 77 3f
       1.0338702 0.84235513 0.99229765 0.9672391
000110 a1 66 81 3f 00 00 80 3f b4 38 7f 3f 4d 66 68 3f
       1.0109445 1.0 0.996959 0.907811
000120 48 b5 82 3f 0f 50 4d 3f 6d 48 7f 3f 4a 0c 8c 3f
       1.0211573 0.80200285 0.9971989 1.094125
000130 00 00 80 3f 5f 67 80 3f 20 9a 7c 3f 7c 8b 87 3f
       1.0 1.0031546 0.98672676 1.0589442
000140 43 bd 80 3f 96 e7 7b 3f 00 00 80 3f d0 12 91 3f
       1.0057758 0.9840025 1.0 1.1333866
000150 00 00 80 3f c2 5d 68 3f bf 92 80 3f a4 3d 84 3f
       1.0 0.90768063 1.0044783 1.0331311
000160 04 7a 87 3f 68 f3 7b 3f 79 27 88 3f 00 00 80 3f
       1.0584111 0.98418283 1.0637046 1.0
000170 ad 57 86 3f 00 00 80 3f d3 1b 7f 3f 49 c4 79 3f
       1.0495507 1.0 0.9965183 0.9756513
000180 c3 04 77 3f 00 00 80 3f f8 a5 80 3f 3d 64 91 3f
       0.9649164 1.0 1.005065 1.1358715
000190 1e 69 9b 3f e8 59 85 3f 7b 91 73 3f 60 99 66 3f
       1.2141454 1.0418062 0.9514386 0.9007778
0001a0 4b d2 85 3f 66 8c 7d 3f 2d 3c 89 3f 84 39 78 3f
       1.0454801 0.99042356 1.0721489 0.9696276
0001b0 00 00 80 3f 00 00 80 3f a2 f8 7e 3f f5 43 82 3f
       1.0 1.0 0.99598134 1.0176989
0001c0 f7 3f 8a 3f 71 63 82 3f 2c 5b 7e 3f 27 97 7a 3f
       1.080077 1.0186597 0.9935787 0.9788689
0001d0 ab 09 7c 3f 14 de 9e 3f 2b d7 82 3f 4d 42 82 3f
       0.9845225 1.2411523 1.0221914 1.0176483
0001e0 00 00 80 3f 68 e4 91 3f 9c c0 63 3f c1 88 85 3f
       1.0 1.1397829 0.88965774 1.0432359
0001f0 d2 ab 7e 3f 00 00 80 3f b8 56 79 3f 0c 98 7b 3f
       0.99480927 1.0 0.9739795 0.9827888

layers.2.bias f4 [128]
000000 67 7f 94 3b 0d 57 3b 3c 39 14 8e bc fd 03 12 bd
       0.004531789 0.011434329 -0.017343627 -0.035648335
000010 fd 1a 0f bd 5c 66 c5 bc 8d d8 f2 3b 35 df 9f 3c
       -0.034937847 -0.02409666 0.007411069 0.019515613
000020 f5 94 b6 3b 81 78 15 3d 6d a0 8a bb 93 4a ec 3c
       0.0055719563 0.036491875 -0.00423055 0.028844154
000030 8c 49 cc 3b a9 34 f4 3c 1e 57 1b 3d 53 63 3f 3d
       0.0062343534 0.029810267 0.03792488 0.046725582
000040 1b 38 35 ba f1 8e 58 3c 22 c1 d3 bc 32 e9 ef 3c
       -0.00069129624 0.013217674 -0.025848929 0.029286
000050 cd c2 2e 3a 89 d1 50 bc 13 68 0b bc 3d 2d 48 3c
       0.0006666601 -0.01274527 -0.0085087 0.012217817
000060 32 15 39 bd f0 f8 6d bc e9 ee f5 3c 89 f5 cc 3b
       -0.04518623 -0.014524683 0.030021148 0.006254856
000070 59 e8 f9 3c a8 04 18 3b 7b 59 ac 3b 4f 4e dd 3b
       0.0305063 0.0023196135 0.0052596903 0.00675372
000080 df ee 42 3d 34 2f 8f 3c 52 81 ee 3c 88 3b 6d 3d
       0.047591086 0.017478563 0.0291144 0.0579181
000090 c4 59 7a bc ce a2 23 bb ec 91 57 3c b3 5f 9d 3c
       -0.015280191 -0.0024968865 0.013157349 0.019210672
0000a0 d9 d8 72 3c b4 ba 73 bc 58 04 ca bc 20 92 2a bb
       0.014822208 -0.014876056 -0.024660274 -0.0026027039
0000b0 2c e1 fc ba a8 ed ee 3b 58 33 96 bc 39 5a 3c 3d
       -0.0019293181 0.0072915144 -0.01833503 0.04598448
0000c0 0f 70 09 3d 62 02 c3 bc d9 a3 a1 bc ad 0c 65 bd
       0.033554133 -0.023804847 -0.019731449 -0.05592029
0000d0 a1 6b a8 bc ca b6 10 bb ab 04 29 3d 3f 93 1d bd
       -0.020559134 -0.0022081607 0.041264217 -0.038470503
0000e0 8f af a2 3c 6d df 89 3d e6 15 e0 bc b8 ef 82 3c
       0.019859103 0.06732068 -0.027354192 0.015983447
0000f0 3d 16 51 3d fc 53 9d bc 38 a7 0b 3b e5 08 f2 3b
       0.0510466 -0.019205086 0.0021309387 0.007386314
000100 49 7a cb 3c b9 6d bc 3c f1 1e 9f 3c 8b 46 e6 3c
       0.024838584 0.023001539 0.019423934 0.02810981
000110 b1 27 90 3c ce f6 a7 bb 3f 8a 65 bc 4e 0b 00 bc
       0.017597051 -0.005125857 -0.014010011 -0.007815195
000120 00 6e e3 3b 09 8d 18 bd fb ce 4c bd 97 a6 c1 bc
       0.0069406033 -0.037243877 -0.05000208 -0.023639007
000130 0d d7 6a 3c d7 aa ac bc 29 c0 03 3d 7b 95 04 3d
       0.014333499 -0.021077557 0.03216568 0.03236912
000140 d0 c8 0c bc 63 e7 7e bc 76 50 41 3c 6e 4f cc 3b
       -0.008592799 -0.015558097 0.011798969 0.0062350547
000150 18 b5 99 3b a6 18 a3 bc 71 60 99 bc 65 f4 f4 bc
       0.0046907775 -0.019909214 -0.018722745 -0.029901693
000160 1b a7 95 3d d6 bc ee 3c b4 2e 5d 3d 92 d4 b0 bc
       0.073072635 0.029142778 0.053999618 -0.021585736
000170 dd 5b 49 bb f0 8c 54 bc 69 a4 21 3c 55 92 72 bd
       -0.003072492 -0.012973055 0.009865859 -0.059221584
000180 60 76 90 bd 9f ba 23 3d 40 a0 9a 39 bb d6 fd bc
       -0.07053828 0.039972898 0.00029492564 -0.03098618
000190 3a 3f 52 3d f6 4a aa bc f6 15 09 3b a5 0a 5b 3c
       0.05132983 -0.020787697 0.002091763 0.013369237
0001a0 a0 22 1e 3d 36 3c 0e 3d 25 81 41 bd 8b b5 bf bd
       0.03860724 0.03472539 -0.047242302 -0.093607984
0001b0 d8 3c 4b 3b d6 ea a5 3b 84 cf 44 3d ee 9b 60 bc
       0.0031011607 0.005063395 0.048049465 -0.013709052
0001c0 15 3c b9 bc c3 5d 50 bd 49 82 91 bc f0 82 19 bd
       -0.022611657 -0.05087067 -0.01776232 -0.037478387
0001d0 4a 64 be bc b3 e4 21 bd f4 61 06 3c f7 d7 13 bc
       -0.02324118 -0.039524745 0.008202065 -0.009023658
0001e0 0e 29 9f bc 63 d3 f7 bc 16 25 bd bb 5c 60 09 bd
       -0.019428756 -0.030252164 -0.0057722433 -0.03353916
0001f0 85 9a 01 3c be 64 14 3b 20 05 c0 3c 56 56 07 bd
       0.0079103755 0.0022643055 0.023439944 -0.03304132

layers.2.running_mean f4 [128]
000000 00 00 00 00 00 00 00 00 46 12 e4 3c a2 33 02 42
       0.0 0.0 0.027840745 32.550423
000010 79 e0 dd 3c 04 00 00 00 11 66 00 00 fe 86 9c 3c
       0.027084576 6e-45 3.6615e-41 0.019107338
000020 00 00 00 00 b5 c7 a2 41 04 00 00 00 ef e2 84 42
       0.0 20.347513 6e-45 66.44323
000030 43 32 fb 41 74 0c 56 42 8b c8 08 43 2c 67 d8 3c
       31.399542 53.51216 136.78337 0.026416384
000040 f4 f4 cb 41 94 62 35 3d af d1 0c 43 00 00 00 00
       25.494606 0.044283465 140.81908 0.0
000050 00 00 00 00 48 3d fd 41 be 72 f6 41 2b a2 ac 41
       0.0 31.654922 30.806026 21.579184
000060 58 3f 12 42 dc 55 be 3b 80 2a a9 3c 20 28 0b 42
       36.56186 0.005808575 0.020650148 34.789185
000070 04 00 00 00 00 00 00 00 c6 3f 26 3d 7d 91 41 42
       6e-45 0.0 0.040588163 48.39208
000080 14 ab ea 41 00 00 00 00 cc 29 9f 41 fe 82 c8 41
       29.333534 0.0 19.895409 25.063961
000090 bf 87 1d 3d 21 65 54 3d 8b d8 1b 42 88 64 78 42
       0.038459536 0.051854257 38.961468 62.098175
0000a0 8d ec 3f 41 fa 9f 0a 42 c4 19 fc 3b 6c a0 b5 41
       11.995252 34.656227 0.007693501 22.703331
0000b0 00 00 00 00 04 00 00 00 00 00 00 00 0c 60 d9 3c
       0.0 6e-45 0.0 0.026535057
0000c0 b9 b1 e7 3c 04 00 00 00 2e 1e 38 3d 99 06 a9 41
       0.028282987 6e-45 0.044950657 21.128222
0000d0 27 cf 00 00 8d b8 b4 43 58 2f 17 3c ce 20 ea 41
       7.4312e-41 361.4418 0.009227596 29.266018
0000e0 9d cd b2 41 39 81 e5 3c 05 f7 9c 41 be bd 44 3d
       22.350397 0.02801572 19.620615 0.048032515
0000f0 eb 66 93 3c 00 00 00 00 96 1b 3a 3d 9b 4b 3a 3c
       0.017993411 0.0 0.045436464 0.011370565
000100 4f ec 1d 42 a5 9e 89 41 00 9b 17 3d 18 a2 7e 3c
       39.48077 17.202463 0.037013054 0.015541576
000110 16 b2 a9 43 00 00 00 00 d5 86 ea 3c ba 2e 26 42
       339.3913 0.0 0.028628746 41.54563
000120 0c 4c b8 44 02 33 81 41 0e 37 ac 02 b9 07 8d 42
       1474.3765 16.149906 2.5304728e-37 70.51508
000130 00 00 00 00 21 00 13 3d 91 ad 3e 3c 04 00 00 00
       0.0 0.035888795 0.011638061 6e-45
000140 55 3a f1 3c 04 00 00 00 00 00 00 00 89 0e 92 41
       0.02944676 6e-45 0.0 18.257097
000150 00 00 00 00 da 36 07 42 c6 4c d3 3c c8 3d 1e 41
       0.0 33.803566 0.025793444 9.890083
000160 3a 55 9d 41 09 11 ec 3b 04 b4 ad 3c 00 00 00 00
       19.666615 0.007204179 0.021204002 0.0
000170 da 61 8c 3c 00 00 00 00 45 f2 61 3d f0 3f 21 11
       0.017136503 0.0 0.055162687 1.2720363e-28
000180 08 e5 4f 41 00 00 00 00 7c fb 35 3d 33 67 c7 41
       12.993416 0.0 0.044429287 24.92539
000190 9e 48 0f 41 17 00 00 00 d6 6a f8 41 ba 0f b0 41
       8.955229 3.2e-44 31.052166 22.007679
0001a0 07 01 00 00 54 b4 0b 3d 60 92 78 41 05 42 fd 41
       3.69e-43 0.03410752 15.535736 31.657236
0001b0 00 00 00 00 00 00 00 00 04 00 00 00 04 00 00 00
       0.0 0.0 6e-45 6e-45
0001c0 16 33 4c 42 be 15 a8 41 04 00 00 00 0c ea 82 41
       51.04989 21.010616 6e-45 16.36428
0001d0 f5 6c 9a 41 83 28 65 11 c1 6e c3 3b 04 00 00 00
       19.303202 1.8077398e-28 0.0059641306 6e-45
0001e0 00 00 00 00 dc df fc 3c cf ab 20 41 c7 81 39 3d
       0.0 0.030868463 10.041945 0.04528978
0001f0 04 00 00 00 00 00 00 00 73 38 09 42 a5 05 af 41
       6e-45 0.0 34.305126 21.877756

layers.2.running_var f4 [128]
000000 04 00 00 00 04 00 00 00 0d 81 b3 3b bb 8c 2f 43
       6e-45 6e-45 0.0054780305 175.54973
000010 be e2 a9 3b 04 00 00 00 a7 f3 00 00 8b 19 29 3b
       0.0051845005 6e-45 8.7406e-41 0.0025802578
000020 04 00 00 00 c9 17 9a 43 04 00 00 00 31 ab 67 44
       6e-45 308.18582 6e-45 926.67487
000030 0d e8 39 43 5b 9c 18 44 34 73 73 45 54 9b a1 3b
       185.90645 610.44305 3895.2002 0.0049318466
000040 cd 2e e7 42 be 12 63 3c 0d 46 99 45 04 00 00 00
       115.59141 0.013859449 4904.7563 6e-45
000050 04 00 00 00 aa b4 39 43 c6 49 53 43 35 e3 1f 43
       6e-45 185.70572 211.28818 159.88753
000060 8c e4 c9 43 d7 08 7a 39 8a 82 45 3b cd 67 47 43
       403.78552 0.00023845151 0.0030137622 199.40547
000070 04 00 00 00 04 00 00 00 e5 c1 3e 3c b4 d3 f6 43
       6e-45 6e-45 0.011642908 493.65393
000080 c0 b7 86 43 04 00 00 00 c8 6b 3d 43 db 01 fc 42
       269.43555 6e-45 189.42102 126.003624
000090 12 46 2b 3c 0b ad 9b 3c 89 7b 89 43 d3 c6 2f 44
       0.010453718 0.019003412 274.96512 703.1066
0000a0 dd 92 f7 42 67 a4 52 43 84 57 db 39 2e 0a 5a 43
       123.78684 210.6422 0.0004183614 218.03976
0000b0 04 00 00 00 04 00 00 00 04 00 00 00 dd 0f a3 3b
       6e-45 6e-45 6e-45 0.0049762563
0000c0 8c 40 b9 3b 04 00 00 00 93 f7 69 3c 3d 25 a7 42
       0.0056534465 6e-45 0.014280218 83.57273
0000d0 39 6e 01 00 06 e0 db 46 d4 c0 1d 3a f8 83 10 43
       1.31376e-40 28144.012 0.00060178083 144.5155
0000e0 48 cd 10 43 80 c4 b5 3b 8f 87 c0 42 0c 93 85 3c
       144.80188 0.0055471063 96.26476 0.016305469
0000f0 4b f5 15 3b 04 00 00 00 3a 0d 6f 3c 72 88 6f 3a
       0.0022881802 6e-45 0.014590556 0.00091374584
000100 73 32 b3 43 3e 3a 70 43 f0 a1 1e 3c 16 c0 df 3a
       358.39413 240.22751 0.009682164 0.0017070796
000110 36 1c 96 46 04 00 00 00 2a cf bd 3b 59 ce dd 43
       19214.105 6e-45 0.005792518 443.6121
000120 33 db b0 48 1f 38 e5 42 06 1f e2 02 9e f7 4f 44
       362201.6 114.60961 3.3225522e-37 831.869
000130 04 00 00 00 67 24 15 3c dc ef 7a 3a 04 00 00 00
       6e-45 0.009102917 0.0009572485 6e-45
000140 a9 cf c8 3b 04 00 00 00 04 00 00 00 ae a2 68 42
       0.0061282706 6e-45 6e-45 58.158867
000150 04 00 00 00 06 70 68 43 21 13 9a 3b dc ec c0 41
       6e-45 232.43759 0.0047019874 24.115654
000160 2b b9 90 42 9c 4f c0 39 24 3f 50 3b 04 00 00 00
       72.36166 0.00036680407 0.0031775916 6e-45
000170 ea 03 08 3b 04 00 00 00 b6 2c b0 3c d5 5c 96 11
       0.0020754286 6e-45 0.021505695 2.372304e-28
000180 96 d8 9d 42 04 00 00 00 37 92 64 3c 99 87 e2 42
       78.92302 6e-45 0.013950876 113.26484
000190 1e c6 b4 41 3a 00 00 00 e6 02 34 43 cf 6c fb 42
       22.596737 8.1e-44 180.01132 125.71252
0001a0 ff 01 00 00 6f b4 06 3c 3b e4 33 42 54 de 27 43
       7.16e-43 0.00822173 44.97288 167.86847
0001b0 04 00 00 00 04 00 00 00 04 00 00 00 04 00 00 00
       6e-45 6e-45 6e-45 6e-45
0001c0 ba d8 0a 44 f2 1a 9b 42 04 00 00 00 38 de 87 42
       555.38635 77.55263 6e-45 67.93402
0001d0 79 33 7d 42 cd 26 3c 12 f8 d2 83 39 04 00 00 00
       63.300266 5.9370166e-28 0.0002514345 6e-45
0001e0 04 00 00 00 76 ab dc 3b 5b a9 04 42 be 82 6d 3c
       6e-45 0.006734307 33.165386 0.014496503
0001f0 04 00 00 00 04 00 00 00 1d 01 6e 43 22 21 a5 42
       6e-45 6e-45 238.00435 82.56471

layers.3.weight f4 [128, 128]
000000 ff 37 71 3a d3 25 a7 3d 8c 9a 9b bd 9e d8 92 bd
       0.00092017645 0.08161511 -0.07597837 -0.07170223
000010 8e e1 26 bd ff 57 45 3c 1b f5 44 3d 91 f1 89 3c
       -0.04074245 0.012044906 0.048085313 0.01683882
000020 fd 74 c4 bc 47 cf b3 3d fc 2f 60 3d dd 96 9f 3d
       -0.023981566 0.087797694 0.05473326 0.07792447
000030 a9 a8 64 3d 77 90 17 3d e5 2d 2b bd fb cf 9a 3c
       0.05582491 0.037003007 -0.041791815 0.018898001
000040 13 58 9f bc 08 90 e9 bc ed 41 d8 3d bc 00 a7 bc
       -0.019451177 -0.028511062 0.10559449 -0.020386092
000050 9b d7 68 bd 4d 39 ed 3c 39 57 c0 bd 26 b0 af bb
       -0.056846242 0.028957987 -0.093916364 -0.0053615747
000060 49 2b 9d 3d 9a 6c 3a bc 18 ca 13 3d 94 5e 8d 3d
       0.076742716 -0.011378432 0.036081403 0.06902805
000070 a3 6a 41 3d 04 0c b3 3d 05 69 52 3d bb 47 68 3c
       0.047220837 0.08742526 0.051369686 0.014177258
000080 12 dc 99 bc a1 1f 8d 3d 39 3f 24 3d 62 5a e2 3b
       -0.018781696 0.06890798 0.040099356 0.006907747
000090 e5 68 5a bd fe ef 64 3b 97 37 1d 3d 1e d5 b3 bd
       -0.05332269 0.0034933086 0.038383093 -0.08780883
0000a0 6e da e0 3d 38 b5 e2 bb 84 76 00 3d f4 b6 94 bd
       0.10979162 -0.0069185756 0.031363025 -0.07261458
0000b0 1d 15 37 bd 13 01 b1 3c 37 f4 69 bb cd d3 85 3d
       -0.04469787 0.021606958 -0.0035698542 0.065345384
0000c0 d4 ed 03 bd ee cf 9e 3c 20 a5 5c 3d eb f0 4c bd
       -0.032209232 0.019386258 0.053868413 -0.050034445
0000d0 96 6c 9b 3d 98 34 28 bd d8 bf 18 bd d0 9f f5 bb
       0.075890705 -0.041065782 -0.03729233 -0.007495858
0000e0 c4 33 86 3c 18 83 f0 bb 63 be ce 3c ca 36 4b bd
       0.016382106 -0.0073398463 0.025237268 -0.049612798
0000f0 44 b5 df 3c 1a f7 57 3d 7e 0e 9e 3c 00 12 9e bc
       0.027308114 0.05272589 0.01929402 -0.019295692
000100 1b e6 87 3c 7e f9 06 bd e2 b1 b6 bb 4b 25 1f bd
       0.016589215 -0.032952778 -0.0055754045 -0.038853925
000110 05 69 2d 3d 46 16 8c ba 99 d8 4d 3d e2 fc ec 3b
       0.042336483 -0.001068779 0.05025539 0.0072322944
000120 8d 6f 9f bd bf bb 97 bd 62 45 c0 3d 75 ab 08 3d
       -0.077849485 -0.074088566 0.09388234 0.03336664
000130 c6 65 af 3c 7d f9 0e bd 27 5b c2 bc e3 c7 6d bd
       0.021410834 -0.0349059 -0.023725105 -0.058051955
000140 0c 1c 38 3d 1d 06 02 3c c5 f6 a2 bd 83 7d b6 bb
       0.044948623 0.007936028 -0.07957224 -0.0055691614
000150 4c 55 17 bd 15 2c 98 bd 11 7d 42 bd 42 b5 2d 3d
       -0.03694658 -0.07430283 -0.047482554 0.04240919
000160 4e 04 c4 3c 6e 45 d2 bc aa d4 32 3d 98 ef 66 3d
       0.023927834 -0.025667872 0.043659844 0.05638084
000170 6d 20 6e bd 5e 60 fe 3c 77 f2 0e bd 90 bb e0 b9
       -0.058136392 0.03105181 -0.0348992 -0.00042864354
000180 ed e2 3e 3c 3b c6 89 3c a7 fe a2 bd bd a0 4e 3c
       0.011650783 0.016818156 -0.07958727 0.012611565
000190 46 61 8c 3d 32 2f c8 3c d5 f4 2c bd 5e 31 e0 3c
       0.06854491 0.024436567 -0.042225678 0.02736729
0001a0 2f 29 bf bd ad 49 cf bd ec 60 a7 bc e0 b9 b9 bd
       -0.09334027 -0.101214744 -0.020431958 -0.09068656
0001b0 aa 8a 81 bd a2 37 9d 3d 48 69 9f 3d c9 e7 18 bd
       -0.06325276 0.07676627 0.07783753 -0.037330423
0001c0 3c d1 17 bd 81 4c eb bb 53 24 f4 bc 53 1d b0 3d
       -0.037064776 -0.007180751 -0.029802477 0.08599343
0001d0 be a4 2a 3c 6a 49 b1 3c b2 d4 18 bd e5 74 6f bc
       0.010415254 0.021641452 -0.037312217 -0.014615272
0001e0 2c 5d bb bb 72 be f5 3c bd 2b 41 bc 07 3c 8e bc
       -0.005717894 0.029998038 -0.011790213 -0.017362608
0001f0 cd 5f 9a bd ad 32 08 3d 37 32 a5 3d f9 06 36 bc
       -0.07537804 0.033251453 0.08066218 -0.011110061
000200 ba 13 9f bd 00 2b a8 3d ed e3 c5 bc 65 3a 85 bd
       -0.077674344 0.082113266 -0.024156535 -0.065052785
000210 c2 40 4e 3d 5d ef 4d bd 5d 01 27 3d 8c 29 9b bd
       0.050354727 -0.050277103 0.040772785 -0.07576284
000220 f1 c8 85 3d a5 93 ea 3d 21 58 9c 3d 16 21 cf 3d
       0.06532467 0.11453942 0.07633997 0.101137325
000230 8c b4 86 3d 1b 0a fc 3c 0d 63 19 3e 8a 45 88 3d
       0.06577405 0.030766537 0.14979191 0.066538885
000240 9b b6 17 3e 60 1d 90 bd ce 5a 08 3c 48 80 b8 3a
       0.14815752 -0.07036853 0.008322431 0.0014076317
000250 42 28 1b 3c a8 c8 ad bd 5b 2e 1a 3d f4 9f a3 bd
       0.009470047 -0.08485538 0.037641864 -0.07989493
000260 97 ca 76 bd b0 6c 89 3c 3e 10 6e 3d 97 ac bd 3d
       -0.0602518 0.016775459 0.05812096 0.092614345
000270 60 33 81 bb eb d0 e2 bb 35 9d 81 bd db 44 3b 3d
       -0.003942892 -0.0069218776 -0.06328813 0.045719963
000280 31 70 91 3d a1 11 92 bc 12 c6 a9 3d c1 1c 81 3d
       0.07101477 -0.017830672 0.08289732 0.063043125
000290 73 92 a6 bd 8b dc 4d 3d 52 76 89 3d cc b2 12 3e
       -0.08133402 0.050259154 0.06712021 0.14326018
0002a0 87 ed 91 bd 1e 4b 26 bd a4 8b 79 bd ff ad 9e bd
       -0.07125383 -0.04059898 -0.060924187 -0.07748031
0002b0 6b 96 0a 3d c8 19 d1 bd d6 64 b4 bd d0 b7 6d 3d
       0.033834856 -0.102099955 -0.088082954 0.058036625
0002c0 f7 52 b4 3c 50 3c b4 bd e0 83 40 bd c1 fa 20 be
       0.022012217 -0.08800566 -0.047000766 -0.15720655
0002d0 3f 5c 82 3d 06 0b 59 bd bb 6e 5a bd b5 1a 3e bd
       0.06365251 -0.05298903 -0.053328257 -0.04641219
0002e0 e0 eb f8 3c e5 b6 ed 3d 7b 8d f6 bc d1 9e d1 bc
       0.030385911 0.1160715 -0.03009676 -0.025588425
0002f0 10 17 19 3c 04 3e 07 bd bf fd 67 3c 0c 83 39 bd
       0.009343877 -0.033018127 0.014159619 -0.04529099
000300 ad d5 5b 3d 05 c7 02 3d c4 41 c2 bd 36 2d 88 bd
       0.053670574 0.03192808 -0.094852 -0.06649248
000310 b5 2d ac bc f6 dd 29 3c 84 81 c3 bd 45 c2 62 3d
       -0.021017889 0.010367861 -0.095461875 0.05536105
000320 e7 0d 90 bc 87 6c a2 3d 0e f1 98 3c 7c 2e b8 bd
       -0.017584754 0.07930856 0.018669631 -0.08993241
000330 9c be 51 bd 11 aa 81 3b 61 9c ce bc b1 8a 12 bd
       -0.05120717 0.003957041 -0.025221052 -0.035776798
000340 97 c2 29 bb c9 28 bd 3a cb a6 94 bb 5f 9f d9 bd
       -0.0025903338 0.0014431711 -0.004536485 -0.10626101
000350 16 e1 20 3d f7 83 b5 bc 55 4a bc bd 2d bb 12 bd
       0.03927716 -0.022157652 -0.09193865 -0.035823036
000360 4c 0c 05 3c 3b db c6 3b 94 7b 8d 3d ae dd 78 3c
       0.008120608 0.006068615 0.06908336 0.015189571
000370 56 55 4c bd 72 ba 8f bd ea c0 e2 bc 25 4b 95 bd
       -0.04988607 -0.070179835 -0.02767988 -0.07289723
000380 2b 5b db bc 36 89 20 bc e4 9d 95 bd c8 19 a3 bd
       -0.02677687 -0.009798339 -0.07305506 -0.07963902
000390 93 a9 4a 3e 50 fb 4c bd 30 59 75 3d 44 9e 51 bd
       0.1979125 -0.050044358 0.05989951 -0.051176324
0003a0 70 92 ff 3d e8 6b 23 3d 53 46 bc bd 34 ed b5 bc
       0.124791026 0.03989783 -0.09193101 -0.022207834
0003b0 cf a4 42 bd b1 e4 2f bd ea 67 62 3d c9 37 3b bd
       -0.047520455 -0.042942706 0.05527488 -0.045707498
0003c0 2c 36 07 be 49 d4 30 3d 9f da be 3c 7b 4d 94 bc
       -0.13204259 0.0431712 0.023297606 -0.018103352
0003d0 d7 bf 83 bd 89 3e 06 bd d2 ee af bd 6d b9 05 be
       -0.06433075 -0.032774482 -0.08590473 -0.13059016
0003e0 a0 eb ae 3d 93 72 d6 bd c8 9b f7 3d d5 72 c7 bb
       0.08541036 -0.10471072 0.1209026 -0.006086687
0003f0 65 d6 9e bc 30 53 81 bd f2 26 a8 3d ea 6c 7d 3d
       -0.01938934 -0.06314695 0.08210553 0.061871447

layers.3.bias f4 [128]
000000 3f c7 1f 3d ca 22 e2 3d 76 97 98 3c 21 2f bc bc
       0.039008375 0.11041792 0.01862691 -0.022971692
000010 65 9f 53 3b 68 0e b5 bd 10 66 4a 3d 5a 24 00 3d
       0.0032291051 -0.088406384 0.04941374 0.031284668
000020 f0 83 d2 3b 1b 5a 76 bd a7 33 c7 3d ea 30 c7 3c
       0.0064244196 -0.060144525 0.09726649 0.024315316
000030 c0 7d 8b 3c 72 8b 3d 3d ad 67 65 bd 92 03 f3 bd
       0.017027736 0.046275564 -0.056007076 -0.11865915
000040 90 d2 c4 bd 52 6b d0 3b 0f d1 f4 3c b4 37 83 3a
       -0.09610474 0.00636045 0.029884843 0.0010011108
000050 5a 73 02 3d 32 10 17 bd 3e 5a 92 3c df 08 76 3d
       0.03184829 -0.03688068 0.017865296 0.060067054
000060 74 62 28 bd 52 40 b7 3d 1f b8 97 3d 84 ab d0 3d
       -0.041109517 0.08947815 0.07408165 0.10188964
000070 6e cb 98 3c b9 27 a3 bd 35 d7 03 bb 83 e2 e4 bc
       0.01865169 -0.07966561 -0.0020117287 -0.02794004
000080 ef 16 05 bd a8 14 13 3d 37 aa d3 bd ed 2f 70 3c
       -0.032492574 0.03590837 -0.103352 0.014659864
000090 ca 74 76 bd ae 4e 01 3d c9 65 44 3d ac 52 dc 3d
       -0.060169972 0.031569175 0.047948632 0.10757956
0000a0 02 2d 5a 3d b0 e3 b8 3d e9 60 d5 bd ad cb 9d 3d
       0.05326558 0.09027803 -0.10418875 0.07704864
0000b0 ce c1 95 3d 7d e0 a5 bd e8 c9 39 bc 22 c0 7b 3a
       0.07312356 -0.08099458 -0.011339642 0.000960352
0000c0 b7 76 1c bb 53 65 6d 3d 5e 34 d9 bc ed 7b a1 3d
       -0.002387447 0.05795796 -0.026514228 0.07884965
0000d0 52 52 92 3c 95 84 27 3d b9 b0 8c bd 7f a6 d5 3d
       0.017861519 0.040897924 -0.06869645 0.10432147
0000e0 0d d5 1a bc d4 17 2d bd eb 04 01 bc a9 15 89 3c
       -0.009450209 -0.042259052 -0.007874708 0.016733961
0000f0 80 07 c0 bd 14 c3 8a bc 74 27 6a bd 6e 58 4c bd
       -0.093764305 -0.016938724 -0.05716653 -0.04988902
000100 9f 9e 8d bc e6 c7 e2 3d ab dd 05 be 49 1a 1c 3d
       -0.01728755 0.11073284 -0.13072841 0.038111005
000110 12 0f b0 bb 5f fe 77 bd 91 b9 7e bc 40 33 20 bd
       -0.0053728903 -0.06054532 -0.015547172 -0.039111376
000120 56 72 e0 3c c3 01 99 3c dd f4 7d 3d 73 5a 93 bd
       0.02739827 0.018677598 0.062001098 -0.07194986
000130 0c 17 df bc 06 ea a4 3c 95 9b 32 3d ac 05 86 bb
       -0.02723267 0.020131122 0.043605406 -0.0040900316
000140 4c eb a1 bd c3 c2 4f 3d 2e 03 a9 bc 12 84 a1 3c
       -0.079062074 0.05072285 -0.020631399 0.019716296
000150 44 31 41 bd 89 ab 77 bc e7 63 7e 3d e0 d8 ae 3d
       -0.047166124 -0.015116581 0.062106993 0.085374594
000160 d9 47 b6 bd 08 51 61 bd 06 b7 50 bc d5 8b 3c bd
       -0.089004226 -0.055008918 -0.012738949 -0.04603179
000170 ce aa f6 3c 12 8d 9c ba b2 dd a6 bb 48 55 b6 bd
       0.030110743 -0.0011943898 -0.005092346 -0.08902985
000180 ca 8c 2c bd 58 eb 30 3d a4 e3 98 bd 96 40 ea 3c
       -0.042126454 0.04319319 -0.07465294 0.02859525
000190 4b e6 3c bc 45 eb 49 3d 8e 88 9c bc e9 cf 18 3c
       -0.0115295155 0.049296636 -0.019108083 0.009326913
0001a0 2a 7d 03 3e f0 2b 3a bd d6 1b ef bc 50 97 93 3d
       0.12840715 -0.04545206 -0.029188078 0.07206595
0001b0 01 b9 8f 3d 53 79 c5 bd 58 b6 aa bd 70 c1 e2 3c
       0.070177086 -0.096422814 -0.083355606 0.027680129
0001c0 27 2d c2 3c e4 76 21 3e 45 44 46 3d 02 84 a2 bd
       0.023703171 0.1576801 0.04840495 -0.07935335
0001d0 1a c7 e7 3b 20 b0 df 3c 3a f1 84 bc 6e 74 0c 3d
       0.0070732953 0.027305663 -0.016228307 0.034290724
0001e0 42 48 d2 bd 5d 48 d8 3d df 01 a2 3d fe d6 32 bd
       -0.10267688 0.10560677 0.07910513 -0.043662064
0001f0 ff ff 04 bc ea 4a dc bc ed 78 05 3e eb 63 29 3d
       -0.008117675 -0.02689119 0.13034411 0.041355055

layers.5.weight f4 [128]
000000 8e e0 7a 3f 96 89 7d 3f 21 ae 7d 3f d5 6d 80 3f
       0.97998893 0.99038064 0.99093825 1.0033518
000010 4f b1 7c 3f 70 f1 7a 3f e1 d0 77 3f 3a a1 75 3f
       0.9870805 0.98024654 0.968031 0.9594914
000020 82 80 80 3f 6b 4f 7a 3f 8d d4 76 3f 53 bc 7f 3f
       1.0039217 0.9777743 0.96418077 0.99896735
000030 5a f3 83 3f e9 f7 77 3f 76 b3 82 3f 76 9b 7c 3f
       1.030864 0.96862656 1.0211017 0.98674715
000040 ea e3 7e 3f ea 82 7b 3f c4 c7 82 3f 34 83 7e 3f
       0.9956652 0.98246634 1.0217214 0.9941895
000050 ae 79 81 3f a7 ea 81 3f 8f f7 7c 3f f3 f6 80 3f
       1.0115259 1.0149735 0.98815244 1.0075363
000060 81 18 7f 3f 4f 06 7e 3f 3a 36 91 3f 16 f7 76 3f
       0.99646765 0.99228376 1.1344674 0.96470773
000070 5f 77 80 3f 31 74 7c 3f 83 a8 79 3f 59 08 80 3f
       1.0036429 0.98614794 0.97522753 1.0002548
000080 cc 2f 7d 3f c4 31 89 3f 6f 49 7d 3f 54 ec 7c 3f
       0.9890106 1.0718312 0.98940176 0.9879811
000090 ec 18 7d 3f 4c 79 7e 3f 1a 34 8f 3f ff 8c 7b 3f
       0.9886615 0.99403834 1.1187775 0.9826202
0000a0 b6 4f 96 3f 2e 51 8a 3f f9 bd 80 3f 19 d0 7c 3f
       1.1743076 1.0806024 1.0057975 0.9875503
0000b0 20 07 7b 3f f7 0d 80 3f 1f 95 77 3f c5 ec 77 3f
       0.98057747 1.0004262 0.96711916 0.96845657
0000c0 2c c2 7d 3f b4 e8 7e 3f ad bb 7d 3f 90 a6 7c 3f
       0.9912441 0.99573827 0.99114496 0.98691654
0000d0 1c 7b 7d 3f 0b a4 7f 3f e7 62 80 3f 8c 81 7d 3f
       0.99015975 0.99859685 1.0030183 0.990258
0000e0 28 0b 7f 3f aa f9 7d 3f e7 9a 7d 3f 88 24 80 3f
       0.996264 0.9920908 0.9906449 1.0011148
0000f0 ae 2e 7b 3f 5b a1 7b 3f 45 0b 76 3f cc 9e 82 3f
       0.981181 0.98293084 0.96110946 1.0204711
000100 a8 bf 7a 3f 39 c9 86 3f a2 6e 82 3f 3d 32 79 3f
       0.97948694 1.0530158 1.0190012 0.9734228
000110 41 99 7a 3f c2 b1 7b 3f 31 39 7f 3f a1 86 80 3f
       0.97890097 0.9831811 0.9969664 1.0041085
000120 67 b3 71 3f bd 45 7b 3f 39 30 7d 3f ac d1 7b 3f
       0.9441437 0.9815329 0.98901707 0.9836681
000130 f8 de 79 3f b6 18 7c 3f aa 64 7e 3f 36 02 8d 3f
       0.9760585 0.98475206 0.9937235 1.10163
000140 e5 31 78 3f 81 6d 7d 3f 8a 2a 83 3f e6 59 7e 3f
       0.96951133 0.98995215 1.0247357 0.99355924
000150 d6 5b 7b 3f 08 2a 7b 3f dd b0 80 3f d8 1e 7b 3f
       0.98187006 0.9811101 1.0053974 0.9809394
000160 7f 68 80 3f f3 41 7b 3f 92 82 79 3f 46 c7 7f 3f
       1.003189 0.98147506 0.9746486 0.9991344
000170 58 70 78 3f 76 ca 81 3f 4e 36 7d 3f 6c 80 80 3f
       0.9704642 1.0139911 0.9891099 1.0039191
000180 79 73 7e 3f 08 f0 7a 3f 0a f6 74 3f c1 d2 84 3f
       0.9939495 0.9802251 0.95687926 1.0376817
000190 b7 d8 7e 3f 84 b1 7a 3f b1 85 7c 3f 8f 43 7f 3f
       0.9954943 0.9792712 0.98641497 0.9971246
0001a0 45 49 7c 3f 56 69 7c 3f ca e7 78 3f 54 8e 7f 3f
       0.985493 0.9859823 0.9722868 0.9982655
0001b0 2d 64 7c 3f 8b e1 7c 3f 60 e5 7d 3f a6 b4 7d 3f
       0.98590356 0.9878165 0.99178123 0.9910377
0001c0 6c bd 7c 3f 91 a5 92 3f bf 0b 7d 3f ed 3b 8b 3f
       0.98726535 1.1456777 0.9884605 1.0877663
0001d0 c5 89 7a 3f dd 56 88 3f 41 9c 7c 3f a8 ea 7e 3f
       0.9786647 1.0651509 0.98675925 0.9957681
0001e0 9a 36 7e 3f 4f 8a 80 3f 3e f4 83 3f 67 69 80 3f
       0.99302065 1.0042208 1.0308912 1.0032166
0001f0 7e 64 88 3f 36 98 7f 3f 90 30 81 3f 85 37 7d 3f
       1.0655668 0.9984163 1.0092945 0.9891284

layers.5.bias f4 [128]
000000 0e dd d4 3c 7a cb 80 3c 47 6c 5b 3a 7a 6c 19 3c
       0.025984313 0.015722025 0.00083703216 0.009364242
000010 ff 37 4d bc 28 09 03 bc 47 43 83 bb 82 aa 66 3c
       -0.012525558 -0.0079977885 -0.004005823 0.014078738
000020 d1 9e d4 3b a4 9d ab 3b b6 e6 d2 3b da 14 0a 3c
       0.006488659 0.005237298 0.0064361943 0.008427823
000030 67 e5 90 3c 6a 4a 97 bc 4f 27 03 bc 57 27 58 3c
       0.017687513 -0.0184681 -0.008004977 0.013192973
000040 74 3d 33 3a 18 ff 40 3c 74 b7 81 3b 7c bb 76 ba
       0.00068374653 0.011779569 0.003958637 -0.00094120926
000050 c9 75 ec 37 c2 34 0e 3c 96 16 41 bc e3 4a ea 3b
       2.818824e-05 0.008679571 -0.01178517 0.0071500405
000060 21 66 42 3b 18 1a 99 bc 28 e6 eb ba 8b 6c 45 bc
       0.0029662924 -0.0186892 -0.0017997669 -0.012049804
000070 bd 53 57 3c 23 3d 82 3c 68 9d 14 3c 46 04 f8 bb
       0.013142523 0.015898293 0.009070732 -0.007568869
000080 7c 74 97 3c 21 ca 2b bc d6 46 ae 3c 8c cc 47 3c
       0.018488161 -0.010485203 0.021274012 0.012194764
000090 6b 25 c9 bb ad 6c b3 3c e3 d8 16 ba 1a 36 00 3c
       -0.006138494 0.021902407 -0.00057543645 0.007825399
0000a0 77 aa 49 3c 00 81 b4 3b 63 c5 09 bc 93 62 88 bb
       0.012308708 0.005508542 -0.008408877 -0.0041621416
0000b0 e9 ca d1 bb 63 de 68 bc b0 dd a5 3c 82 65 94 3b
       -0.0064023626 -0.014213177 0.02024731 0.0045287022
0000c0 88 be 8d 3b d8 ff b0 bc 9a 93 5e 3b 9a 89 14 3c
       0.0043256916 -0.02160637 0.003396249 0.00906601
0000d0 29 1e 2b 3c d3 5c 12 bc 97 37 36 bc 16 bc 6f bc
       0.010444202 -0.008933264 -0.011121652 -0.0146322455
0000e0 16 ef b3 3b 38 99 a0 bb ed 35 8e bb 22 05 11 3c
       0.0054911477 -0.0049010776 -0.0043399245 0.008851321
0000f0 b5 c6 be 3c 37 e8 e8 3c 50 2b 8d 3c f5 2c 8c bc
       0.02328811 0.028431041 0.017232567 -0.017111281
000100 94 e1 6e 3b ce 93 32 bb 32 4f 87 ba 8f 9c 2f bc
       0.0036450373 -0.0027248743 -0.0010323285 -0.010718479
000110 96 b2 49 39 03 fa 35 3c 19 56 63 bb e8 4e f2 3b
       0.00019235382 0.011106971 -0.003468877 0.0073946603
000120 49 12 1a 3c 53 ec 49 3c 4e 81 93 3c 70 27 eb 3b
       0.009403774 0.0123244105 0.018005993 0.007176332
000130 b4 1d bc 3c 67 e5 5d 3a 61 de fb 3b aa 98 52 bb
       0.022963382 0.00084646646 0.0076864217 -0.0032134452
000140 dd ec 6e 3a b6 22 49 3c 00 e6 a3 3c b0 74 fd b9
       0.0009114275 0.012276342 0.020007133 -0.0004834286
000150 19 e2 26 3c cd 1b fb 3b b2 d7 71 3b 69 35 11 3b
       0.010185742 0.007663226 0.0036902246 0.002215708
000160 39 ca b2 ba 6e 1a 8e 3c dd 41 db 3b 1e 07 02 3b
       -0.0013640589 0.017346587 0.006691201 0.0019840668
000170 9e 31 02 3c 3e 12 a2 bc f2 6d 55 3c cc 58 9c 3b
       0.0079464 -0.01978409 0.013026701 0.0047713276
000180 1a 8e 24 3c 45 99 0f 3a ba 0b 61 bc 65 e4 a1 3c
       0.010043645 0.0005477856 -0.013735706 0.019762227
000190 89 d7 f4 3b 74 66 57 3c 70 c6 96 3c 71 67 99 3c
       0.007471983 0.013146985 0.01840517 0.018726083
0001a0 0d b8 90 3c 8a 2b 49 3a 29 84 17 bb b9 1e 42 3b
       0.017665887 0.00076740293 -0.0023119545 0.0029620363
0001b0 63 3e 38 3c 97 7e 87 3c 06 ea 01 bb 63 60 c6 bb
       0.011245343 0.016539855 -0.0019823327 -0.0060539707
0001c0 6a 3b 0c 3c 98 ab 68 bc 99 5c 9f 3c 7d 5e e4 bb
       0.008559087 -0.014201067 0.019453334 -0.0069692717
0001d0 82 be 9a 3c 2e d0 5b bb 31 f0 8d bc 01 fc 65 3b
       0.01888967 -0.0033540833 -0.017326446 0.0035092833
0001e0 8c a9 80 3c f9 59 a3 3b 7c 76 51 bb 88 75 73 3b
       0.015705846 0.004985091 -0.0031961491 0.0037148912
0001f0 87 4a a8 3c 76 45 d3 3a 45 99 b3 3a 92 54 e3 3b
       0.02054335 0.0016118723 0.0013702294 0.006937572

layers.5.running_mean f4 [128]
000000 e6 92 93 3e 0b 44 05 3f 79 5a d6 3e 78 ea b5 3e
       0.28823012 0.5205695 0.418659 0.35530448
000010 c6 a6 c8 3e 85 b9 a6 3e e7 2f a3 3e ef 40 b8 3e
       0.39189738 0.32563415 0.31872484 0.3598704
000020 65 2f e8 3e 5a 1a cc 3e 1b 20 9f 3e d3 cc d3 3e
       0.4534866 0.39863855 0.31079182 0.41367206
000030 08 fe cf 3e 98 5e a0 3e 5f 0d 2a 3e 48 2b 37 3e
       0.40623498 0.3132217 0.16606663 0.17887604
000040 2f 8c 90 3e 18 50 e2 3e 0c 79 f0 3e 2d be c0 3e
       0.28231952 0.44201732 0.4696735 0.37645093
000050 f3 db df 3e ef c6 ed 3e 8b e8 d8 3e 98 3e 5f 3e
       0.43722495 0.46440837 0.42364916 0.21801221
000060 57 d1 61 3e 32 98 14 3f 53 b2 ff 3e 58 c7 af 3e
       0.22052513 0.5804473 0.49940738 0.34331775
000070 03 30 94 3f d9 e8 f2 3e d8 aa 50 3e d1 e9 97 3e
       1.1577152 0.47443274 0.20377672 0.29670575
000080 04 30 c1 3e f0 08 0d 3f bf cb fd 3d 2e 33 a4 3e
       0.37731946 0.5509176 0.12392377 0.32070297
000090 12 21 5c 3e f0 01 92 3e 84 75 d1 3e f4 3f c9 3e
       0.2149699 0.28517103 0.4090997 0.39306605
0000a0 7c 33 09 3f 29 7b 01 3f b0 a8 8c 3e 24 ed dd 3e
       0.53594184 0.5057855 0.27472448 0.43344986
0000b0 8c c7 cb 3e cc 01 82 3e de 8b 58 3e ed 8d d5 3e
       0.3980068 0.25391996 0.21147105 0.41709843
0000c0 db d0 89 3e b9 00 0e 3f b4 ba af 3e 4c da cc 3e
       0.26917157 0.5546985 0.3432213 0.40010297
0000d0 76 57 68 3e 6c 17 49 3e 90 f6 3d 3e 07 4c ce 3e
       0.22689614 0.19637841 0.18551087 0.4029238
0000e0 86 11 1b 3f e8 13 3b 3f a0 f4 3d 3e b0 7f 38 3e
       0.60573614 0.7307725 0.18550348 0.18017459
0000f0 40 42 8a 3e d3 34 90 3e 89 a2 b5 3e 09 04 d3 3e
       0.2700367 0.28165302 0.35475567 0.41214016
000100 61 55 c6 3e ac f3 ea 3e a4 ac 80 3e a4 fa e8 3e
       0.38737014 0.45889032 0.25131714 0.45503724
000110 3b 35 45 3e b2 b9 a9 3e 52 92 91 3e 64 e3 6b 3e
       0.19258587 0.33149487 0.28431946 0.23035961
000120 84 fe 90 3e c5 03 01 3f cd 95 ee 3e 8f 76 a6 3e
       0.2831918 0.50396377 0.46598664 0.32512328
000130 12 f7 7c 3e 7c 86 91 3e c8 42 8f 3e 96 70 1a 3f
       0.24703625 0.28422916 0.27980638 0.6032804
000140 61 78 52 3f fb b3 86 3e 93 5a 19 3f e3 bb a1 3e
       0.82214934 0.2630919 0.5990383 0.3158866
000150 fe 8b b6 3e 61 5c aa 3e 08 4a 51 3e da d0 32 3e
       0.3565368 0.33273605 0.20438397 0.17462483
000160 d1 a9 a1 3e 88 f3 8b 3e f7 97 ce 3e c5 00 db 3e
       0.31574872 0.27334237 0.40350315 0.42774025
000170 a1 93 e1 3e 77 db d8 3e 10 73 6a 3e 8b 89 06 3f
       0.44057944 0.42354938 0.22895455 0.52553624
000180 30 72 7f 3e 4f ed 92 3e e3 e8 1e 3e ff 91 01 3f
       0.24945903 0.28696677 0.15518527 0.506134
000190 c7 4a 3b 3e 7d 8e 23 3f 84 50 ce 3e 34 25 a3 3e
       0.18290244 0.63889295 0.40295804 0.3186432
0001a0 c1 c1 cd 3e 80 7f ac 3e 4a 3e ca 3e de 6b 9c 3e
       0.40186885 0.33691025 0.39500648 0.30551046
0001b0 87 3c 9e 3e ed 06 aa 3e 06 0d c3 3e 0b ed 6b 3e
       0.30905554 0.3320841 0.38095874 0.23039643
0001c0 bd fc e5 3e cb 27 52 3f 69 68 6b 3e 4f 7b 03 3f
       0.44919387 0.8209197 0.22989048 0.5136003
0001d0 0c c7 82 3e 9b ea 1f 3f 75 6c 14 3f 75 ab 4a 3e
       0.25542486 0.62467355 0.5797799 0.19791968
0001e0 e2 0b 95 3e 2d d6 dd 3e 29 16 1c 3f c4 07 c4 3e
       0.29110628 0.43327466 0.60971314 0.38287175
0001f0 ca b7 09 3f 00 d4 14 3f 6c fc 11 3f a7 47 ea 3e
       0.53796065 0.58135986 0.5702579 0.4575779

layers.5.running_var f4 [128]
000000 04 9b 1a 3e ec 54 06 3e 05 ca 1e 3e 91 9c 51 3e
       0.15098196 0.13118333 0.15506752 0.20469882
000010 a6 34 59 3f 61 c6 3e 3f 2c 8d a9 3d c7 45 b4 3d
       0.8484596 0.7452145 0.082788795 0.088023715
000020 0c 7c 17 3e 25 cc 05 3e cf 9a de 3d 27 60 1b 3f
       0.14793414 0.13066156 0.10869371 0.6069359
000030 e5 57 76 3e 47 66 b5 3d 3e c4 19 3e 7f 88 83 3e
       0.24056967 0.088573985 0.15016267 0.25690076
000040 08 9b c0 3e bf 3d 8d 3f 48 96 a4 3e 87 fe 84 3f
       0.3761828 1.1034468 0.32145905 1.0390176
000050 3f f1 27 3e f2 6d b9 3d 34 40 a1 3f 26 c4 a7 3e
       0.16400622 0.090541735 1.2597718 0.32766837
000060 cb 63 93 3e cb af 0a 3e 2b 72 bc 3d 38 8b 4e 3d
       0.28787073 0.13543622 0.09201463 0.050425738
000070 05 b2 1d 3f fb 84 af 3f 31 52 a1 3e 8d 9e 0a 3e
       0.6159976 1.3712457 0.3150802 0.13537045
000080 bc 9a 59 3e 9d c0 e4 3f 9a 16 a5 3d 30 fe 19 3f
       0.21250433 1.7871281 0.080609515 0.60153484
000090 42 99 b7 3e b7 69 ec 3e c4 b3 28 3e d8 e0 31 3d
       0.35859114 0.46174404 0.16474825 0.04342732
0000a0 40 be 01 3e 30 9b 13 3e ca 89 0e 3f 9b ad 1c 3f
       0.12670231 0.14414668 0.55679 0.612024
0000b0 dc 12 f2 3d 6a e5 cb 3e 81 24 ef 3d bc 80 a0 3d
       0.118200034 0.39823467 0.116768844 0.07837054
0000c0 f9 0a 5d 3e 3e a8 ac 3d 17 59 d4 3e 2b 41 79 3f
       0.21586217 0.08430527 0.4147422 0.97365063
0000d0 5b 68 b6 3e ba 5c e1 3d ed 24 38 3e 34 00 56 3e
       0.35626492 0.11004014 0.17982836 0.20898515
0000e0 c9 d8 13 40 b1 a0 32 40 51 b7 8b 3d 82 f5 1b 3d
       2.3101065 2.7910578 0.06822074 0.03807593
0000f0 db 6a e9 3e b0 42 cd 3d 62 7d a3 3e 7b 13 81 3f
       0.45589337 0.10022485 0.31931597 1.008407
000100 98 77 39 3f eb 80 83 3e d7 63 b3 3e f2 e0 86 3d
       0.7244811 0.25684294 0.3503711 0.06585874
000110 31 4e 86 3d 09 c9 13 3f a6 09 f0 3d ac f3 09 3e
       0.065578826 0.5772863 0.1172059 0.1347186
000120 40 eb 19 3e cd a0 a2 3d 90 9b 83 3f f9 5e 27 3f
       0.15031147 0.079408266 1.0281849 0.6537929
000130 52 ef 2d 3e 40 d0 a4 3d e2 d0 a9 3e 8a e9 cb 3e
       0.16985825 0.08047533 0.33167177 0.39826614
000140 98 ee 30 40 82 39 bc 3e d2 5c 00 3f 96 be 0c 3f
       2.7645626 0.36762625 0.5014163 0.5497831
000150 64 4d 38 3f 9c 0f 65 3d 97 ec 16 3e 6d 77 63 3e
       0.7199309 0.05592309 0.1473869 0.22213526
000160 7c 1e 1c 3f c2 63 e9 3e 1f 54 02 3e 29 6c 89 3f
       0.60984015 0.45583922 0.12727402 1.0736133
000170 39 48 99 3f 1a d8 c6 3d 22 7c c6 3d 76 7e d7 3f
       1.1975166 0.09709187 0.09691645 1.6835468
000180 a2 d5 f3 3d d2 2a a0 3d db 31 41 3d f1 c9 84 3f
       0.119059816 0.07820667 0.047166687 1.0374128
000190 93 36 14 3e 45 78 8c 3e 12 fa 32 3e e0 af 61 3d
       0.14473943 0.27435508 0.17478207 0.055099368
0001a0 b2 ed c4 3d c2 a7 f4 3d ca e6 36 3f 55 d1 ba 3e
       0.09615649 0.1194606 0.71445906 0.36487833
0001b0 65 d1 05 3f 88 da 23 3f 35 51 68 3f 28 6f be 3d
       0.52272636 0.6400533 0.9074891 0.09298545
0001c0 46 e4 a1 3f 7a cf 80 3e e7 f9 6d 3d 4d af f9 3e
       1.2647789 0.25158292 0.058099654 0.48766556
0001d0 e5 4d 61 3d 64 1d 25 3e c2 1f 0b 40 50 0a 50 3d
       0.055005927 0.16124493 2.1738133 0.050791085
0001e0 91 83 0b 3f 08 c2 7d 3e d8 3f 7b 3e ac 4a 7d 3f
       0.5449763 0.24781048 0.24536073 0.98942065
0001f0 c9 6f ae 3e c0 25 c2 3f 57 a2 9f 3e 0c a8 d9 3d
       0.3406966 1.516777 0.31178543 0.106277555
