model/trained_player_model.pth (torch, 218315 bytes, 25 tensors)

layers.0.weight f4 [128, 5]
000000 34 e7 cc 3d d9 c7 68 bd dd da 35 be 54 a3 45 3e
       0.10005036 -0.056831215 -0.17759271 0.19300586
000010 5b cb b0 3e c8 e4 8b be e5 fd cb 3e 71 27 a2 3e
       0.34530148 -0.27322984 0.39842144 0.31670716
000020 52 93 11 be 62 a2 76 3e cc 18 af 3d b1 0e a0 bc
       -0.14216354 0.24085382 0.085496515 -0.019538255
000030 3d 80 6f 3e c5 d6 83 be e2 82 c5 be 31 92 ca be
       0.23388763 -0.25749794 -0.38576418 -0.3956466
000040 5c a1 17 bc 2c 37 16 bf 95 64 91 3e 39 4f 76 3e
       -0.00925478 -0.58677936 0.2839705 0.24053659
000050 bc 94 08 bf 06 f0 14 3e b1 64 ff be 1c f9 9e 3c
       -0.5335195 0.14544687 -0.4988151 0.019405894
000060 38 cb 27 3d 98 a4 05 be ac e2 31 3e 56 49 b6 3e
       0.04096529 -0.13051069 0.17371625 0.35602826
000070 98 dc b4 be f9 89 b2 3e 2c cf a8 3d 5d 4e aa be
       -0.3532455 0.3487089 0.0824264 -0.3326291
000080 74 cb 90 3e 6c 97 be 3d 26 c9 4f bc 7b 5c 1c 3e
       0.28280222 0.09306225 -0.012682235 0.15269653
000090 f9 8b 05 3e eb 91 81 3e b2 c4 b1 3d 6a 9a 9f 3e
       0.13041677 0.2530664 0.08680095 0.31172496
0000a0 86 f1 8c be 5e ab b6 be a2 f6 ef be 92 7a b9 be
       -0.27528018 -0.35677618 -0.46867853 -0.36226326
0000b0 2e 14 a6 be 4f 27 00 3f d2 0a 8d bc 6b 63 80 3e
       -0.3243727 0.5005998 -0.017217074 0.2507585
0000c0 0f 6a 11 3e cb 7a 59 3e 35 23 60 3e 57 b3 78 be
       0.14200614 0.21238248 0.2188843 -0.24287163
0000d0 30 be 5b 3e aa 03 de be bf 3e bd be 0d 09 4b 3c
       0.2145927 -0.4336217 -0.36961934 0.012392295
0000e0 2b cc 66 bd c8 4d b7 3e 22 99 3f 3e 68 a3 bc bd
       -0.056347053 0.3580153 0.1871076 -0.09210855
0000f0 68 a6 a9 3e 6a 28 dd be 33 5c 2b be 66 ed 36 3e
       0.3313477 -0.43194896 -0.1673439 0.17863998
000100 f3 b7 d9 bc 98 f1 cb be 59 e1 97 3d b2 f2 53 3e
       -0.026576972 -0.3983276 0.074160285 0.2069805
000110 34 5f 88 3d 36 06 16 3e 77 0a 85 bd 34 90 9b be
       0.066587836 0.14650807 -0.06496137 -0.30383456
000120 ee b6 03 3e 65 f7 36 3e 31 5a a4 3d 8b 0e 31 3e
       0.12862751 0.17867811 0.08025015 0.17290704
000130 f5 f7 a2 3e 4f f4 3c 3e 6c ad 97 3e c1 46 93 3e
       0.318298 0.18452571 0.29624498 0.28764918
000140 a1 a5 8e 3d 18 67 e2 3e 75 b0 f4 bd 30 be 94 be
       0.06965185 0.4421928 -0.11947719 -0.29051352
000150 eb 1e c0 3e 43 28 0c bd c8 33 53 3e de 3e 36 3c
       0.3752359 -0.034218084 0.20625222 0.011123387
000160 f4 a9 46 be e7 db eb be 2c 59 3c bd 6a b6 91 be
       -0.1940077 -0.4606621 -0.04598348 -0.28459483
000170 b0 24 d6 3e 6c b8 97 be 3a 9e 55 3d 66 f8 cc 3d
       0.41824865 -0.2963289 0.05215285 0.10008316
000180 d4 b6 04 be de 12 a6 be 8e 04 dd be 61 b5 4f 3d
       -0.12960368 -0.3243627 -0.43167537 0.050710086
000190 80 0b 4e be df 42 9e 3e 89 e6 9c 3e 58 3b 1e bc
       -0.20121574 0.30910394 0.30644634 -0.009657703
0001a0 17 7f 0e be ba 3a 6a 3e a2 80 81 be ec 08 28 3e
       -0.13915668 0.22873965 -0.25293452 0.16409653
0001b0 bf e3 57 3e 83 86 e1 3e a9 91 ad 3e a7 cc 27 bc
       0.21082972 0.44047937 0.33900192 -0.010241664
0001c0 c4 03 af 3e 80 dc e2 3c 06 e7 17 be b9 04 2f 3e
       0.3418256 0.027693033 -0.14834222 0.17091645
0001d0 03 dc 18 3d e7 3a 27 bf f4 2f bc bb 21 4e a4 3d
       0.037319195 -0.6532425 -0.005743021 0.080227144
0001e0 98 f0 77 3e 64 b7 7d 3e 09 a5 f2 bb 88 44 d4 bd
       0.24212873 0.24776989 -0.0074049276 -0.10364634
0001f0 51 e4 9d 3e 12 45 46 be 1d 6f 47 3e 9a 5d 0e bf
       0.30838254 -0.19362286 0.1947598 -0.55611575
000200 28 08 c0 3b 43 76 a7 bc 3b 96 a9 be 93 47 22 bf
       0.0058603473 -0.020442134 -0.3312243 -0.63390464
000210 e4 3e 7d be ec d1 67 be 31 62 10 bf 54 4f 10 bd
       -0.24731022 -0.22638673 -0.5639983 -0.035231903
000220 c9 23 22 3e 2e df 30 bf 39 d2 ab be ed fc 2e 3e
       0.15833963 -0.69090545 -0.33558825 0.17088671
000230 82 95 18 be c7 af d5 3e 09 f8 9d 3c 6d 57 cc be
       -0.14900783 0.4173567 0.019283311 -0.3991045
000240 dd f4 2d 3e 36 86 ff 3d b6 df 0c be 83 8d 3e be
       0.16987939 0.124767706 -0.13757214 -0.1860867
000250 b8 0a 81 3d 06 cb a6 be d8 19 a6 3e c8 ef e1 bd
       0.063008726 -0.3257677 0.32441592 -0.11032063
000260 27 36 8d be 51 fb 93 3e ba 64 9b be 8b ea 40 be
       -0.27580377 0.28902677 -0.30350286 -0.18839471
000270 6e c9 50 3d 35 c9 29 bf 46 75 7c be 1a 95 3c 3e
       0.05097335 -0.6632264 -0.24654111 0.18416253
000280 5d 60 84 3e 1e 3e bc be 33 d0 bc 3e 0d 07 8d 3d
       0.2585477 -0.36766142 0.36877593 0.068861105
000290 63 e6 c8 be de fa 7d be 66 65 7b bd 35 6e f0 3e
       -0.3923827 -0.2480273 -0.061375998 0.4695908
0002a0 19 56 cd 3e 22 26 44 3e 32 9c 4a be e6 71 b7 be
       0.4010475 0.19155172 -0.19786146 -0.35829085
0002b0 1a c4 d5 bd 09 24 68 3e 2b 51 36 bd 5f f0 d2 bd
       -0.10437794 0.22669996 -0.044511 -0.102997534
0002c0 39 e6 69 be d8 a4 b2 bc 7d 1b 91 be 0d dd b1 bd
       -0.22841729 -0.02180712 -0.28341284 -0.0868474
0002d0 a6 af ba bd b1 d3 9b be ce 59 1f be 7f bb 99 bd
       -0.091155335 -0.30434945 -0.15561602 -0.07506465
0002e0 1a bc a3 bd 06 b4 a8 3e fe 09 be 3e c6 23 0c 3f
       -0.07994862 0.32949847 0.37116998 0.54742086
0002f0 60 21 16 bc 48 81 57 3f 35 83 de 3c 81 c1 23 3e
       -0.009163231 0.8418164 0.027162174 0.15991785
000300 da a5 78 3d ea 50 12 3e a6 1b a9 3e 4f 82 9e be
       0.060705043 0.14288679 0.33028907 -0.30958793
000310 48 4e 17 3d db a7 26 bd 64 05 14 3d 2f 98 47 3e
       0.03693989 -0.040687423 0.036137953 0.19491647
000320 92 d9 9a bc a8 54 ab be 7e cf 95 3e 9e b1 22 be
       -0.018902574 -0.33463025 0.29259866 -0.15888068
000330 b5 f6 3f be 51 33 4e be c3 bc 93 be 77 8c 63 3e
       -0.18746455 -0.20136763 -0.2885495 0.22221552
000340 15 21 82 be a6 d5 14 3e 90 d0 8c bd c1 25 d0 3e
       -0.25415865 0.14534625 -0.06875718 0.40653804
000350 59 b6 77 3e ef 4d ab 3d 1f ee df bd bf d1 93 3e
       0.24190654 0.08364474 -0.1093409 0.2887096
000360 fe de 39 3e a7 54 c7 bd a8 16 af 3e 10 8a dc 3e
       0.18151471 -0.09732943 0.34196973 0.43074083
000370 24 06 b3 3e 84 a9 5a be 55 97 81 3e 3e 15 6f 3e
       0.34965622 -0.21353728 0.2531077 0.23347947
000380 bf a0 44 be 0e 16 99 3e 55 7e e1 3a 09 02 d3 be
       -0.19201945 0.2989964 0.0017203788 -0.4121249
000390 b9 48 e3 3b 61 fc 80 bd a0 89 76 3e de c3 2a 3e
       0.0069361595 -0.062981375 0.24075937 0.1667628
0003a0 3d f8 0f 3f 4c 20 59 be 1b bb 88 bd 27 46 d9 be
       0.56238157 -0.21203727 -0.066763125 -0.42436334
0003b0 74 86 2e be 0a 6a 89 3e fe 3d aa 3e 09 2e 9d bd
       -0.17043477 0.26838714 0.3325042 -0.07674796
0003c0 76 6e fa be 4d 26 3d 3f e7 62 f1 be 03 75 97 be
       -0.489124 0.7388657 -0.4714577 -0.2958146
0003d0 98 c7 2c 3f f3 e5 9c be 4b c1 89 3e 1b 0a b8 be
       0.67492056 -0.30644187 0.26905283 -0.3594521
0003e0 8c e7 1a 3e c3 79 8b be 7b f7 a6 3e 3b b6 a1 be
       0.1512739 -0.27241334 0.32610688 -0.31584343
0003f0 88 63 4f 3e 9f 64 ff 3c 07 b2 cc 3d 4b 8d 13 bd
       0.20252812 0.03117591 0.099948935 -0.03602342

layers.0.bias f4 [128]
000000 9f f9 80 be 6a 35 9b be 9e 21 17 3e 65 8d 06 3d
       -0.25190446 -0.3031419 0.14758918 0.032849688
000010 16 02 39 be 90 4e d2 3d e8 60 70 3d f6 52 c9 3e
       -0.18067202 0.10268891 0.058686167 0.39321107
000020 d8 8e e9 3d b3 1f b6 3e 43 f2 7a be 67 a4 e0 be
       0.114041984 0.3557106 -0.24506478 -0.4387543
000030 6f 00 57 be 83 94 80 3d 2c 95 be 3e ef 30 89 3e
       -0.20996259 0.06278326 0.37223184 0.26795146
000040 9e 6a c9 3e 28 55 0f 3e fa b4 aa 3e 43 aa 0a 3e
       0.39339155 0.13997328 0.333412 0.13541512
000050 99 20 47 3e 36 d7 c2 3e 8d bd de bd b6 8c bc 3e
       0.19446029 0.38054818 -0.10875998 0.36826104
000060 c0 df cd 3e cb 38 b9 be c7 6f 82 3e 26 ae 1c be
       0.4020977 -0.36176142 0.25475904 -0.15300807
000070 2c fe de be 4f 96 39 be 63 56 80 be 90 63 a8 be
       -0.43553293 -0.18123744 -0.25065908 -0.3288846
000080 0b 48 47 be cc 7d c9 3e 40 4d 62 be de 1c b1 be
       -0.19461076 0.39353788 -0.22099781 -0.34592336
000090 c7 cb fc bd e1 39 85 3e 8d bd 6e 3e d4 da 13 bd
       -0.12343555 0.2602072 0.23314495 -0.036097363
0000a0 d9 7f cf be 71 a6 8a be 65 d6 da be a5 58 9b 3e
       -0.40527228 -0.2708011 -0.42741695 0.30341068
0000b0 00 8f 5d 3e fd e5 80 be 5b 6f bb 3e 96 d6 34 bd
       0.21636581 -0.25175467 0.36608395 -0.044149958
0000c0 66 05 6c be 79 be e9 bd c5 89 ae be 7e 33 3a 3d
       -0.23048934 -0.11413283 -0.34089485 0.045459263
0000d0 ca 32 2a be c3 e8 db 3d 33 0d 5c 3e e4 a7 8a be
       -0.16620937 0.10737755 0.2148941 -0.27081215
0000e0 08 d1 99 3d 04 d7 95 3e 33 b6 4f 3c 90 82 74 be
       0.07510573 0.29265606 0.012677717 -0.2387793
0000f0 5c b0 cf 3e 5b 20 b9 be e4 b6 79 be b2 cd a6 3d
       0.4056424 -0.36157498 -0.24386173 0.08144702
000100 32 ae dd 3e 11 6a 99 be 34 24 5c 3e 34 f3 ad bb
       0.43296963 -0.29963735 0.21498185 -0.005308533
000110 86 54 97 be 1d a8 88 be fb cd af 3d e3 6d b2 be
       -0.29556674 -0.2669076 0.085842095 -0.34849462
000120 c0 24 da 3e c5 96 aa be e0 d1 14 3e 07 dc 9f 3e
       0.42606163 -0.33318153 0.14533186 0.31222555
000130 1a 8b ba bd 54 f9 a5 3e 51 c4 b6 be 0d 58 d6 3e
       -0.09108563 0.32416785 -0.35696653 0.41864052
000140 d8 97 a3 be 06 8e d5 be 22 14 94 3e 2a dc d3 3c
       -0.31951785 -0.41709918 0.2892161 0.025861818
000150 ac 8a e2 be 60 60 89 3d 4e 6a 5b be 3c d8 26 be
       -0.44246423 0.06707835 -0.21427271 -0.16293424
000160 d5 c9 ee 3d 23 cc f8 3d 76 7b 28 3d 4e 31 b2 be
       0.1165959 0.12148311 0.041133367 -0.34803241
000170 d1 ff 3c be c1 63 05 3e 35 6a 82 3e 64 9f dd be
       -0.18456961 0.13026334 0.25471655 -0.43285668
000180 4e 6d 01 be f7 9a 4f 3e 47 2e a2 be 84 07 8f 3e
       -0.12639353 0.20273958 -0.31675932 0.2793542
000190 16 93 f3 3d ee 9a 71 be 3f aa 55 bc 2e 3a 40 be
       0.11893289 -0.23594257 -0.013041078 -0.18772194
0001a0 55 1f 98 3e 05 5c 82 3e ea 28 ab be f5 51 87 3e
       0.29711404 0.2546083 -0.33429652 0.26429716
0001b0 14 93 95 be ea c2 ba 3e 98 30 81 3e 8a cf 23 be
       -0.29213774 0.36476833 0.25232387 -0.15997139
0001c0 b6 6d 0b be 11 04 e7 bc 09 5c 70 bd 7a 86 50 be
       -0.1361607 -0.028200181 -0.05868152 -0.20363799
0001d0 e3 a3 a8 be d7 08 8a be 51 fc 76 3e 05 02 15 be
       -0.32937536 -0.2695987 0.24119689 -0.14551552
0001e0 34 84 72 3e 04 56 81 be 15 bb b0 3d 0b 5f 1e bc
       0.23683244 -0.25260937 0.08629433 -0.009666215
0001f0 8b 33 76 3e 67 38 20 be 12 9b 01 be a4 6d c4 3e
       0.240431 -0.15646516 -0.12656811 0.383649

layers.2.weight f4 [128]
000000 b7 f7 7a 3f 30 a9 76 3f aa 49 7e 3f 14 d3 87 3f
       0.9803423 0.9635191 0.9933115 1.0611291
000010 38 f2 8b 3f 08 32 7a 3f aa 3a 7e 3f 2c a7 79 3f
       1.0933294 0.9773259 0.99308264 0.9752071
000020 75 ea 88 3f 51 b6 80 3f 00 00 80 3f 83 02 81 3f
       1.0696551 1.0055639 1.0 1.0078892
000030 4e e3 7f 3f 5f b2 76 3f 36 72 7e 3f 5b f2 7c 3f
       0.99956214 0.9636592 0.9939302 0.98807305
000040 0b e2 79 3f 01 73 70 3f e6 ba 7a 3f 15 a4 7a 3f
       0.9761054 0.9392548 0.97941434 0.9790662
000050 25 d7 75 3f ec ac 74 3f 00 00 80 3f 04 c7 82 3f
       0.9603141 0.9557636 1.0 1.0216985
000060 ae ec 72 3f 31 ec 83 3f 45 21 7f 3f 87 ba 8e 3f
       0.94892395 1.0306455 0.9966014 1.1150674
000070 cd b0 7f 3f 00 00 80 3f 00 00 80 3f 4a e7 88 3f
       0.9987915 1.0 1.0 1.0695584
000080 00 00 80 3f b1 89 81 3f 00 00 80 3f 00 00 80 3f
       1.0 1.0120145 1.0 1.0
000090 00 00 80 3f 66 0f 7f 3f e6 9f 76 3f fb f8 77 3f
       1.0 0.9963287 0.96337736 0.9686429
0000a0 00 00 80 3f 00 00 80 3f ff 73 7a 3f 5f 6c 7a 3f
       1.0 1.0 0.97833246 0.9782161
0000b0 26 11 80 3f 00 00 80 3f c3 e8 89 3f 83 14 7e 3f
       1.0005233 1.0 1.0774158 0.9925005
0000c0 d2 2f 8a 3f ec 0b 74 3f 02 21 7d 3f 86 9c 80 3f
       1.0795844 0.9533069 0.9887849 1.0047767
0000d0 00 00 80 3f 33 f1 77 3f 06 f5 73 3f 94 83 7d 3f
       1.0 0.96852416 0.9529575 0.990289
0000e0 e0 af 81 3f 70 80 83 3f 8e a1 7b 3f b0 a8 7c 3f
       1.0131798 1.0273571 0.9829339 0.98694897
0000f0 dd 5b 7d 3f 00 00 80 3f 00 00 80 3f 90 08 7d 3f
       0.989683 1.0 1.0 0.9884119
000100 12 aa 77 3f 00 00 80 3f 12 af 81 3f 44 47 7d 3f
       0.9674388 1.0 1.0131552 0.9893687
000110 b0 51 7a 3f e0 55 80 3f 05 b7 73 3f 93 7f 85 3f
       0.97780895 1.0026207 0.9520114 1.0429558
000120 59 ca 80 3f 25 9b 76 3f 8b 5f 7f 3f 75 36 7d 3f
       1.0061752 0.9633048 0.9975516 0.9891122
000130 d3 20 7e 3f e6 6a 7e 3f 00 00 80 3f e5 b8 7c 3f
       0.99268836 0.99381864 1.0 0.98719627
000140 89 0a 7f 3f 00 00 80 3f 2f 32 77 3f 2c 1b 7c 3f
       0.9962545 1.0 0.9656095 0.9847896
000150 a4 31 7c 3f 9c 87 78 3f 0a 4b 82 3f d8 34 72 3f
       0.98513246 0.97081923 1.017915 0.94611883
000160 4e e9 7a 3f c7 9e 7e 3f a1 64 84 3f 9b ed 80 3f
       0.98012245 0.99461025 1.034321 1.0072511
000170 aa 16 7a 3f 4f b8 74 3f 95 3c 7b 3f 00 00 80 3f
       0.9769083 0.9559373 0.98139316 1.0
000180 cf 54 8f 3f 0c 0e 7c 3f 00 00 80 3f 98 3f 7a 3f
       1.1197757 0.98458934 1.0 0.97753286
000190 f8 f9 9d 3f c4 66 87 3f 00 00 80 3f 00 00 80 3f
       1.234191 1.0578237 1.0 1.0
0001a0 89 51 7b 3f 79 6a 7e 3f dd 89 86 3f ea 3a 7c 3f
       0.9817129 0.99381214 1.0510823 0.98527396
0001b0 02 a4 7e 3f f1 a1 7f 3f 59 14 73 3f 74 db 80 3f
       0.99469006 0.9985648 0.94952923 1.0066972
0001c0 00 00 80 3f 0a 6c 7b 3f c0 a2 83 3f 69 33 84 3f
       1.0 0.9821173 1.0284042 1.0328189
0001d0 c1 ff 81 3f a8 3a 7a 3f 81 fa 81 3f 8d ce 80 3f
       1.0156175 0.9774575 1.0154573 1.0063034
0001e0 b9 da 7c 3f 00 00 80 3f e7 99 79 3f 00 00 80 3f
       0.98771244 1.0 0.9750046 1.0
0001f0 1e 8d 7c 3f 00 00 80 3f 00 00 80 3f d2 ea 7b 3f
       0.9865283 1.0 1.0 0.9840518

layers.2.bias f4 [128]
000000 78 08 4d bc 04 98 41 bc ce a8 ef 3c cb 04 ac 3c
       -0.012514226 -0.0118160285 0.029255297 0.02099838
000010 b0 bf 25 3a 3b 4d b5 3b 54 00 b8 3b 96 4d 27 bb
       0.0006322814 0.005532888 0.0056152735 -0.0025528423
000020 8a 06 28 3c 8a 17 88 3b 15 41 fb bb f9 ac d7 bb
       0.010255465 0.0041531967 -0.0076676705 -0.0065818992
000030 03 c4 11 bc 82 de 42 3b 81 a8 f5 bb 2a 97 a9 bb
       -0.0088968305 0.0029734676 -0.007496894 -0.005175491
000040 1c 82 94 3c 64 2c e3 3b 38 76 d4 3c d1 72 87 3c
       0.018128447 0.006932782 0.025935277 0.01653424
000050 1d 1f d2 3c ac b9 5b 3c c6 b4 81 3c b0 f3 4d 3c
       0.025649602 0.013410967 0.01583327 0.012570307
000060 45 3d a7 bc 51 59 1f 3c 1b e9 32 bc 02 33 36 3d
       -0.020414958 0.009725885 -0.0109198345 0.04448224
000070 a3 3a 0e 3d 4e a9 31 bc c6 e5 97 3c d5 cb 0f 3d
       0.03472389 -0.010843588 0.018542182 0.0351065
000080 8a 5d 5c 3c 80 8c 4f 3b 14 95 89 3c 44 f7 5e bb
       0.013450036 0.0031669438 0.016794719 -0.0034021894
000090 3b ea 41 3c 8b 31 f7 bc 74 dc 03 b9 37 fb 2f 3c
       0.01183563 -0.030174991 -0.00012575259 0.010741047
0000a0 36 64 a6 ba e5 96 b8 bb 50 39 d0 bc e2 1f e4 3c
       -0.001269466 -0.0056332224 -0.025417954 0.027847234
0000b0 4d 8d 51 3c 63 08 2d 3c bc 1d 45 bd ae 45 9c bb
       0.012790036 0.010561082 -0.04812406 -0.0047690487
0000c0 1c bd 99 3c 87 36 16 bc ac 1d 18 bd 70 b0 50 3c
       0.018766932 -0.009168274 -0.037137672 0.0127373785
0000d0 0a 56 1b bc 1f 58 06 3d 74 e7 1b 3c d2 c5 01 ba
       -0.0094809625 0.032798883 0.009515632 -0.0004950437
0000e0 f2 e1 b9 bb da ea bd bc 48 70 bd bc b5 58 97 3b
       -0.0056726867 -0.023183275 -0.023124829 0.004618729
0000f0 b5 ee ea bb 6d 1e 41 bb 7d b4 fc bb 6d cc e2 3b
       -0.0071695694 -0.0029467598 -0.0077119456 0.006921342
000100 ac 87 be ba 87 f3 57 bb 96 9c e0 3c b1 ce 6d bb
       -0.0014536283 -0.003295155 0.027418416 -0.0036286528
000110 c5 d1 91 bc f8 a9 de 3c 75 8f e0 bc 2a 05 fc bc
       -0.017800221 0.027180657 -0.027412156 -0.030764181
000120 4a 85 d4 3c 69 db e2 3b 34 3c 96 3a 36 e7 c5 bb
       0.025942463 0.0069231284 0.0011462034 -0.0060395254
000130 d7 a7 81 3c 66 8c 7e 3c df da 4b ba a1 62 4b 3a
       0.015827103 0.015536403 -0.000777645 0.00077585323
000140 73 93 91 3c cc 2c 0a bc d1 79 bf bb 79 b0 78 3b
       0.017770505 -0.008433532 -0.005843379 0.0037946983
000150 e0 7f 63 bb f0 8a 61 3b 37 fc 58 ba ed bf 8a bb
       -0.003471367 0.0034415089 -0.0008277329 -0.004234305
000160 49 cb 0c 3c 52 49 96 bc c2 3e ea bc 93 3e ef bc
       0.008593389 -0.018345509 -0.028594378 -0.029204642
000170 07 66 cc bc c4 0d d0 ba 06 47 da bb 6d 8e 32 3a
       -0.024950994 -0.0015873243 -0.0066612987 0.0006811384
000180 20 18 d6 bc 32 8b 36 3c 01 bf b0 bb 00 57 ab bb
       -0.02613455 0.011141585 -0.005393863 -0.005228877
000190 3d 09 8d bd 59 1a 97 3c e6 97 a5 3a 7d 22 9a bc
       -0.06886528 0.01844518 0.001263377 -0.018815273
0001a0 6e 96 31 3b 0f 7c d7 3c eb a4 49 3c 7a cf 84 3c
       0.002709772 0.026304273 0.012307386 0.016212214
0001b0 1b 9c a0 3c e7 1e 84 bc 1a 15 6f 3b 5a e5 1c 3b
       0.019605687 -0.016128017 0.0036481083 0.0023940415
0001c0 0c 1a 09 bc ec 09 25 3d 1a 5b 1e bc 31 c3 a3 3b
       -0.008368026 0.040292665 -0.009665275 0.004997634
0001d0 f5 89 97 3b 76 29 cf bc 51 66 a5 3b a1 b9 48 3c
       0.0046246 -0.025288325 0.0050475975 0.012251289
0001e0 df ee 84 bc e3 ee 83 3c 39 5d 75 bc 81 f6 83 bc
       -0.016227184 0.016105121 -0.014975839 -0.016108753
0001f0 63 e5 e9 3a 5b 20 f3 bc 91 6e d6 3b f9 d5 70 3c
       0.0017844852 -0.029678514 0.0065439423 0.014699453

layers.2.running_mean f4 [128]
000000 9a 1f 82 41 1c 46 2b 42 ec 42 01 3c 4a e7 79 41
       16.26543 42.818466 0.007889491 15.618967
000010 a8 5d 48 41 b8 6f e9 41 f2 30 4e 3b 5d ed e6 41
       12.522865 29.17955 0.003146228 28.8659
000020 d9 09 c8 3b f3 9b 44 41 00 00 00 00 4e b7 21 23
       0.0061046896 12.288074 0.0 8.766644e-18
000030 04 a3 8c 1e 66 49 6c 41 78 05 a3 3c c2 ef 31 42
       1.4890498e-20 14.76792 0.019900069 44.48414
000040 26 f7 51 42 06 4b 70 3f 74 05 92 3c 06 3a ed 3b
       52.491356 0.93864477 0.017824866 0.007239583
000050 43 f2 87 41 80 8c 10 41 00 00 00 00 71 1d da 40
       16.993292 9.034302 0.0 6.816094
000060 f1 f1 0e 42 a0 fe 4c 41 34 25 5f 3c b2 59 85 41
       35.73627 12.812164 0.01361971 16.668797
000070 4f 10 15 42 00 00 00 00 00 00 00 00 e5 bb 1a 41
       37.265926 0.0 0.0 9.670873
000080 00 00 00 00 0e 3f 2d 41 00 00 00 00 00 00 00 00
       0.0 10.827894 0.0 0.0
000090 00 00 00 00 3f f0 97 42 cf 38 02 42 a2 c5 5e 41
       0.0 75.96923 32.555477 13.92325
0000a0 00 00 00 00 00 00 00 00 7e 54 d5 41 0c ff 27 42
       0.0 0.0 26.666256 41.99907
0000b0 89 81 3d 3c 00 00 00 00 93 6e 1b 41 9a ad 08 1f
       0.011566528 0.0 9.714496 2.894272e-20
0000c0 48 6a b6 42 54 69 02 41 49 07 3e 22 41 cb 2f 42
       91.20758 8.150715 2.5753658e-18 43.94849
0000d0 00 00 00 00 49 14 bc 3b a8 69 a3 41 ff 5f fc 41
       0.0 0.005739723 20.42659 31.546873
0000e0 26 3b 83 3b 39 e6 3d 41 66 80 53 42 1d 61 cb 41
       0.004004854 11.868707 52.87539 25.422419
0000f0 78 a7 b1 3c 00 00 00 00 00 00 00 00 75 de a5 41
       0.0216863 0.0 0.0 20.733622
000100 a3 ba 90 41 00 00 00 00 e6 4e 3c 3c 9e 16 07 42
       18.091131 0.0 0.01149342 33.772087
000110 e4 f8 8c 41 f6 48 59 23 fe 57 9b 41 8e bf e4 40
       17.621529 1.1779044e-17 19.417965 7.148383
000120 3c ae 4e 41 74 8a 01 41 12 98 fe 3b 03 be 88 3c
       12.917538 8.096302 0.007769593 0.016692167
000130 40 94 cd 41 10 f9 8d 3c 00 00 00 00 60 ba 82 41
       25.697388 0.017330676 0.0 16.341003
000140 da 67 44 1f 00 00 00 00 4d 0a 9b 41 2f a1 20 42
       4.159052e-20 0.0 19.38003 40.157406
000150 97 e3 08 34 39 a7 0e 42 5b 2f 6a 23 66 6e 17 41
       1.2748784e-07 35.663303 1.2695193e-17 9.464453
000160 38 39 cc 3b 17 c4 d4 3b 8c 8d 7d 41 37 9a c5 41
       0.006232407 0.0064931023 15.847057 24.7003
000170 96 c1 a2 41 e4 a0 40 3c 01 b2 3b 42 00 00 00 00
       20.344524 0.011757109 46.923832 0.0
000180 dc d2 23 41 fb 97 31 3c 00 00 00 00 8e 76 f4 41
       10.238979 0.010839458 0.0 30.557888
000190 2e aa 72 41 ba cb 19 41 00 00 00 00 00 00 00 00
       15.166548 9.612238 0.0 0.0
0001a0 66 1f 82 3c 6e 04 5f 3c 37 ad e8 22 b6 80 67 3c
       0.015884113 0.013611896 6.3067124e-18 0.014129808
0001b0 93 c2 d9 22 50 02 bd 41 64 eb 86 41 2f a4 43 3c
       5.902398e-18 23.62613 16.864937 0.011941
0001c0 00 00 00 00 82 9f ee 41 be 0d 33 41 4a 2b 1a 42
       0.0 29.827885 11.190855 38.542274
0001d0 2a ed 48 25 af b4 31 42 fa 4f d3 42 da af 09 41
       1.7427589e-16 44.42645 105.656204 8.6054325
0001e0 ef 71 4f 3c 00 00 00 00 fd 57 97 3b 00 00 00 00
       0.012661441 0.0 0.0046186433 0.0
0001f0 7a 51 8b 41 00 00 00 00 00 00 00 00 97 00 46 42
       17.414783 0.0 0.0 49.500576

layers.2.running_var f4 [128]
000000 44 ac e2 42 eb dc 49 43 20 a2 90 3a 37 33 91 42
       113.33646 201.86296 0.0011034645 72.60003
000010 06 b8 78 41 88 bc 04 43 e9 02 38 39 b7 e5 0e 43
       15.544928 132.73645 0.00017548692 142.89732
000020 a5 31 2d 3a 75 82 49 42 49 e8 12 21 59 46 43 23
       0.0006606824 50.3774 4.977415e-19 1.0585868e-17
000030 8b 5c 21 21 69 19 10 42 71 0c e6 3b cd 19 7d 43
       5.46714e-19 36.024815 0.007020526 253.10078
000040 32 98 9e 43 3a f4 d9 40 21 92 b8 3b 7e 92 73 3a
       317.18903 6.811063 0.0056326543 0.00092915434
000050 7d f3 26 42 cc c4 d2 42 49 e8 12 21 16 db c8 40
       41.73778 105.38437 4.977415e-19 6.276744
000060 2e cf 27 43 e0 ae 8c 41 a9 83 57 3b 27 bd 04 42
       167.8093 17.585388 0.0032884872 33.18472
000070 e2 cf 0b 43 49 e8 12 21 49 e8 12 21 87 ae 97 41
       139.81204 4.977415e-19 4.977415e-19 18.960218
000080 49 e8 12 21 77 0d 5f 42 49 e8 12 21 49 e8 12 21
       4.977415e-19 55.76315 4.977415e-19 4.977415e-19
000090 49 e8 12 21 86 2d 74 44 99 e7 2e 43 4a 39 2c 42
       4.977415e-19 976.7113 174.90468 43.055946
0000a0 49 e8 12 21 49 e8 12 21 1b a9 9b 42 9d 80 9a 43
       4.977415e-19 4.977415e-19 77.830284 309.0048
0000b0 21 6f 1b 3b 49 e8 12 21 31 0e 51 41 23 d9 20 21
       0.002371736 4.977415e-19 13.065965 5.4497487e-19
0000c0 55 ca 7b 44 d5 53 1e 42 14 7b 96 23 17 e4 8d 43
       1007.16144 39.581867 1.6315158e-17 283.78195
0000d0 49 e8 12 21 31 1a 19 3a 77 30 d0 42 73 40 c7 42
       4.977415e-19 0.00058403896 104.09466 99.62588
0000e0 85 12 95 39 40 2d 8e 41 31 21 9f 43 f7 82 7c 42
       0.00028433293 17.772095 318.2593 63.127895
0000f0 a6 99 08 3c 49 e8 12 21 49 e8 12 21 90 c4 27 42
       0.008337414 4.977415e-19 4.977415e-19 41.941956
000100 dd f1 7f 42 49 e8 12 21 b6 79 19 3b 2c 61 36 43
       63.986195 4.977415e-19 0.0023418493 182.37958
000110 d9 8d 2f 42 05 1e e4 23 b0 ad 5b 42 07 2b be 40
       43.888523 2.4732523e-17 54.919617 5.9427524
000120 13 7f ce 41 2e e1 84 42 49 45 8c 3a d0 db a1 3b
       25.812048 66.439804 0.0010701801 0.004939534
000130 c5 a2 cb 42 72 7a ae 3b 49 e8 12 21 24 de a0 42
       101.81791 0.005324655 4.977415e-19 80.43387
000140 f6 3c 20 21 49 e8 12 21 f9 a6 65 42 ca 05 58 43
       5.429079e-19 4.977415e-19 57.41306 216.02261
000150 d2 00 3c 35 e9 a9 f6 42 16 c9 9d 23 38 56 a6 42
       7.003665e-07 123.331856 1.7107137e-17 83.168396
000160 b7 83 34 3a 72 ee 43 3a c0 5f d4 41 41 15 77 42
       0.0006886082 0.0007474191 26.546753 61.770756
000170 d1 07 25 42 2f 66 c4 3b f4 28 a4 43 49 e8 12 21
       41.257633 0.0059936265 328.31995 4.977415e-19
000180 e6 ad 74 41 dc 81 08 3b 49 e8 12 21 88 bb f7 42
       15.292456 0.0020829355 4.977415e-19 123.86627
000190 4b 6e c0 41 e3 8d 22 41 49 e8 12 21 49 e8 12 21
       24.053854 10.15964 4.977415e-19 4.977415e-19
0001a0 2b 91 92 3b 60 44 57 3b d6 d5 3e 23 be f5 67 3b
       0.004472872 0.003284715 1.0345202e-17 0.0035394276
0001b0 32 6c 90 23 14 fa 9f 42 40 df d2 42 16 df 0f 3d
       1.5658334e-17 79.988434 105.436035 0.03512486
0001c0 49 e8 12 21 85 af e6 42 10 4e 72 41 f8 01 27 43
       4.977415e-19 115.34281 15.144058 167.00769
0001d0 ce 2d 79 25 06 15 8f 43 63 19 b7 44 a3 a7 10 42
       2.1612827e-16 286.16425 1464.7933 36.163708
0001e0 25 41 3a 3b 49 e8 12 21 e4 45 c6 39 49 e8 12 21
       0.0028420177 4.977415e-19 0.00037817576 4.977415e-19
0001f0 0c 39 d4 42 49 e8 12 21 49 e8 12 21 e6 d0 8d 43
       106.11142 4.977415e-19 4.977415e-19 283.63202

layers.3.weight f4 [128, 128]
000000 ec 6a b5 bd 19 39 95 3c b8 73 1e bd 0f 98 aa bd
       -0.08858284 0.018215703 -0.038684577 -0.08329784
000010 f0 81 96 bc e2 75 5e 3d cc 0e b1 bd f3 18 c1 3c
       -0.018372506 0.05431164 -0.086454004 0.023571467
000020 9f 18 9d bd cf 60 62 bd f7 2f 96 bb 94 79 a3 bc
       -0.07670712 -0.055268105 -0.0045833546 -0.019955434
000030 14 c4 98 bd 12 3f 4b 3c 13 6a 77 bd 11 15 bf 3d
       -0.07459274 0.012405174 -0.060403895 0.0933019
000040 6a fd 01 3d cb 10 1d bd 16 a5 47 bd 48 64 b0 bd
       0.031735815 -0.038346093 -0.048741423 -0.08612877
000050 f8 38 e1 bc 44 06 77 3d e4 a3 b2 bd 00 b0 87 3d
       -0.027492985 0.06030871 -0.08722666 0.06625366
000060 60 b3 bd 3d 0d ac 1f 3c ca ed 54 3d 64 28 b5 bd
       0.09262729 0.00974561 0.051984586 -0.088455945
000070 96 14 a5 bd 36 a5 67 3d 9d 34 77 bd e6 62 0a 3d
       -0.08060567 0.05655404 -0.06035291 0.033785723
000080 17 e0 85 bc 27 55 55 bd 3d 06 3f 3b 35 9d 8f bd
       -0.016342206 -0.05208316 0.0029148005 -0.07012407
000090 01 29 3d 3d bb 17 ef 3c 4b a8 8a 39 5c 80 09 bd
       0.046181682 0.02918612 0.000264468 -0.03356968
0000a0 db 35 7c 3d 6a 14 60 3d 4d 69 ac 3c 38 18 0b 3c
       0.061574798 0.05470697 0.021046305 0.008489661
0000b0 35 d9 9b 3d a0 41 42 bb 46 69 17 bd c7 95 93 bc
       0.07609788 -0.0029641166 -0.03696563 -0.018015755
0000c0 1f 06 17 3d b7 13 15 3d 8d d3 6d 3a 24 b5 cc 3c
       0.036871072 0.036395755 0.0009072356 0.024988718
0000d0 31 3d 33 3d 85 7f a0 3c f0 a3 86 3b 67 d5 18 3c
       0.04375953 0.019592056 0.0041088983 0.009328223
0000e0 7c 5e 09 3d d0 98 bb 3d d0 25 e7 3c 72 36 8e bd
       0.033537373 0.09160006 0.028216273 -0.06943978
0000f0 73 68 57 bc d7 cf 8a 3c 0f 89 99 bd 5e 21 89 bd
       -0.013147461 0.016944809 -0.07496845 -0.066958174
000100 8f 92 70 bc 0b 79 a8 3d 9f 13 5e 3d df 0d 9b 3b
       -0.01468338 0.08226212 0.05421793 0.004731878
000110 b9 f3 88 bd fe 8e e4 bc 88 0f b0 3c 5f ae 78 3d
       -0.066871114 -0.027900215 0.02149178 0.06071317
000120 d2 b4 91 3c 30 be 92 bb 0b af 32 3d c3 45 81 3c
       0.017786417 -0.0044782385 0.043623965 0.015780335
000130 39 ed 25 3d 23 ec b2 bc d2 2a 89 bd 1c 15 9f bd
       0.040509436 -0.021841114 -0.066976205 -0.07767698
000140 2d e2 77 3c 7d 95 a0 3c 8a a7 95 3c 14 f7 a3 bd
       0.015129608 0.019602532 0.018268365 -0.08006111
000150 fe f9 6f bb 63 39 b0 3b 64 14 b3 3b 3f 47 60 3c
       -0.0036617513 0.005377935 0.0054650772 0.013688861
000160 f1 a9 83 3d 17 19 8c bd 0b ad 91 bc a4 2e 28 3d
       0.06428898 -0.06840723 -0.017782709 0.041060105
000170 b8 a7 3b 3d b1 2e 74 3b e1 b6 d9 bc 91 6e 9a bd
       0.045814246 0.0037259276 -0.026576461 -0.0754062
000180 7c fb c6 3d 24 20 8b bd ef 00 8b 3c a5 b5 2d ba
       0.097159356 -0.0679324 0.016968219 -0.00066264934
000190 24 c6 b8 3c 91 75 6c 3d 61 24 ad bd c1 5f f9 bc
       0.022555418 0.057729308 -0.08454204 -0.030441167
0001a0 5b dc 10 bd ec 75 c0 3c cb 75 95 3d a1 6c 87 3c
       -0.035366397 0.02349373 0.07297858 0.01653129
0001b0 eb 69 92 3d 8c 04 b4 bd f8 9c 14 bc 79 fd 69 bd
       0.071491085 -0.0878993 -0.009070627 -0.057126496
0001c0 8d 1e 99 bd f8 69 e0 3c d6 37 6b 3d 9e e5 aa 3c
       -0.0747653 0.02739428 0.057426296 0.020861443
0001d0 63 b2 86 3d 21 25 c2 3d 81 8b d1 bd 06 41 ad 3d
       0.06576993 0.09479738 -0.102316864 0.08459668
0001e0 2d 86 c2 bc 0a da 91 3d 5d 61 b8 bd 12 92 0b bd
       -0.02374562 0.07121666 -0.090029456 -0.03407485
0001f0 56 d3 8f 3d b6 5b 96 bd c7 30 b2 bd 36 d7 c6 3b
       0.07022731 -0.07341711 -0.0870071 0.0060681356
000200 c0 44 cd 3c 39 4e 21 bc 0c ac cc 3d 66 9b 85 3d
       0.025057197 -0.00984531 0.09993753 0.065237805
000210 2c 80 18 3d 03 e3 52 bd b2 42 ad 3c 6e 35 47 3c
       0.03723161 -0.051486026 0.021149967 0.012158735
000220 a4 78 d4 3d e1 c6 46 bd c4 82 5b bd 54 48 2b 3c
       0.10374573 -0.04852951 -0.053591505 0.010454256
000230 14 d6 53 ba 36 bc 90 bd 8f 88 0b 3d 02 ed 77 3c
       -0.00080809114 -0.070671484 0.03406578 0.015132191
000240 95 11 ee bc 99 87 ac bc d0 2d ee bb c6 86 92 bd
       -0.029061118 -0.021060752 -0.007268645 -0.07154612
000250 36 45 c3 bd f4 56 ea bb d0 69 06 bd f0 2e 01 3d
       -0.09534685 -0.007151479 -0.032815754 0.031538904
000260 c4 e0 61 3d 42 6f df bc 3b a1 4b bc 50 13 2a 3d
       0.055145994 -0.027274732 -0.012428577 0.041522324
000270 45 95 16 bd 66 01 4d ba eb 88 8d 3c 45 bb 28 bd
       -0.03676345 -0.0007820338 0.017277202 -0.04119422
000280 43 d6 69 3d c4 5e ff bc 84 fe 9e 3d 17 c0 74 bb
       0.0570891 -0.031173117 0.07763389 -0.003734594
000290 cd 68 aa bd 8e f5 8c bd 88 bf 6b 3d e9 ff 8d bc
       -0.083207704 -0.06882773 0.057555705 -0.017333942
0002a0 44 76 68 3d 50 16 1e 3d 7c 82 ab bd 43 5a 5c bd
       0.056753412 0.038595498 -0.08374497 -0.053797018
0002b0 b4 8e 48 bd 31 ed 21 3d 7f 23 14 3d c9 3e 5f 3d
       -0.048964217 0.039532844 0.036166664 0.054503236
0002c0 6c 32 e4 3d 97 cc 85 3d 49 70 45 ba e8 31 d3 bc
       0.1114243 0.06533163 -0.00075316854 -0.025780633
0002d0 fb 2d 81 3b 81 1c 99 bd c6 f2 88 b9 ac 5c f9 bc
       0.003942249 -0.0747614 -0.00026120822 -0.030439697
0002e0 19 7a 99 38 8c 0c 0d 3d c6 a3 b6 bd ad 66 c3 3c
       7.318351e-05 0.034435794 -0.08917956 0.02385267
0002f0 22 aa 80 3d 68 09 51 3c 53 bc 4f 3c ea 54 14 bc
       0.0628245 0.01275859 0.012679177 -0.009053448
000300 3f 76 85 bd fa bf 5b 3d 6d d6 b1 3c d4 cc 68 bd
       -0.06516694 0.05364988 0.021708691 -0.056835964
000310 59 22 61 3b 35 42 ba bd f6 5a ca 3c 58 5a 26 bd
       0.0034352748 -0.09094659 0.024701577 -0.040613502
000320 19 76 a6 3c 43 d5 68 3d 99 b8 87 bd 4e b1 96 3c
       0.020319985 0.056844007 -0.06627006 0.018395092
000330 d8 b6 cb bd 93 ec 60 3c fb 1b 28 bd b6 30 57 3c
       -0.09946984 0.013728279 -0.04104231 0.013134172
000340 42 8c 6d 3d 25 8b 23 3c 50 ce 04 bc 36 dc 88 bc
       0.05799509 0.009981905 -0.008105829 -0.016706567
000350 16 6d 97 3d 43 f0 09 3d ab 91 84 3d f6 c7 e8 bc
       0.07393853 0.033676397 0.064730965 -0.028415661
000360 a9 c4 76 3d bb 9b 94 bd b1 16 aa bd 0d ce 8e bd
       0.060246143 -0.07256266 -0.08305109 -0.06972895
000370 98 f8 bf bd 51 1a 8f 3d 99 f9 1a bd c4 6c 89 bd
       -0.09373587 0.06987441 -0.03783569 -0.067101985
000380 89 c1 95 3c b5 a5 19 bd 4c f0 ae 3d 75 bc 03 3d
       0.018280761 -0.037511546 0.08541927 0.03216215
000390 7c ac 20 3d 12 a1 81 bd 99 bc 47 3d 2a 8b 37 ba
       0.039226994 -0.0632955 0.048763845 -0.0007001633
0003a0 aa db 14 bd 42 29 9d bc 19 0d 78 3c 9c 0e 8f bd
       -0.0363423 -0.019184712 0.0151398415 -0.069852084
0003b0 28 be 91 3c ca 9e 5f 3d bd fc 7e 3d a1 23 1f 3c
       0.017790869 0.054594792 0.06225275 0.009713084
0003c0 3f 52 90 bd 1f a9 97 bd ca 53 33 3d 3c bb 5e bd
       -0.07046937 -0.07405304 0.04378108 -0.05437778
0003d0 1f 66 87 3d fc e9 ef bc a3 88 98 3d 94 6d 14 3d
       0.06611275 -0.029286377 0.074479364 0.036237314
0003e0 4b d8 9d bc a0 18 83 bd 3c f7 06 3d 2e 54 91 3d
       -0.019268176 -0.06401181 0.032950625 0.07096134
0003f0 0e cd 23 3d 71 a0 14 bd ba e6 f9 3c ff f2 a0 3d
       0.039990477 -0.03628582 0.030505527 0.07858848

layers.3.bias f4 [128]
000000 00 58 dd 3d 13 91 06 bd 76 ff 3d bd 8f 57 7e 3c
       0.108078 -0.032853197 -0.046386205 0.015523805
000010 9e 23 bd 3d 83 87 2a 3d b3 72 9d 3d cb 40 12 bd
       0.09235309 0.04163314 0.07687893 -0.035706323
000020 fb bd 77 3d cc 93 c1 3d fa 7c 9e bd 49 b1 d0 3d
       0.060483914 0.09452018 -0.07738681 0.101900645
000030 30 69 24 bd bb db dd 3c 5a 54 b9 bd 52 dc fe bc
       -0.040139377 0.027082315 -0.09049292 -0.031110916
000040 78 35 9e 3c 28 04 61 bd b6 c6 95 3d a6 a0 31 bd
       0.019312605 -0.054935604 0.07313292 -0.043366097
000050 db e3 5b bd d1 55 c4 3c b2 9d ba 3d 87 ee 6f bd
       -0.053684097 0.023966702 0.09112109 -0.058577087
000060 ae 7d e2 bd 8e 48 42 bd 62 59 bd bd 1d 19 05 3c
       -0.11059128 -0.047432475 -0.09245564 0.008123663
000070 18 1e 63 bd d7 ec 90 3d 46 10 98 3c 60 c4 d4 3d
       -0.05544862 0.070764236 0.018562447 0.10389018
000080 2f fb c6 3b de c8 8a 3d a1 57 e3 bd a9 27 20 bb
       0.006072424 0.067765936 -0.11100698 -0.0024437702
000090 53 99 c7 3b 53 dc aa 3d 7f 65 68 bc ca 68 f5 bb
       0.0060912757 0.08342805 -0.014184355 -0.0074892985
0000a0 95 52 a9 3d ff e9 4a 3d df ba 05 3d ba ad 19 3c
       0.082677044 0.049539562 0.032648917 0.009379799
0000b0 cf f2 bf 3c 2a 96 03 3d 4b dc 77 bc f4 03 2a 3d
       0.02343121 0.03212563 -0.0151282055 0.041507676
0000c0 c7 d2 8a ba da d9 35 3d aa e7 85 3c c5 96 a4 3d
       -0.0010591381 0.044397213 0.016345818 0.080365695
0000d0 68 b2 be 3c c0 be c6 bd 18 2e a1 bb 58 c8 6a 3d
       0.02327843 -0.097043514 -0.004918825 0.05731997
0000e0 f0 60 6d 3d 3f a1 b7 bd 30 6b 61 bd 2b 2f 31 3d
       0.057953775 -0.08966302 -0.055033863 0.043257874
0000f0 3f ce 00 bd 15 a5 82 3d b0 36 9a bd 13 6f af bd
       -0.03144669 0.06379143 -0.07529962 -0.085661076
000100 bd 5a 34 3d a9 8e d5 bd e3 27 81 3d 73 35 7a bd
       0.044031847 -0.10427601 0.06306436 -0.06108613
000110 00 dc 83 3d 96 66 94 bb b6 85 57 3d 5a 6a ab bd
       0.06438446 -0.0045288308 0.05261775 -0.08369894
000120 91 8a 54 3d a9 b2 b7 bc 47 32 59 3d dd 75 90 3c
       0.05188996 -0.022424059 0.053026464 0.017634327
000130 49 5d 4e 3d e0 d1 c0 bd 35 6f 5d 3d f0 f0 04 be
       0.050381932 -0.094150305 0.054061133 -0.12982535
000140 bf 45 ad 3d 21 27 d2 3d 68 f5 8a bd 9c d7 d8 3c
       0.08460569 0.102613695 -0.06785089 0.026469998
000150 b8 90 81 bb bf 42 9d 3d b5 61 45 3d 43 9a ae bd
       -0.0039540194 0.076787464 0.048188884 -0.08525517
000160 c8 63 17 bd af f2 72 bd 8f 7d 4f 3c 7e b3 8d bd
       -0.036960393 -0.059313472 0.012664213 -0.06919001
000170 f9 7e 11 3c 45 72 c4 3b 8f 4a 30 bd 53 d4 f5 3c
       0.00888037 0.0059950673 -0.043039855 0.03000847
000180 99 0a e8 bd 1a 1c 1c 3d 6c 00 11 3d 83 ae 88 bc
       -0.11330146 0.038112737 0.035400793 -0.016684776
000190 f2 67 2b bd 04 71 2a bd 06 bb d3 bc be f8 6b bd
       -0.041847177 -0.041611686 -0.025846016 -0.057610266
0001a0 b4 eb 76 bd 8c c7 7d bd f8 35 b5 bd 3a 54 b6 3d
       -0.060283378 -0.06195788 -0.08848184 0.08902784
0001b0 58 37 39 bd 55 3f 1b bb 98 d5 ae bd 12 45 88 3d
       -0.045218796 -0.0023688872 -0.085368335 0.06653799
0001c0 cc 18 78 bd 2d 52 90 3d 8b de a6 3d 8a 52 3b 3c
       -0.060570523 0.07046924 0.081479155 0.011433253
0001d0 3c 97 8b bd 86 15 12 3d d8 d4 38 3b ac 72 07 bc
       -0.06815955 0.035665058 0.0028203037 -0.008267086
0001e0 b5 8c a3 3b 28 58 33 bd 33 c7 7d bb 34 69 f9 3c
       0.004991139 -0.043785244 -0.0038723468 0.030445673
0001f0 11 ca 5b bd cc 8d 56 bd 36 64 0e bd f0 3d a5 3c
       -0.053659502 -0.05238132 -0.034763537 0.020171136

layers.5.weight f4 [128]
000000 93 b1 7e 3f f1 23 7f 3f 11 ca 7e 3f 71 c5 7e 3f
       0.99489707 0.9966422 0.9952708 0.9952002
000010 2b 4e 80 3f 74 73 7e 3f 6f a2 7c 3f df a0 7b 3f
       1.0023855 0.9939492 0.98685354 0.98292345
000020 98 de 81 3f 85 36 7e 3f c0 a5 7c 3f 47 7f 7b 3f
       1.0146055 0.9930194 0.98690414 0.98241085
000030 6b 47 7f 3f e6 4a 82 3f 94 bd 80 3f a9 2c 7f 3f
       0.9971835 1.0179107 1.0057855 0.9967752
000040 80 92 81 3f b5 de 7f 3f 13 fd 80 3f 7a b9 7d 3f
       1.0122833 0.999492 1.0077232 0.9911114
000050 e1 de 80 3f 46 31 82 3f 88 5e 7e 3f 3c 77 7e 3f
       1.0068017 1.0171287 0.99362993 0.9940069
000060 f4 37 81 3f 27 97 7e 3f ad 76 7a 3f 38 30 7d 3f
       1.00952 0.9944939 0.97837335 0.989017
000070 83 a8 7e 3f 23 3e 7c 3f 3b 38 80 3f 70 30 7b 3f
       0.9947588 0.98532313 1.001716 0.98120785
000080 54 d0 80 3f 63 37 81 3f ed 70 81 3f 56 eb 81 3f
       1.0063577 1.0095028 1.0112587 1.0149944
000090 ea 41 7e 3f 26 b5 80 3f 3f ba 80 3f 25 e9 7e 3f
       0.99319327 1.0055282 1.0056838 0.995745
0000a0 fa 5e 80 3f 9f ce 7c 3f d5 0c 7c 3f 5d 38 81 3f
       1.0028985 0.9875278 0.9845708 1.0095326
0000b0 d7 a3 7f 3f bd 57 80 3f 33 11 7e 3f 19 c5 88 3f
       0.99859375 1.0026776 0.99244994 1.068515
0000c0 61 a0 80 3f 89 a7 80 3f ea 7f 86 3f c9 25 84 3f
       1.0048944 1.0051128 1.0507786 1.0324031
0000d0 57 14 7e 3f 33 ab 85 3f bd 4b 7c 3f 79 a2 7b 3f
       0.99249786 1.0442871 0.9855307 0.9829479
0000e0 28 7f 7c 3f 77 b0 80 3f 06 92 80 3f fa 5c 82 3f
       0.98631525 1.0053853 1.0044563 1.0184624
0000f0 b8 42 80 3f 1a d7 7c 3f f2 77 82 3f 5d fb 79 3f
       1.0020361 0.9876572 1.0192854 0.97649175
000100 a1 3c 80 3f 76 c1 7c 3f f7 43 81 3f 79 5b 7e 3f
       1.0018502 0.987327 1.0098866 0.99358326
000110 bc 25 7d 3f 83 a3 80 3f f3 25 7f 3f 3b c9 80 3f
       0.98885703 1.00499 0.9966728 1.0061411
000120 f2 f0 80 3f 11 19 7f 3f ae 87 81 3f 58 b6 7f 3f
       1.0073531 0.99647623 1.0119531 0.9988761
000130 a3 13 82 3f e1 be 80 3f 10 6a 80 3f de 43 7b 3f
       1.0162243 1.0058252 1.0032368 0.9815043
000140 21 fb 79 3f 38 f2 7d 3f d9 05 85 3f e0 d9 7c 3f
       0.9764882 0.9919772 1.039241 0.9876995
000150 8a 9e 7c 3f 0e 46 7c 3f 74 4a 80 3f 72 64 7e 3f
       0.9867941 0.98544395 1.0022721 0.9937202
000160 99 a3 7f 3f 3f af 7f 3f d7 76 80 3f 8f 79 80 3f
       0.99859005 0.9987678 1.0036267 1.0037097
000170 e3 6c 7d 3f 90 d4 7e 3f 8b aa 7e 3f 29 a5 80 3f
       0.9899427 0.99543095 0.9947898 1.0050403
000180 05 4f 81 3f 71 90 80 3f 61 96 7d 3f 93 97 80 3f
       1.010224 1.004408 0.99057585 1.0046257
000190 91 b0 7e 3f 53 70 80 3f 2a 0c 80 3f 42 ad 7e 3f
       0.9948817 1.0034279 1.0003712 0.9948312
0001a0 0f c1 7d 3f 1c 7b 7d 3f dd 49 7f 3f fd f6 7f 3f
       0.9912271 0.99015975 0.9972208 0.9998625
0001b0 19 e2 83 3f 54 b1 7d 3f c4 b5 7d 3f 24 95 7c 3f
       1.0303375 0.99098706 0.9910548 0.9866507
0001c0 d2 23 7e 3f 84 5e 7c 3f da 53 80 3f 91 37 7e 3f
       0.9927341 0.9858172 1.002559 0.9930354
0001d0 c5 d7 7f 3f 1a 56 80 3f 33 0f 81 3f 7f eb 7b 3f
       0.99938613 1.0026276 1.0082763 0.98406214
0001e0 62 cd 81 3f 1f 0d 7f 3f 9e 6f 81 3f 1d 48 7b 3f
       1.0140803 0.99629396 1.0112188 0.9815691
0001f0 e5 c1 7b 3f dd f9 83 3f 9e 04 7c 3f 9c 6e 7c 3f
       0.98342735 1.0310627 0.98444545 0.98606277

layers.5.bias f4 [128]
000000 de e4 6a bc e9 a4 27 3b 6a 5e 2d 3c 4a 0f f3 3b
       -0.014336793 0.0025580472 0.010581592 0.007417594
000010 98 fc 9e 3a 34 56 9c 39 80 d8 f4 bb 1c 06 41 3c
       0.0012129722 0.00029818865 -0.007472098 0.011781242
000020 ea 6e 64 3c 43 bc 51 bc e8 d5 34 3c a6 d5 4f 3b
       0.01394246 -0.012801233 0.011037327 0.0031713038
000030 70 27 4f 3c d0 14 d5 3b 44 9c b0 3c 9d af af bb
       0.01264368 0.006502725 0.021558888 -0.005361511
000040 f2 4b 4c b9 ef 8e cc 3b 6b 2f 21 ba 23 9d bd bb
       -0.00019483248 0.006242625 -0.00061487284 -0.0057865544
000050 3f 42 8b bc 6a a0 09 bc e6 16 2d bb df 58 c7 bb
       -0.016999362 -0.008400062 -0.0026411354 -0.0060835923
000060 be d4 39 3c b6 67 a8 ba b8 19 2b bb 5d be 06 3a
       0.011342226 -0.0012848291 -0.002610786 0.00051400607
000070 e8 25 67 bc f5 3b 23 3c 7f 5d f6 3b ff be 87 3a
       -0.014108159 0.009963025 0.00751847 0.0010356604
000080 8f 6d ad 3c 19 c8 f5 3b 39 88 92 3a df 63 bd 3c
       0.021170406 0.00750066 0.0011179514 0.023118911
000090 3f 6d 94 3c 28 97 1f bb 49 17 78 bb 37 61 29 3c
       0.018118499 -0.002435157 -0.0037855676 0.010338119
0000a0 62 f0 f0 3b 66 bd 99 37 e8 64 a7 b8 ab 43 57 3b
       0.0073528746 1.8327217e-05 -7.981976e-05 0.003284673
0000b0 0a c0 61 3c e8 cd 24 bc db 1d 33 3c f8 27 c9 ba
       0.013778696 -0.0100588575 0.010932411 -0.0015346995
0000c0 ca 93 b5 3c bb b7 09 3c 5f 36 69 ba a3 1a 00 bc
       0.022165198 0.008405621 -0.00088963466 -0.007818851
0000d0 68 5e 81 bc bd 32 61 3c 21 99 92 3b 67 2d be 3b
       -0.015792087 0.013745007 0.004473821 0.005803752
0000e0 10 a6 81 bc ad 8f 09 bb a7 c5 8c 3c 87 d1 67 bc
       -0.015826255 -0.0020990178 0.017184092 -0.014149076
0000f0 53 ee 48 3b 4d d7 6b 3c c7 a4 ec bc 42 dd c3 3b
       0.003065963 0.014394593 -0.028887166 0.0059773037
000100 2f 07 77 3c a4 c8 44 3c 48 a6 8d bb cc a1 b6 3b
       0.015077396 0.012010727 -0.004322801 0.005573487
000110 f8 0c b6 3b 56 e1 8c 3c a4 c0 c9 3b 27 64 8c bc
       0.005555745 0.017197292 0.0061569978 -0.0171376
000120 22 f4 ff 3c e4 11 c4 bb 3d 3d 75 3c ba 99 90 bb
       0.031244341 -0.005983578 0.014968214 -0.004412857
000130 3a e0 9a bb 63 ca 15 bc fa 35 98 3b fa 1c c5 bb
       -0.004726437 -0.009142491 0.0046451064 -0.006015417
000140 d1 b6 0a 3c 97 1c 91 3c 32 b7 bf bb 7e 67 c6 3b
       0.008466438 0.017713828 -0.005850696 0.0060548177
000150 cd 23 0c 3c 40 91 b0 3c 81 0e 83 39 2c d5 d5 3b
       0.008553457 0.021553636 0.00024997073 0.006525656
000160 c4 45 87 bc 4b e6 c9 3c 23 b2 7e bb c1 f2 9d bc
       -0.016512759 0.024645945 -0.0038863502 -0.019280793
000170 b4 a1 2c 3b 70 6d e9 bb 0f a7 8a bb d6 dc 41 3b
       0.00263415 -0.0071236417 -0.0042313407 0.0029581091
000180 e7 7b 8b 3b dd 63 55 3c 90 f9 05 3b 40 fb c6 3b
       0.0042567137 0.013024298 0.002044294 0.006072432
000190 18 dd a3 3c 29 52 19 3c 63 93 d3 bb 94 fb 32 bb
       0.020002887 0.009357967 -0.006456779 -0.0027310597
0001a0 9d 95 23 3b 8d 62 85 3c 7f 8b 6f bb a3 70 24 3c
       0.0024961003 0.016282344 -0.0036551652 0.01003662
0001b0 81 9b 35 3c b7 5f 36 3b f5 9c 6e 3c 7a 8d d0 3a
       0.011084438 0.0027828047 0.014563789 0.0015911304
0001c0 06 c8 80 3c 60 f6 07 bc a4 06 27 bc 7b c1 fa bb
       0.015720379 -0.0082984865 -0.010194454 -0.007652459
0001d0 d4 47 2e bb c7 ab 7b 3c 74 98 e8 3b a0 29 4d bc
       -0.0026593106 0.015360779 0.007098252 -0.012522131
0001e0 6b c9 e9 bb 94 d7 f4 bb ae 78 88 bb 34 e0 9f 3b
       -0.0071346066 -0.007471988 -0.0041647768 0.004879022
0001f0 06 f5 6d 3b fc 40 b3 3c 56 f1 be 3b 01 2a 79 3b
       0.0036309375 0.021881573 0.0058271093 0.003801942

layers.5.running_mean f4 [128]
000000 49 36 90 3e 24 6c 3f 3e fc 96 02 3e 2e e5 4b 3e
       0.28166416 0.18693596 0.12752908 0.19911644
000010 55 88 c3 3e 52 c3 ad 3e c4 ac af 3e a2 c5 99 3e
       0.3818995 0.3393808 0.34311497 0.30033594
000020 83 74 a5 3e 39 a2 57 3e 82 bd 02 3f ac 64 9c 3e
       0.32315454 0.21057977 0.51070416 0.30545557
000030 ca 74 2b 3e bf b9 ab 3e 22 04 2a 3e b9 de 6a 3e
       0.1674377 0.3354015 0.16603139 0.22936524
000040 fd 2e 96 3e a8 f1 13 3e 9d fc bc 3e 30 e3 c3 3e
       0.29332724 0.14447653 0.3691148 0.38259268
000050 74 20 ed 3d 1e 77 b3 3e 9c ca bd 3e d7 62 83 3e
       0.115784556 0.35051817 0.3706864 0.25661346
000060 5b fa 19 3e 68 8b 86 3e f3 d9 37 3e 58 70 7c 3e
       0.1503691 0.26278234 0.17954235 0.2465223
000070 09 fb a4 3e 48 c2 b9 3e 6e dc c0 3e c2 17 d7 3e
       0.32222775 0.36281037 0.37668175 0.42010313
000080 9c f8 53 3f 15 09 8f 3e 96 ae 15 3f 99 a4 b7 3e
       0.8280122 0.27936617 0.5846952 0.35867766
000090 1e 45 8b 3e 1b b2 a0 3e 97 4b 17 3e 06 f6 61 3e
       0.2720117 0.31385884 0.14774929 0.22066507
0000a0 f6 da ab 3e a3 36 8b 3e 0a 22 82 3e ce 89 b7 3e
       0.3356549 0.27190122 0.25416595 0.35847324
0000b0 28 e7 4e 3e 02 e5 d2 3e ba ce 4d 3e 58 e2 c0 3e
       0.20205367 0.41190344 0.20098391 0.37672687
0000c0 e6 f9 73 3e 2a 63 63 3e d5 e4 91 3e de d6 db 3e
       0.23825797 0.22205797 0.28494897 0.42937368
0000d0 e3 36 94 3e d1 f6 85 3e 7f 49 a9 3e 2e 2d 92 3e
       0.28948125 0.26164868 0.33063886 0.28550094
0000e0 be f7 5d 3e 4e 84 b7 3e c4 f6 2a 3f 5c 33 aa 3e
       0.21676537 0.35843128 0.66782784 0.3324231
0000f0 68 ce 8d 3e 0c 89 ef 3d 4b 54 3e 3e 2f 00 06 3e
       0.27696538 0.116960615 0.18586843 0.13086008
000100 fa 7d 5d 3e 66 ae 47 3e ac 95 57 3e 1b 2b 9f 3e
       0.21630087 0.19500121 0.21053189 0.31087574
000110 47 3b 99 3e 82 e7 c9 3e 32 77 67 3e 5a 2f 29 3e
       0.29928038 0.3943444 0.22604063 0.1652197
000120 52 62 bd 3e ab 51 53 3e d4 39 6c 3e 5c 1a 41 3e
       0.36989075 0.20636623 0.23068935 0.18857712
000130 28 fe ec 3e c0 6d 12 3e f3 c9 40 3e f0 c0 3e 3e
       0.46287656 0.14299679 0.18827038 0.18628287
000140 82 8f dd 3e 79 b2 6a 3e 22 ee 47 3f 76 89 28 3e
       0.4327355 0.22919644 0.78097737 0.16458687
000150 84 29 5e 3e f2 c9 9c 3e 19 bf 65 3e ae 1f 44 3e
       0.21695524 0.30622822 0.22436179 0.1915271
000160 91 01 58 3e 0e 29 84 3e 3e 59 bc 3e 4d f9 f7 3d
       0.21094348 0.25812572 0.36786836 0.12108097
000170 df 54 9d 3e 1d ab aa 3e a0 db ce 3e 3b 4a a5 3e
       0.30728814 0.33333674 0.40401936 0.32283196
000180 a8 e0 51 3e c5 b4 86 3e 45 53 b2 3e 1f d5 5d 3e
       0.20495856 0.2630979 0.34829155 0.2166333
000190 c8 b7 ec 3d 9b 31 46 3e ad 6b 5b 3e b0 d1 61 3e
       0.11558491 0.1935486 0.21427794 0.22052646
0001a0 b5 b8 a0 3e c3 2e 30 3f 07 7b bf 3d 5f c7 98 3e
       0.3139092 0.6882135 0.093496375 0.29839608
0001b0 d6 bc b7 3e 2b b5 36 3e a9 54 0a 3e 0b ca bb 3e
       0.35886258 0.17842548 0.13508858 0.36677584
0001c0 09 ff 90 3e 16 57 06 3f c8 55 81 3e f2 2d 42 3f
       0.28319576 0.5247663 0.25260758 0.75851357
0001d0 46 f6 b3 3e e1 83 8b 3e 5b 73 58 3e 74 a3 70 3e
       0.3514883 0.27249053 0.21137755 0.23499852
0001e0 42 14 e3 3e 0f 06 54 3e f6 81 d8 3e 46 4a d3 3e
       0.44351393 0.20705436 0.42286652 0.41267604
0001f0 d3 f3 79 3e a6 31 b3 3e 2c 56 8e 3e c5 dd 0a 3f
       0.24409418 0.34998816 0.2780012 0.54244643

layers.5.running_var f4 [128]
000000 4e 78 b8 3d d8 5d dc 3d 03 26 1b 3e c3 16 57 3e
       0.09007321 0.10760087 0.15151219 0.21004777
000010 ab 44 8a 3d 34 2f 27 3e 8e 3d 4d 3f b6 e4 0a 3e
       0.067513786 0.163266 0.8017205 0.13563809
000020 0d 25 83 3d 5e ca 0e 3e f6 c4 12 3f 4a f8 19 3e
       0.06403551 0.13944384 0.5733179 0.15036121
000030 20 62 56 3e c0 5e 9e 3e 1e ab 3f 3e 08 07 8b 3e
       0.20935869 0.30931664 0.1871762 0.27153802
000040 27 81 c3 3d be 0d 49 3e fb 75 99 3e d8 2b 8b 3e
       0.09546118 0.19634148 0.29972824 0.27181888
000050 94 5c 31 3d 48 0d 65 3e 74 fd d2 3d e1 87 37 3f
       0.04330118 0.22368348 0.103022486 0.7169171
000060 b0 5d 0b 3e bd dc d2 3d 47 ea 81 3d 6c 75 fc 3d
       0.13609958 0.10296009 0.06343513 0.12327084
000070 a7 4d 0a 3e ae f7 51 3e 76 17 3c 3e 8a 34 e8 3d
       0.13506185 0.20504639 0.18368325 0.11338146
000080 af 6b 88 3f 4e e2 78 3d ce 0e cd 3f 81 4b 8a 3e
       1.0657862 0.060762696 1.6020143 0.2701073
000090 f3 bf 2d 3d fe 87 03 3e a8 f5 fb 3d a2 9c 26 3e
       0.042419385 0.12844846 0.123027146 0.16270688
0000a0 75 e5 41 3e cc c0 2b 3e ad 83 b1 3e 1e ac a8 3d
       0.18935187 0.16772765 0.34670773 0.08235954
0000b0 06 57 18 3e 24 82 54 3e ed 20 e3 3d 2e 8f 96 3e
       0.14876947 0.2075277 0.110902645 0.29406112
0000c0 7a 87 16 3e 87 f3 92 3d 2a a4 74 3d 8f b1 8d 3d
       0.14700118 0.071753554 0.05972687 0.06918632
0000d0 ec e3 0b 3f 96 d9 81 3e 9b 09 9e 3d 96 d1 05 3e
       0.54644656 0.25361317 0.07716676 0.13068232
0000e0 a2 5b d0 3d 96 ef 60 3e e9 42 37 40 38 07 58 3e
       0.101737276 0.21966395 2.8634589 0.21096504
0000f0 44 99 8d 3e 63 9d 1f 3d 5a d7 c2 3d b6 ea 3d 3d
       0.27655995 0.038968455 0.09513731 0.046366416
000100 ed 66 e8 3d c3 e0 8c 3e 6c 20 c5 3e 2c c5 5e 3e
       0.113477565 0.2751523 0.38501298 0.21754903
000110 a3 3f 08 3e 15 aa 06 3e 8b 3e dd 3e 8f 9a 93 3d
       0.13305525 0.13150819 0.4321178 0.07207214
000120 d9 8d 98 3e 92 44 b5 3d b7 7c 0f 3e 6f dc cb 3c
       0.2979572 0.088509694 0.14012419 0.024885384
000130 a1 87 93 3f c8 f3 b7 3d 5c 40 c1 3d 82 a9 71 3e
       1.1525766 0.089820445 0.09436104 0.23599818
000140 7b e3 24 3e b7 c1 3d 3e ca 40 b4 3e fb 05 2f 3d
       0.16102402 0.18530928 0.3520568 0.042730313
000150 72 3a a0 3e d1 c7 24 3e a9 74 98 3e e1 97 86 3e
       0.3129459 0.16091849 0.29776505 0.2628775
000160 51 32 ad 3d 18 f7 9b 3e 98 9c 43 3e 4f c8 1c 3e
       0.08456863 0.30461955 0.19102705 0.15310787
000170 5b 1d 4a 3e 0e c2 67 3f be c9 4c 3f 15 10 45 3e
       0.1973776 0.9053048 0.79995334 0.19244416
000180 65 35 c7 3e 14 43 d3 3d 76 d1 75 3e b9 e8 e7 3d
       0.38907924 0.103155285 0.24005684 0.11323685
000190 8c 1b 81 3d 92 f2 89 3d 18 03 f6 3e 0e 72 ce 3e
       0.06304082 0.0673572 0.48049235 0.40321392
0001a0 5e cf e9 3e 54 fe a6 3f 5e d4 38 3d 5d cf 21 3e
       0.4566602 1.3046365 0.045124404 0.15801759
0001b0 db 20 90 3e fd ed 94 3e f6 d6 22 3e 7c 17 7b 3e
       0.28150067 0.2908782 0.15902314 0.24520677
0001c0 80 10 27 3f a5 f9 db 3e 62 ee 94 3d ad 51 ed 3f
       0.6525955 0.429639 0.072720304 1.854055
0001d0 c2 6b a5 3e c5 c6 cb 3e 23 1d 87 3e 67 32 a8 3d
       0.32308775 0.39800087 0.26389417 0.082127385
0001e0 1e c9 c0 3e bc 6c 1a 3f a7 ec bf 3f df 4a 8a 3f
       0.3765344 0.60322165 1.4994096 1.0804099
0001f0 40 b4 cb 3e 97 3f 66 3e 5a a3 32 3e 22 06 80 3f
       0.39785957 0.22485195 0.17445126 1.0001872
