model/trained_tuned_model.pth (torch, 218315 bytes, 25 tensors)

layers.0.weight f4 [128, 5]
-0.16791216 0.13323274 0.21915407 -0.379596 -0.14683822 0.44494206 0.35858044 0.2325323
-0.28959844 0.19245593 -0.018161858 -0.28462043 0.36864635 -0.02022386 0.4210627 -0.0050848466
-0.06250743 -0.30105892 -0.23803985 0.26246864 -0.20453282 -0.4013762 0.12158439 0.2594531
-0.11294715 -0.30616486 -0.39294443 -0.3867673 -0.123101495 -0.1815281 -0.3053129 -0.33775496
-0.36508766 0.3836863 0.23652211 0.19838989 -0.37135252 -0.38009745 0.33159524 0.32205778
-0.007472798 0.20773366 0.2155023 -0.09932106 0.07327343 0.05115693 -0.3524083 0.22669095
0.40856978 0.37979415 0.35562435 -0.41992745 0.35204414 0.42442873 -0.34652948 -0.41771632
-0.27872154 -0.3199285 -0.04621352 0.1906426 -0.093388736 0.18373351 0.13034292 -0.43250725
-0.11887538 0.38572544 0.36879873 0.28136104 0.211501 0.42635998 -0.21845643 -0.09744556
0.1840762 0.17553423 -0.17012684 0.009974305 0.10572969 0.2841485 -0.36191478 0.009740631
0.18760227 -0.22276825 -0.34023002 -0.12779993 0.10699972 0.19728212 -0.3435738 -0.3033951
0.17245397 0.16176161 0.3098346 0.24866797 -0.3613277 -0.35127208 -0.21859147 -0.32283822
-0.42992473 0.1666887 -0.32435343 0.3560332 0.36803463 -0.39864543 0.13366793 -0.15219386
0.4055453 -0.26030973 0.36517394 0.11376565 0.11324895 0.06342973 -0.34916443 -0.03622274
0.4167235 0.009958098 0.2362105 -0.26853684 -0.11658868 -0.00500088 -0.08108406 0.20212333
0.2566369 -0.28549582 0.2390797 0.17785549 0.18294685 0.062073044 -0.061806805 -0.16776481
-0.42118636 -0.1124377 -0.3666338 0.31300932 0.29344293 -0.42391673 -0.16963916 -0.22680168
0.34033924 -0.012494364 0.14104328 0.20134221 0.14400017 -0.015135647 0.108254686 -0.038073134
-0.24280356 0.30406407 0.05353373 -0.02830708 0.135231 0.24481443 0.18570861 -0.03749791
-0.38456324 0.027188702 -0.10473881 -0.10398855 0.22359738 -0.15422478 -0.29691267 0.4096815
-0.10847433 -0.14387879 -0.1910363 0.03404505 0.17622218 0.30739307 0.2672303 0.014882315
-0.29140633 -0.28216472 0.28696695 -0.02174192 0.19342878 -0.22561464 0.00801141 -0.012574119
-0.25925505 -0.1719467 -0.19126554 0.23277423 0.25736588 -0.33782533 0.4437991 -0.3865355
0.28490523 0.1674774 0.24497339 0.3181824 -0.039135285 -0.08523994 -0.24536209 0.34963256
-0.18449582 -0.2853861 0.31232485 0.08678844 0.42449936 0.20442727 -0.08863947 0.13663882
-0.25774872 0.41362938 0.1206887 -0.16071893 -0.09073776 -0.36201298 -0.15701887 -0.0027498337
0.04119894 0.3528646 0.3610126 -0.23430668 -0.12961185 0.3008688 0.15662014 -0.06937689
-0.015044917 0.22987603 0.039613757 0.24502762 -0.151414 -0.01923215 -0.44560307 -0.0403718
-0.017710518 -0.24795018 0.36691085 -0.2541778 -0.0038021125 0.4234796 0.44426948 0.3330383
0.39353293 0.04284338 -0.25228065 -0.111070946 -0.24538065 0.16247961 -0.23837951 -0.19661961
-0.02168914 -0.31334972 0.05362954 0.4283834 0.08839137 0.09404884 0.28129277 -0.30925912
-0.30117774 -0.17160055 -0.17691864 0.04391459 0.2831694 0.17834704 -0.3230782 -0.18220457
00000000: 2af1 2bbe 2a6e 083e ed69 603e 685a c2be
00000010: c25c 16be 72cf e33e db97 b73e f21c 6e3e
00000020: 3f46 94be 2b13 453e 2dc8 94bc c5b9 91be
00000030: 37bf bc3e 82ac a5bc 8895 d73e c99e a6bb
00000040: e503 80bd 6524 9abe b8c0 73be 4a62 863e
00000050: 0d71 51be 2e81 cdbe 3d01 f93d 09d7 843e
00000060: d650 e7bd a4c1 9cbe 0330 c9be 5d06 c6be
00000070: a31c fcbd 81e2 39be f951 9cbe 38ee acbe
00000080: c5ec babe 8872 c43e da32 723e b826 4b3e
00000090: eb21 bebe 229c c2be dac6 a93e c2e4 a43e
000000a0: 60de f4bb 22b8 543e a3ac 5c3e d768 cbbd
000000b0: 6110 963d ee89 513d dc6e b4be ac21 683e
000000c0: 0f30 d13e 6174 c23e 6514 b63e bb00 d7be
000000d0: 213f b43e b94e d93e 506c b1be eade d5be
000000e0: 97b4 8ebe abcd a3be 634a 3dbd d037 433e
000000f0: 9842 bfbd a324 3c3e 9d78 053e 9771 ddbe
00000100: ef74 f3bd ce7d c53e 30d3 bc3e 8e0e 903e
00000110: b893 583e db4b da3e 0bb3 5fbe 8a91 c7bd
00000120: 797e 3c3e 3fbf 333e bb35 2ebe 446b 233c
00000130: cf88 d83d ea7b 913e e54c b9be 2b97 1f3c
00000140: cf1a 403e 5c1d 64be a132 aebe fcdd 02be
00000150: ab22 db3d 5304 4a3e e8e8 afbe 9a56 9bbe
00000160: c697 303e d6a4 253e a4a2 9e3e d1a2 7e3e
00000170: f2ff b8be efd9 b3be 71d6 5fbe 0d4b a5be
00000180: 181f dcbe 71b0 2a3e a711 a6be fc49 b63e
00000190: 096f bc3e 411b ccbe 3fe0 083e b5d8 1bbe
000001a0: a2a3 cf3e 5147 85be 14f8 ba3e f7fd e83d
000001b0: 11ef e73d 72e7 813d aec5 b2be 4c5e 14bd
000001c0: c85c d53e 4a27 233c 2ae1 713e a97d 89be
000001d0: 0cc6 eebd 6cde a3bb 660f a6bd 6bf9 4e3e
000001e0: e965 833e 822c 92be 4fd1 743e c01f 363e
000001f0: 6b56 3b3e 4e40 7e3d 2229 7dbd 8aca 2bbe
00000200: bda5 d7be bd45 e6bd 6db7 bbbe c242 a03e
00000210: 273e 963e 9d0b d9be e3b5 2dbe b33e 68be
00000220: f240 ae3e 29b5 4cbc a66d 103e a72c 4e3e
00000230: c874 133e 81fb 77bc a2b4 dd3d 93f2 1bbd
00000240: 7fa1 78be 49ae 9b3e 2f46 5b3d 40e4 e7bc
00000250: ff79 0a3e a2b0 7a3e 662a 3e3e 6997 19bd
00000260: 79e5 c4be d7ba de3c 4d81 d6bd f3f7 d4bd
00000270: b6f6 643e 1aed 1dbe f004 98be c6c1 d13e
00000280: ca27 debd f654 13be 059f 43be d372 0b3d
00000290: 9673 343e a062 9d3e 69d2 883e f4d4 733c
000002a0: 3633 95be e577 90be 55ed 923e 1c1c b2bc
000002b0: 3212 463e 8607 67be 4a42 033c ad03 4ebc
000002c0: 14bd 84be cc12 30be 1ddb 43be 5e5c 6e3e
000002d0: 76c5 833e 71f7 acbe a339 e33e fbe7 c5be
000002e0: 19df 913e 327f 2b3e 4eda 7a3e cee8 a23e
000002f0: 524c 20bd 4792 aebd 3340 7bbe 0a03 b33e
00000300: 79ec 3cbe 201e 92be 0be9 9f3e 23be b13d
00000310: fb57 d93e 6255 513e 9c88 b5bd 0ceb 0b3e
00000320: a4f7 83be 3bc7 d33e a32b f73d 8193 24be
00000330: b8d4 b9bd c459 b9be 8ec9 20be 8e36 34bb
00000340: 38c0 283d abaa b43e a5d6 b83e 17ee 6fbe
00000350: f8b8 04be 7a0b 9a3e 0861 203e 7915 8ebd
00000360: f57e 76bc 9f64 6b3e 0942 223d 85e8 7a3e
00000370: 460c 1bbe be8c 9dbc 1626 e4be e75c 25bd
00000380: a615 91bc a7e6 7dbe bddb bb3e 9823 82be
00000390: dd2c 79bb 51d2 d83e 4a77 e33e ff83 aa3e
000003a0: 267d c93e 8a7c 2f3d ee2a 81be 2a79 e3bd
000003b0: 1145 7bbe 0e61 263e c219 74be a756 49be
000003c0: 6cad b1bc 606f a0be a6aa 5b3d 1255 db3e
000003d0: 8906 b53d ae9c c03d 9b05 903e 3657 9ebe
000003e0: f833 9abe 0eb8 2fbe 292a 35be c9df 333d
000003f0: 94fb 903e 9ba0 363e 816a a5be d693 3abe

layers.0.bias f4 [128]
0.42714086 -0.123445995 -0.26811346 -0.0035617445 0.023390163 0.19539766 -0.14768307 -0.39615428
-0.38732016 0.26842242 0.09011175 -0.17806111 0.3027035 0.18044043 0.09936762 0.10435891
-0.4252035 0.1412432 -0.31111777 -0.29230562 -0.2434652 0.40602303 0.3891186 -0.2698749
0.30042142 -0.08040299 0.18070817 -0.14385542 0.32093924 0.42480895 -0.23405068 -0.36729315
0.21211866 0.21265338 -0.43307838 0.3517555 0.22383063 -0.34055412 0.28887334 0.08784567
0.2457984 -0.30313557 0.054586176 -0.13228919 0.18609521 0.009215568 -0.23848528 -0.07523082
-0.04481184 -0.22206043 0.27642694 -0.2354329 0.103164524 0.14201024 0.18347473 0.32190844
0.057335738 -0.26163548 0.31503958 -0.42685878 0.14465043 -0.22514887 0.25722715 0.25028008
0.42232534 -0.10227436 0.1723005 -0.2407471 -0.43701512 -0.030610168 -0.015330706 0.3501637
-0.06761296 0.26034358 -0.17888331 0.06321179 -0.2849689 -0.032026224 0.38481936 -0.085988574
-0.35159695 0.11018644 -0.06407766 0.342572 -0.39718458 0.31014323 0.1972664 -0.2158483
-0.07881189 0.22570455 -0.4185101 0.028551355 -0.25041533 -0.009405131 0.2385822 0.014351488
-0.44045582 -0.41786662 0.09623171 -0.18551692 -0.057331823 0.30709374 0.028686395 -0.0122854365
-0.055508137 0.345873 0.14926797 -0.34462443 -0.12052252 0.07880428 0.0029419148 -0.3945087
-0.4076982 -0.34429586 -0.29642072 -0.11632964 0.20321435 -0.043458767 0.020477038 0.19149275
-0.17829196 -0.24888788 -0.22628482 0.2605723 0.3490997 -0.060269497 0.35055277 0.13158591
00000000: 35b2 da3e 41d1 fcbd 2b46 89be 286c 69bb
00000010: ba9c bf3c 5316 483e 3b3a 17be bcd4 cabe
00000020: d44e c6be aa6e 893e 828c b83d a755 36be
00000030: f4fb 9a3e 60c5 383e 4081 cb3d 20ba d53d
00000040: 46b4 d9be 0fa2 103e d44a 9fbe 15a9 95be
00000050: f14e 79be 40e2 cf3e 8e3a c73e 0b2d 8abe
00000060: d6d0 993e 53aa a4bd 900b 393e d64e 13be
00000070: 2652 a43e 8f80 d93e fbaa 6fbe d90d bcbe
00000080: a235 593e cfc1 593e 73bc ddbe 4c19 b43e
00000090: db33 653e 1c5d aebe 35e7 933e 6ee8 b33d
000000a0: 93b2 7b3e 9634 9bbe c195 5f3d d176 07be
000000b0: be8f 3e3e e5fc 163c 7c35 74be 9e12 9abd
000000c0: 9f8c 37bd cf63 63be d587 8d3e 5215 71be
000000d0: ec47 d33d 226b 113e cde0 3b3e 2fd1 a43e
000000e0: e1d8 6a3d 16f5 85be de4c a13e 3c8d dabe
000000f0: 3e1f 143e 6d8d 66be 47b3 833e b624 803e
00000100: 073b d83e 3875 d1bd 8b6f 303e 6886 76be
00000110: 72c0 dfbe 2dc2 fabc a42d 7bbc a848 b33e
00000120: aa78 8abd c14b 853e 302d 37be 2f75 813d
00000130: 72e7 91be ee2d 03bd 0b07 c53e c71a b0bd
00000140: 8404 b4be 6ea9 e13d 263b 83bd 9965 af3e
00000150: c75b cbbe 18cb 9e3e 3400 4a3e 5607 5dbe
00000160: 2168 a1bd 181f 673e f546 d6be 88e4 e93c
00000170: 7036 80be fb17 1abc e44e 743e 8122 6b3c
00000180: 6d83 e1be 9df2 d5be 2115 c53d 26f8 3dbe
00000190: c6d4 6abd 643b 9d3e bbff ea3c db48 49bc
000001a0: 805c 63bd 4416 b13e b4d9 183e 9d72 b0be
000001b0: 83d4 f6bd 2364 a13d 24cd 403b 0bfd c9be
000001c0: d2bd d0be 8c47 b0be 75c4 97be 3c3e eebd
000001d0: 6c17 503e d201 32bd 76bf a73c ad16 443e
000001e0: 2b92 36be 77dc 7ebe 35b7 67be bc69 853e
000001f0: 32bd b23e 26dd 76bd a77b b33e 75be 063e

layers.2.weight f4 [128]
0.99512964 1.0000437 1.0 0.99956954 0.9989616 1.0024022 1.0 1.0
0.999143 1.00171 1.0007201 1.0 1.0069468 1.0063467 1.0014049 1.0035355
1.0 1.006589 1.0004904 1.0 1.0 0.9985379 0.99940264 1.0
0.990669 1.0 0.99971884 1.0048782 1.0027255 0.9991846 1.0 1.0064088
0.99467516 0.9988956 1.0 1.0003299 0.99628603 0.998087 0.99836165 0.9943884
1.0000368 1.0 1.0017979 1.0 1.0002846 0.99973845 0.99928856 1.0
1.0 1.0058638 1.0064673 1.0 1.0005609 1.0032406 0.99683714 1.0019974
0.9981337 1.0 0.99363434 1.0 0.9946542 1.001599 0.9971756 1.000937
0.998034 1.0 0.99539596 1.0 0.9963079 1.0079372 0.9938305 1.0022507
0.9995892 1.0000684 1.0063585 1.0006614 0.9964846 1.0022646 0.9978154 1.0012476
1.0 1.0002307 1.0003335 1.0025717 0.99805194 1.0126688 0.9988783 0.9921773
0.9975213 0.9990352 1.0033468 0.9957916 1.0 0.99854416 0.99729663 1.0018177
0.99455595 1.0 0.9971023 0.99905336 0.99908304 1.0012265 1.000123 0.99920416
0.9917567 0.99913347 1.0060722 1.0017759 1.0 0.9987051 0.9979666 1.0
0.9932862 1.0011147 1.0122113 1.0 0.99540365 1.0025544 1.0070363 1.002548
1.0 0.98993117 1.0 0.9990367 1.0011741 1.0 1.003437 1.0042973
00000000: d1c0 7e3f 6f01 803f 0000 803f cae3 7f3f
00000010: f3bb 7f3f b74e 803f 0000 803f 0000 803f
00000020: d6c7 7f3f 0938 803f 9917 803f 0000 803f
00000030: a2e3 803f f8cf 803f 092e 803f da73 803f
00000040: 0000 803f e9d7 803f 1210 803f 0000 803f
00000050: 0000 803f 2ea0 7f3f dad8 7f3f 0000 803f
00000060: 7c9c 7d3f 0000 803f 93ed 7f3f d99f 803f
00000070: 4f59 803f 90ca 7f3f 0000 803f 01d2 803f
00000080: 08a3 7e3f 9fb7 7f3f 0000 803f cf0a 803f
00000090: 9a0c 7f3f a182 7f3f a194 7f3f 3d90 7e3f
000000a0: 3501 803f 0000 803f ea3a 803f 0000 803f
000000b0: 5309 803f dcee 7f3f 60d1 7f3f 0000 803f
000000c0: 0000 803f 25c0 803f ecd3 803f 0000 803f
000000d0: 6112 803f 306a 803f b830 7f3f 7341 803f
000000e0: b185 7f3f 0000 803f d25e 7e3f 0000 803f
000000f0: a8a1 7e3f 6534 803f e646 7f3f b41e 803f
00000100: 287f 7f3f 0000 803f 45d2 7e3f 0000 803f
00000110: 090e 7f3f 1604 813f ad6b 7e3f c049 803f
00000120: 14e5 7f3f 3e02 803f 5bd0 803f ac15 803f
00000130: 9d19 7f3f 354a 803f d470 7f3f e228 803f
00000140: 0000 803f 8f07 803f ee0a 803f 4554 803f
00000150: 5580 7f3f 229f 813f 7db6 7f3f 55ff 7d3f
00000160: 8e5d 7f3f c5c0 7f3f ab6d 803f 33ec 7e3f
00000170: 0000 803f 97a0 7f3f d54e 7f3f 903b 803f
00000180: 389b 7e3f 0000 803f 1942 7f3f f6c1 7f3f
00000190: e8c3 7f3f 3128 803f 0804 803f d8cb 7f3f
000001a0: c4e3 7d3f 36c7 7f3f f9c6 803f 313a 803f
000001b0: 0000 803f 23ab 7f3f bd7a 7f3f 0000 803f
000001c0: 0148 7e3f 8724 803f 2490 813f 0000 803f
000001d0: c6d2 7e3f b453 803f 91e6 803f 7e53 803f
000001e0: 0000 803f 216c 7d3f 0000 803f dfc0 7f3f
000001f0: 7926 803f 0000 803f a070 803f d08c 803f

layers.2.bias f4 [128]
-0.005659157 0.0005004423 -0.005549051 -0.0016396513 -0.0013289162 0.0008783617 0.00045601616 -4.8113918e-05
-0.0020846794 0.001967727 -0.0020170994 -0.0051984247 -0.0013248879 0.0031468854 -0.0013090046 0.0035417378
0.004187197 -0.0011954353 0.00079929706 -0.004474643 -0.002011382 0.0031773213 0.00062197493 -0.0006702618
0.005317951 0.0051868977 0.0066597303 0.0022994375 0.0044863615 -0.0054205228 -0.0022329327 0.0010980053
-0.0030875904 0.0023672052 -0.0057355063 -0.0032474017 0.0054579503 -0.0015123886 -0.0027382981 -0.0022650424
-0.0014292159 0.0025584276 -0.0029338093 -0.008516657 -0.0017523688 0.0029349492 -0.003001007 0.0043520634
0.0007093323 0.0046934993 0.00049727526 -0.00020878506 -0.0021472287 0.0032784431 0.0009298709 -0.0042945333
-0.0022512106 -0.00061390444 -0.004649364 0.0017720029 -0.0058775437 0.0014845047 0.0053996113 0.0004029291
-0.0010332977 0.004435597 0.0023706083 0.001047479 -0.0031475984 0.0035711832 -0.007922787 -0.0011192027
-0.0035987515 0.0028028986 0.0072431094 0.0060957214 -0.003250177 -0.0014517996 0.0018556507 -0.0044039995
0.0057541695 -0.0011664771 0.00011826024 -0.0027747296 -0.0019363088 0.0071494286 -0.0018160484 -0.0022796756
-0.008945587 0.0008988478 -0.0005199409 -0.0024006416 -0.0003614179 0.001130057 -0.0047951597 0.0031188733
-0.0036543845 -0.0012236203 -0.004330974 0.0030654445 3.996603e-05 0.00021266306 0.0016149053 -0.0018475095
-0.007767225 0.0015381171 -0.00904097 0.0013607852 -0.00389448 -0.00019726243 -1.3892275e-05 -0.0076955114
-0.0031351696 0.0055146785 0.0035265114 -0.0019418657 0.0023906103 0.0026194397 0.0016871324 0.0012603201
0.004769965 -0.006237902 -0.0045947367 0.00052567595 0.0025988426 0.0056727054 -0.00018935971 -0.0014779764
00000000: 7370 b9bb 1d30 033a d0d4 b5bb 91e9 d6ba
00000010: 072f aeba db41 663a 7415 ef39 edcd 49b8
00000020: 1e9f 08bb fbf4 003b 5031 04bb 8c57 aabb
00000030: dca7 adba fa3b 4e3b e892 abba 801c 683b
00000040: c134 893b 27b0 9cba eb87 513a 07a0 92bb
00000050: 64d1 03bb 9b3a 503b 080c 233a 82b4 2fba
00000060: 3542 ae3b daf6 a93b de39 da3b 29b2 163b
00000070: 5402 933b a49e b1bb 6556 12bb f2ea 8f3a
00000080: 2c59 4abb 1d23 1b3b eaf0 bbbb 5cd2 54bb
00000090: 9bd8 b23b 573b c6ba 0575 33bb 1b71 14bb
000000a0: 8754 bbba 4bab 273b 2745 40bb 7389 0bbc
000000b0: bdaf e5ba 4758 403b 8bac 44bb c19b 8e3b
000000c0: 7cf2 393a edcb 993b 945b 023a 50ed 5ab9
000000d0: 85b8 0cbb 26db 563b 94c2 733a 28b9 8cbb
000000e0: 0c89 13bb 6eee 20ba b159 98bb 8d42 e83a
000000f0: 6998 c0bb b693 c23a 39ef b03b 3a40 d339
00000100: b86f 87ba 7c58 913b 355c 1b3b 904b 893a
00000110: f047 4ebb 830a 6a3b 94ce 01bc 36b2 92ba
00000120: 08d9 6bbb d6b0 373b 9b57 ed3b 9ebe c73b
00000130: ec00 55bb 504a beba 4e39 f33a 6d4f 90bb
00000140: 798d bc3b 7ae4 98ba 7c02 f838 3dd8 35bb
00000150: becb fdba c145 ea3b 7908 eeba 9c66 15bb
00000160: 8390 12bc a8a0 6b3a a54c 08ba 1554 1dbb
00000170: b07c bdb9 6c1e 943a b720 9dbb 0366 4c3b
00000180: 667e 6fbb e261 a0ba d8ea 8dbb a0e5 483b
00000190: 33a1 2738 4efe 5e39 3bab d33a 2228 f2ba
000001a0: 3584 febb a59a c93a 9420 14bc 605c b23a
000001b0: 883a 7fbb 3bd8 4eb9 de12 69b7 a12a fcbb
000001c0: 6b77 4dbb 7ab4 b43b 0b1d 673b 3386 feba
000001d0: c9ab 1c3b e8aa 2b3b c522 dd3a 5331 a53a
000001e0: 5e4d 9c3b 5167 ccbb 728f 96bb 84cd 093a
000001f0: 5851 2a3b 1ae2 b93b dc8e 46b9 a9b8 c1ba

layers.2.running_mean f4 [128]
8.8763685 23.96278 0.0 6e-45 0.0054278937 0.045680106 0.0 0.0
13.769881 0.0627517 0.021065779 0.0 12.0876 25.889326 0.023230568 6.6146584
0.0 0.033020023 16.14475 0.0 0.0 25.672182 0.09096803 0.0
0.07023244 0.0 20.846733 23.509163 0.07503722 4.287317 0.0 14.525162
0.04958909 17.990997 0.0 0.08223328 0.052326996 16.468012 23.737633 29.042124
28.314066 0.0 0.012761059 0.0 0.043505054 25.178587 22.739876 0.0
0.0 18.551622 3.7602732 0.0 0.02411822 0.033199158 0.042892408 0.07525567
24.683662 0.0 19.001686 0.0 23.968647 21.688969 0.0601345 12.327547
28.277506 0.0 0.04028019 0.0 29.547304 7.9753537 3.8266196 30.453568
8.6057625 13.201647 15.554805 21.833967 26.548145 7.9981704 0.089962974 13.788794
0.0 23.53336 21.163568 0.08008638 22.442753 13.028482 27.979843 16.253649
27.69392 0.05276509 24.593992 18.162436 0.0 11.886731 15.046271 15.114683
27.630775 0.0 15.375881 26.192451 27.139608 4.406133 5.1713295 6.355739
31.236492 0.08085807 0.034895673 9.857302 0.0 19.003897 5.2026525 0.0
5.9805384 11.719749 5.2876835 0.0 0.04750731 12.097991 8.959749 19.099398
0.0 8.555628 0.0 0.06140541 0.0816124 0.0 0.08195213 0.030761745
00000000: 9b05 0e41 c6b3 bf41 0000 0000 0400 0000
00000010: 79dc b13b 101b 3b3d 0000 0000 0000 0000
00000020: 6f51 5c41 f783 803d 2492 ac3c 0000 0000
00000030: cf66 4141 571d cf41 084e be3c 48ab d340
00000040: 0000 0000 0140 073d 7328 8141 0000 0000
00000050: 0000 0000 a160 cd41 724d ba3d 0000 0000
00000060: 07d6 8f3d 0000 0000 1cc6 a641 c412 bc41
00000070: 1dad 993d b331 8940 0000 0000 1067 6841
00000080: ee1d 4b3d 90ed 8f41 0000 0000 ec69 a83d
00000090: d554 563d 7dbe 8341 ace6 bd41 4556 e841
000000a0: 3583 e241 0000 0000 c313 513c 0000 0000
000000b0: 5b32 323d bf6d c941 44eb b541 0000 0000
000000c0: 0000 0000 b969 9441 51a8 7040 0000 0000
000000d0: 9393 c53c d7fb 073d f3af 2f3d a51f 9a3d
000000e0: 2478 c541 0000 0000 7403 9841 0000 0000
000000f0: cabf bf41 0283 ad41 984f 763d a23d 4541
00000100: 5538 e241 0000 0000 d7fc 243d 0000 0000
00000110: e160 ec41 1936 ff40 56e7 7440 e8a0 f341
00000120: 34b1 0941 f239 5341 7be0 7841 f7ab ae41
00000130: 9a62 d441 03f1 ff40 823e b83d e69e 5c41
00000140: 0000 0000 5244 bc41 fd4e a941 5404 a43d
00000150: c28a b341 aa74 5041 b8d6 df41 7907 8241
00000160: 268d dd41 3520 583d 7fc0 c441 ab4c 9141
00000170: 0000 0000 0d30 3e41 87bd 7041 bed5 7141
00000180: d40b dd41 0000 0000 9c03 7641 248a d141
00000190: eb1d d941 0bff 8c40 887b a540 3762 cb40
000001a0: 56e4 f941 ea98 a53d c4ee 0e3d 82b7 1d41
000001b0: 0000 0000 fb07 9841 217c a640 0000 0000
000001c0: 9260 bf40 1884 3b41 b434 a940 0000 0000
000001d0: 0697 423d 5f91 4141 225b 0f41 91cb 9841
000001e0: 0000 0000 dae3 0841 0000 0000 3d84 7b3d
000001f0: 6724 a73d 0000 0000 85d6 a73d 0e00 fc3c

layers.2.running_var f4 [128]
21.843279 174.33742 5.922e-42 5.922e-42 9.4422336e-05 0.0066869375 5.922e-42 5.922e-42
57.594677 0.012618975 0.0014220943 5.922e-42 42.342674 200.93501 0.0017293877 12.989591
5.922e-42 0.003494039 79.22937 5.922e-42 5.922e-42 193.93489 0.026518606 5.922e-42
0.015806971 5.922e-42 129.73834 167.9715 0.018039715 4.564644 5.922e-42 64.15753
0.007880349 95.97517 5.922e-42 0.021670472 0.008774545 82.36928 166.91263 254.50385
239.13358 5.922e-42 0.0005218527 5.922e-42 0.006065304 192.37048 157.07314 5.922e-42
5.922e-42 104.528656 3.7900598 5.922e-42 0.0018640751 0.003532052 0.005895681 0.01814895
184.19044 5.922e-42 105.98911 5.922e-42 172.36241 143.33017 0.011588323 44.351612
236.22559 5.922e-42 0.005199434 5.922e-42 265.14612 19.301115 4.46462 275.18704
22.757446 50.873524 73.96076 144.36203 214.2463 19.516314 0.025935858 57.852966
5.922e-42 166.52603 136.09412 0.020553723 153.00883 49.15883 234.30756 80.241455
232.8438 0.008922088 183.76836 99.83904 5.922e-42 42.912014 66.73938 69.27067
232.19374 5.922e-42 70.88024 208.47379 223.57875 5.136808 8.062096 12.361756
296.74756 0.020951726 0.0039022614 29.529367 5.922e-42 108.81625 8.250978 5.922e-42
10.937855 41.747124 8.51792 5.922e-42 0.0072325924 44.89275 24.44436 108.52094
5.922e-42 22.371443 5.922e-42 0.011975623 0.021344472 5.922e-42 0.021522542 0.0030324608
00000000: 09bf ae41 6156 2e43 8210 0000 8210 0000
00000010: 9b04 c638 191e db3b 8210 0000 8210 0000
00000020: f360 6642 d1bf 4e3c 9165 ba3a 8210 0000
00000030: e65e 2942 5def 4843 9fac e23a 5dd5 4f41
00000040: 8210 0000 3ffc 643b 7075 9e42 8210 0000
00000050: 8210 0000 55ef 4143 8c3d d93c 8210 0000
00000060: 9f7d 813c 8210 0000 04bd 0143 b4f8 2743
00000070: 06c8 933c 9011 9240 8210 0000 a850 8042
00000080: 941c 013c 49f3 bf42 8210 0000 4686 b13c
00000090: 1cc3 0f3c 12bd a442 a2e9 2643 fc80 7e43
000000a0: 3222 6f43 8210 0000 f1cc 083a 8210 0000
000000b0: 75bf c63b d85e 4043 b912 1d43 8210 0000
000000c0: 8210 0000 ac0e d142 5790 7240 8210 0000
000000d0: fb53 f43a 007a 673b 8f30 c13b 1bad 943c
000000e0: c130 3843 8210 0000 6dfa d342 8210 0000
000000f0: c75c 2c43 8654 0f43 f3dc 3d3c 0d68 3142
00000100: c039 6c43 8210 0000 0360 aa3b 8210 0000
00000110: b492 8443 af68 9a41 2bde 8e40 f197 8943
00000120: 400f b641 7d7e 4b42 e9eb 9342 ae5c 1043
00000130: 0e3f 5643 6921 9c41 7077 d43c 7069 6742
00000140: 8210 0000 aa86 2643 1818 0843 4860 a83c
00000150: 4302 1943 a4a2 4442 bc4e 6a43 a07b a042
00000160: 03d8 6843 f32d 123c b3c4 3743 97ad c742
00000170: 8210 0000 e7a5 2b42 907a 8542 958a 8a42
00000180: 9931 6843 8210 0000 afc2 8d42 4a79 5043
00000190: 2994 5f43 bb60 a440 58fe 0041 c1c9 4541
000001a0: b05f 9443 f4a2 ab3c 15bd 7f3b 253c ec41
000001b0: 8210 0000 eca1 d942 0204 0441 8210 0000
000001c0: 7401 2f41 0efd 2642 6649 0841 8210 0000
000001d0: 62ff ec3b 2d92 3342 0d8e c341 b90a d942
000001e0: 8210 0000 b7f8 b241 8210 0000 6735 443c
000001f0: 9ada ae3c 8210 0000 0b50 b03c 40bc 463b

layers.3.weight f4 [128, 128]
0.031090053 -0.05961973 0.051959127 -0.029810414 -0.022442142 0.023178332 -0.032171406 0.006272763
-0.029628785 0.02280428 -0.007450319 -0.06427829 -0.08328414 -0.011663875 0.025032913 -0.013282963
0.015421689 -0.05090511 0.07768387 0.08408393 0.059187897 0.08380038 0.020668644 -0.0042634993
0.0033047162 -0.06015175 -0.014660713 -0.043152962 0.029378776 0.049215488 -0.01573538 -0.07396436
-0.07892943 -0.06894286 -0.060208634 0.008728244 0.07362362 -0.08125426 -0.017219802 -0.030146863
0.06083778 -0.061229963 -0.08480764 -0.048408296 0.082515165 -0.00048249232 0.042714965 0.0201776
0.0012262632 -0.027367724 -0.0011913436 -0.00409688 -0.010190571 0.06769107 0.0500417 -0.044662103
-0.071152754 0.061176423 -0.049202237 -0.018097498 -0.047859035 0.004052981 -0.034326945 0.011149558
-0.08583474 -0.02903703 0.08060945 -0.08057954 -0.04409727 -0.02971458 0.05524521 0.057393573
-0.002214347 0.042430233 0.022810534 -0.083225556 -0.009189728 -0.08240352 -0.011509168 0.0043387422
0.051914204 -0.07242736 -0.010353506 0.040283795 -0.015630046 -0.0652783 -0.084448345 -0.058329307
0.0859453 0.06924579 0.061496515 -0.0745896 0.06424059 -0.082948275 -0.047409017 0.015471269
0.051260795 -0.05465735 -0.0857856 0.059556134 -0.026748585 -0.054704335 0.014517149 0.059738856
0.08602162 -0.08082466 0.06838062 0.06325328 -0.034845043 -0.045231964 0.08650543 0.02070824
-0.049665663 -0.060100358 -0.0046791094 -0.019660423 -0.0635692 -0.08243942 0.0036048414 0.011871779
0.030403906 0.08804161 -0.06298744 -0.051710505 0.046098147 -0.021933429 0.05152547 0.0741483
-0.021422034 0.01606357 0.05301082 -0.07812188 -0.07109992 -0.046476368 0.029103374 -0.04611755
0.07259777 0.026623162 0.06384221 -0.08160744 -0.03404131 -0.013885706 0.0741953 0.042203538
0.009142992 -0.047223505 -0.056510627 -0.08499382 0.044364218 -0.02350132 -0.0071605328 0.076722346
-0.08003652 -0.003984529 0.0009356808 -0.02598766 0.07031106 0.081690006 0.040902324 0.010853007
-0.026296064 0.061245587 -0.07414531 0.03737144 0.08729284 -0.043077346 0.013508102 0.040344268
0.004496999 0.023199646 0.07312316 -0.0845655 -0.029032279 -0.0020387233 0.08767889 0.0740474
0.006608478 0.015548611 0.021398738 -0.029634146 -0.08205137 0.04119802 -0.028936435 0.074866354
-0.005815122 0.02215789 0.036422994 -0.011874786 -0.0828129 -0.04938487 0.023727292 0.01769342
0.017514527 -0.046257716 -0.032651775 -0.034354124 -0.022480011 0.043929216 0.014906054 -0.077213675
0.054291863 -0.011185403 0.019964954 0.034795158 -0.079860665 0.023005005 -0.018918913 0.07458279
-0.03834336 -0.026477527 0.08729331 0.08324754 -0.08497323 0.011669914 -0.012330101 -0.0074051125
-0.019956462 0.03187706 0.037628897 0.006997639 -0.035468165 0.017267272 -0.08417434 -0.06305841
-0.035237644 -0.023232516 0.07644512 0.041664176 -0.021266202 0.0042779143 0.05788868 -0.06726876
-0.059912965 0.0260783 0.088373795 -0.04567148 -0.07535494 0.033577565 -0.059994712 -0.05129736
-0.07392978 0.011020052 -0.00019966612 0.052788567 -0.028958468 -0.030475654 -0.058996547 -0.056891825
0.031763166 -0.047439855 -0.0041881707 0.0388188 -0.05411018 -0.053623628 -0.042046532 0.04678145
00000000: 91b0 fe3c d133 74bd 18d3 543d f834 f4bc
00000010: 95d8 b7bc 7ce0 bd3c 2ac6 03bd c08b cd3b
00000020: 11b8 f2bc 0bd0 ba3c ce21 f4bb 56a4 83bd
00000030: e090 aabd d619 3fbc d311 cd3c c9a0 59bc
00000040: 40ab 7c3c e081 50bd b918 9f3d 3234 ac3d
00000050: 026f 723d 899f ab3d 4a51 a93c d3b4 8bbb
00000060: f093 583b ae61 76bd 7d33 70bc 29c1 30bd
00000070: c2ab f03c 2e96 493d 7ce7 80bc a07a 97bd
00000080: c1a5 a1bd ea31 8dbd 549d 76bd e900 0f3c
00000090: fbc7 963d a268 a6bd 8b10 8dbc 8ef6 f6bc
000000a0: 0931 793d 45cc 7abd a1af adbd c747 46bd
000000b0: b6fd a83d 06f7 fcb9 e3f5 2e3d 7f4b a53c
000000c0: 91ba a03a 4732 e0bc dc26 9cba 1f3f 86bb
000000d0: 5af6 26bc 9ea1 8a3d 87f8 4c3d 9cef 36bd
000000e0: 89b8 91bd 2194 7a3d 4988 49bd 3441 94bc
000000f0: d607 44bd dece 843b 699a 0cbd a3ac 363c
00000100: 20ca afbd 11df edbc 9116 a53d e306 a5bd
00000110: 579f 34bd fe6b f3bc cd48 623d 8615 6b3d
00000120: 941e 11bb 53cb 2d3d 28dd ba3c 2972 aabd
00000130: 8390 16bc 2dc3 a8bd f390 3cbc 022c 8e3b
00000140: fda3 543d cc54 94bd c0a1 29bc 9f00 253d
00000150: 950a 80bc a1b0 85bd 41f3 acbd b6ea 6ebd
00000160: 1704 b03d bdd0 8d3d c5e3 7b3d 6fc2 98bd
00000170: 9290 833d c9e0 a9bd f52f 42bd 357b 7d3c
00000180: d7f6 513d 63e0 5fbd 5cb0 afbd 22f1 733d
00000190: d91f dbbc a711 60bd 56d9 6d3c bbb0 743d
000001a0: 1a2c b03d 6687 a5bd 230b 8c3d f08a 813d
000001b0: adb9 0ebd 2745 39bd c229 b13d 54a4 a93c
000001c0: 396e 4bbd cb2b 76bd 3753 99bb e50e a1bc
000001d0: 9230 82bd 00d6 a8bd 343f 6c3b da81 423c
000001e0: 9d11 f93c 294f b43d 8fff 80bd 65ce 53bd
000001f0: 69d1 3c3d bcad b3bc 5f0c 533d 10db 973d
00000200: 437d afbc bf97 833c e021 593d 5dfe 9fbd
00000210: d69c 91bd 015e 3ebd 336a ee3c c2e5 3cbd
00000220: 24ae 943d d118 da3c b4bf 823d cd21 a7bd
00000230: e76e 0bbd df80 63bc b5f3 973d 9edd 2c3d
00000240: 7dcc 153c 6f6d 41bd b077 67bd 3d11 aebd
00000250: 41b7 353d d785 c0bc e7a2 eabb 9b20 9d3d
00000260: 30ea a3bd a790 82bb 7a48 753a 13e4 d4bc
00000270: 3fff 8f3d 174d a73d 3289 273d d0d0 313c
00000280: d86a d7bc a7dc 7a3d 7fd9 97bd cc12 193d
00000290: 97c6 b23d df71 30bd 1651 5d3c 0840 253d
000002a0: 905b 933b 2f0d be3c 98c1 953d ad30 adbd
000002b0: 1ad5 edbc 1a9c 05bb fd90 b33d 2aa6 973d
000002c0: ee8b d83b 9abf 7e3c 684c af3c 4fc3 f2bc
000002d0: 8c0a a8bd 41bf 283d 1a0c edbc 8853 993d
000002e0: c78c bebb 7784 b53c 4730 153d 768e 42bc
000002f0: cf99 a9bd ca47 4abd bd5f c23c cbf1 903c
00000300: a07a 8f3c bb78 3dbd debd 05bd e9b6 0cbd
00000310: 0028 b8bc 1fef 333d 8638 743c 3422 9ebd
00000320: 2561 5e3d fb42 37bc 8b8d a33c 5e85 0e3d
00000330: fd8d a3bd fe74 bc3c d6fb 9abc ddbe 983d
00000340: ed0d 1dbd 66e7 d8bc d6c6 b23d b07d aa3d
00000350: 7206 aebd 2b33 3f3c 3104 4abc 96a6 f2bb
00000360: bc7b a3bc 8591 023d c220 1a3d 734c e53b
00000370: 1147 11bd 1874 8d3c 9963 acbd c524 81bd
00000380: 5955 10bd 1e52 bebc 428f 9c3d 0ea8 2a3d
00000390: 7536 aebc bf2d 8c3b ae1c 6d3d 34c4 89bd
000003a0: 4c67 75bd 29a2 d53c 52fd b43d 0512 3bbd
000003b0: b153 9abd a188 093d 04bd 75bd 2e1d 52bd
000003c0: 7f68 97bd 738d 343c 775d 51b9 d338 583d
000003d0: 4f3a edbc 14a8 f9bc 5da6 71bd 6707 69bd
000003e0: 181a 023d 4b50 42bd ec3c 89bb 7600 1f3d
000003f0: a3a2 5dbd 73a4 5bbd fc38 2cbd e89d 3f3d

layers.3.bias f4 [128]
-0.0071052345 -0.016235307 0.017357698 -0.0033327453 0.0282363 -0.04835071 -0.04692716 0.062276687
0.043126937 0.044582754 -0.06688015 0.048239164 0.010779726 -0.0022039858 -0.035538968 -0.020215496
0.021194577 0.03764705 0.021877697 0.026756288 -0.077589646 -0.013872481 -0.09149283 0.068094745
-0.069718875 -0.048556294 -0.022308107 0.012770292 0.04463107 -0.07369749 -0.033616822 0.056803707
-0.0032805703 -0.045689084 -0.04351722 -0.024109831 -0.08074143 -0.015969623 0.07098786 0.0005018477
0.047946773 -0.055375014 -0.005193371 -0.05131009 0.07223721 0.025079655 -0.03365641 -0.037269186
-0.06546924 0.0144022005 0.042180542 0.041926216 -0.0892072 -0.020085476 0.027491262 -0.04783653
0.043330397 0.022436976 -0.05439954 0.0014076047 -0.022955777 -0.051027253 -0.05714522 -0.045212433
0.03278636 -0.085102566 -0.013827438 -0.07805874 0.07958534 -0.08232595 0.041983485 -0.010686033
0.030262314 -0.018127743 -0.07034289 0.08220319 -0.027960764 0.08505836 -0.06580603 -0.046879347
0.046291847 -0.042067863 0.02051272 -0.012420089 -0.06433686 -0.079640776 -0.031808656 -0.0626093
-0.043061644 -0.06018366 -0.07251019 -0.03362341 -0.04455105 -0.041847996 0.043213334 0.056061286
-0.034350332 -0.04557821 0.07538473 0.08178841 0.012880228 -0.0040076035 0.020083198 -0.09239589
-0.080801286 -0.010838636 0.015675623 -0.0022854726 0.032352492 -0.0046248906 -0.08149359 0.050916746
0.04165565 0.05439321 -0.016769962 -0.046912253 0.057162274 0.021327019 0.010113484 -0.020521166
0.06949763 -0.028302956 0.087263055 -0.06774257 0.07643332 -0.07565308 0.08082604 -0.047630593
00000000: 07d3 e8bb e8ff 84bc bb31 8e3c 306a 5abb
00000010: d04f e73c 650b 46bd b236 40bd d715 7f3d
00000020: dfa5 303d 689c 363d 76f8 88bd 6e96 453d
00000030: 739d 303c bf70 10bb 4f91 11bd f89a a5bc
00000040: 40a0 ad3c cb33 1a3d db38 b33c 0130 db3c
00000050: 52e7 9ebd 6749 63bc 9860 bbbd 4275 8b3d
00000060: c5c8 8ebd f7e2 46bd 7ebf b6bc 7d3a 513c
00000070: 12cf 363d b6ee 96bd cbb1 09bd 01ab 683d
00000080: d6fe 56bb 7a24 3bbd 1d3f 32bd fb81 c5bc
00000090: c35b a5bd bad2 82bc 1562 913d 6e8e 033a
000000a0: d663 443d e9d0 62bd 272d aabb 872a 52bd
000000b0: 1af1 933d d973 cd3c 4edb 09bd 93a7 18bd
000000c0: bd14 86bd 35f7 6b3c 81c5 2c3d d3ba 2b3d
000000d0: 44b2 b6bd 4c8a a4bc 5b35 e13c 3df0 43bd
000000e0: 377b 313d c0cd b73c 0dd2 5ebd 607f b83a
000000f0: c10d bcbc f401 51bd 1b11 6abd ac30 39bd
00000100: fd4a 063d 414a aebd 7a8c 62bc 43dd 9fbd
00000110: a4fd a23d 829a a8bd e0f6 2b3d 7914 2fbc
00000120: ace8 f73c a280 94bc ef0f 90bd 255a a83d
00000130: f90d e5bc 1433 ae3d 50c5 86bd 8f04 40bd
00000140: 859c 3d3d 5a4f 2cbd 4b0a a83c a17d 4bbc
00000150: 0bc3 83bd b41a a3bd cb49 02bd 4e39 80bd
00000160: 6861 30bd 2483 76bd 3980 94bd b3b8 09bd
00000170: 297b 36bd ce68 2bbd 7700 313d 85a0 653d
00000180: efb2 0cbd 38b0 3abd 4f63 9a3d af80 a73d
00000190: 9807 533c 3752 83bb 8585 a43c 0e3a bdbd
000001a0: 257b a5bd 8994 31bc 2a6a 803c dec7 15bb
000001b0: 0c84 043d 658c 97bb 1ce6 a6bd 148e 503d
000001c0: 1d9f 2a3d 6acb 5e3d 2961 89bc 1027 40bd
000001d0: fd22 6a3d 00b6 ae3c 07b3 253c 011c a8bc
000001e0: c654 8e3d 9adb e7bc f9b6 b23d 9ebc 8abd
000001f0: 1389 9c3d 01f0 9abd 1f88 a53d 4c18 43bd

layers.5.weight f4 [128]
0.99919677 0.9990563 0.9972829 1.0010535 0.9955533 0.996483 1.0009392 0.9988387
1.0006199 1.001213 0.9978767 1.0010527 1.0030988 1.0024705 1.0010121 1.0005158
0.9999038 0.9992512 0.9996515 0.99956334 1.0006413 0.99996257 0.99815744 1.0015476
1.0038989 1.0008173 1.0006304 1.0023956 1.0003908 1.0024912 0.99822867 0.9994143
1.0006236 0.9996018 1.0011138 0.9971564 1.0021496 1.0016242 1.0037395 0.99862105
0.99656135 1.0000615 1.0043734 1.0005145 1.0015204 1.0003693 0.9999945 1.0015885
0.9971696 0.9992758 1.0015516 0.9977702 1.000477 0.9998806 1.0016965 0.99766046
0.9981494 1.0055459 0.9966068 0.9969527 0.9968744 1.00101 0.9990737 0.997314
1.0016162 1.0004345 0.9994755 1.0005968 1.0005149 1.0009823 1.0019177 0.9995385
0.99816436 1.0031047 1.0026894 0.9991704 0.9988335 0.99912465 1.0014433 0.9992072
1.0001806 0.9991476 1.0021732 1.000395 0.99737364 0.9999583 0.99449456 0.9995491
0.9992768 1.0004683 1.0012319 1.0006299 1.0009159 1.0007395 0.9955322 0.99986005
0.9982018 1.0041584 1.0031108 0.99898744 1.0049329 0.9993872 0.9989532 0.999736
1.0003183 0.998694 1.0028517 0.99785346 1.0000756 0.99965066 1.0038025 0.9982119
1.000987 0.9993444 0.9991064 1.0003458 0.9972391 1.0026805 0.99937147 1.0000373
0.99897766 1.001132 1.0014561 0.99398917 0.99840856 0.9986251 1.0028943 0.9992287
00000000: 5ccb 7f3f 27c2 7f3f ef4d 7f3f 8522 803f
00000010: 95dc 7e3f 8319 7f3f c71e 803f e5b3 7f3f
00000020: 5014 803f bf27 803f d974 7f3f 7f22 803f
00000030: 8b65 803f f450 803f 2a21 803f e710 803f
00000040: b2f9 7f3f edce 7f3f 29e9 7f3f 62e3 7f3f
00000050: 0415 803f 8cfd 7f3f 3f87 7f3f b632 803f
00000060: c27f 803f c81a 803f a814 803f 804e 803f
00000070: ce0c 803f a251 803f ea8b 7f3f 9ed9 7f3f
00000080: 6f14 803f e7e5 7f3f 7f24 803f a445 7f3f
00000090: 7046 803f 3935 803f 897a 803f a1a5 7f3f
000000a0: a51e 7f3f 0402 803f 4f8f 803f dc10 803f
000000b0: d231 803f 1a0c 803f a4ff 7f3f 0d34 803f
000000c0: 8246 7f3f 8ad0 7f3f d832 803f de6d 7f3f
000000d0: a10f 803f 2df8 7f3f 9737 803f ad66 7f3f
000000e0: b886 7f3f bab5 803f a021 7f3f 4b38 7f3f
000000f0: 2933 7f3f 1821 803f 4bc3 7f3f f84f 7f3f
00000100: f634 803f 3d0e 803f a0dd 7f3f 8e13 803f
00000110: df10 803f 3020 803f d73e 803f c1e1 7f3f
00000120: b387 7f3f bc65 803f 2058 803f a2c9 7f3f
00000130: 8db3 7f3f a2c6 7f3f 4b2f 803f 0bcc 7f3f
00000140: eb05 803f 23c8 7f3f 3647 803f f20c 803f
00000150: e153 7f3f 44fd 7f3f 3297 7e3f 73e2 7f3f
00000160: 9bd0 7f3f 580f 803f 5e28 803f a414 803f
00000170: 031e 803f 3b18 803f 33db 7e3f d4f6 7f3f
00000180: 278a 7f3f 4388 803f ef65 803f a4bd 7f3f
00000190: a4a1 803f d7d7 7f3f 66bb 7f3f b3ee 7f3f
000001a0: 6e0a 803f 69aa 7f3f 725d 803f 5373 7f3f
000001b0: 7a02 803f 1be9 7f3f 9a7c 803f d18a 7f3f
000001c0: 5820 803f 09d5 7f3f 70c5 7f3f 550b 803f
000001d0: 104b 7f3f d657 803f cfd6 7f3f 3901 803f
000001e0: 00bd 7f3f 1825 803f b72f 803f 1376 7e3f
000001f0: b497 7f3f e5a5 7f3f d75e 803f 74cd 7f3f

layers.5.bias f4 [128]
0.0017846583 0.0019997675 0.0016285675 -0.0014629675 -0.0033255233 0.0028623424 -0.0028619217 -0.0010405543
0.00036530578 0.0037520796 -0.0017915317 -0.0017069267 -0.0020817497 -0.0007903264 -0.0011945103 -0.0027637905
-0.0010886455 0.0024846452 0.00047973296 0.0020334388 0.0010550047 -0.0015608578 -0.0013793937 -0.0007191678
0.001705671 0.002285948 0.0035790957 -7.006462e-05 -0.0024296343 0.0007634091 0.0038606352 0.0012817982
-0.0025867543 -0.0011452355 0.0037735081 -0.004005358 0.0036161065 -0.0021850874 -0.0017668926 0.0018418534
-0.00019903139 -0.00030474737 0.0018689643 0.001275992 -0.0003018235 -0.0051794103 0.0048386105 -0.0031927724
-0.0018192077 0.00048233915 0.0017610104 0.0033258784 0.0019719293 0.0011606272 -0.0005606806 -0.0006674202
0.0016562658 -0.00032897593 -0.0037134355 -0.0012197072 -0.002185943 -0.0014382484 0.0020088893 -0.00030231418
0.001750996 0.00043949767 -0.0009548829 -0.0008360851 0.0018764489 -0.0005126074 -0.003738346 0.001511319
0.001288141 0.0011071651 -0.00024564454 -0.000588286 0.0015883911 -0.0021595322 0.0011131737 -0.0004971111
-0.00175923 -0.0012255629 -0.000801954 0.00092099485 -0.0008402278 -0.0010156193 -0.0002701369 0.001657712
-0.0029313646 0.0023076977 -0.0035505153 0.00044286923 0.002748312 -0.0030804349 -0.0012584972 0.0006301175
-0.000839374 0.0005870011 -0.00041585183 -0.0009861187 -0.0037679602 0.0017114892 0.0010825436 -0.0026355723
0.00014391534 -0.00046464498 -0.0017151027 0.0024644327 0.0041270386 0.0021018034 0.00034803894 0.00090572675
8.834441e-05 -0.00065615843 0.0009393478 0.0010365016 -0.0012662082 -0.0014508802 4.6302e-06 -0.00056382397
0.0002354103 0.0003976573 0.0030469967 -0.0031786964 -6.348975e-05 0.0014368134 0.0016343776 0.0033474416
00000000: 32eb e93a 880e 033b a875 d53a 0bc1 bfba
00000010: 06f1 59bb 2396 3b3b 148f 3bbb 3563 88ba
00000020: 8386 bf39 73e5 753b d4d1 eaba f5ba dfba
00000030: f76d 08bb e82d 4fba 1d91 9cba b620 35bb
00000040: e2b0 8eba 6ed5 223b ab84 fb39 7143 053b
00000050: 1548 8a3a b295 ccba c6cc b4ba 8986 3cba
00000060: d290 df3a d8cf 153b 438f 6a3b a8ef 92b8
00000070: 803a 1fbb 841f 483a b602 7d3b 0302 a83a
00000080: 8986 29bb ba1b 96ba f64c 773b 613f 83bb
00000090: 33fc 6c3b af33 0fbb 1497 e7ba 586a f13a
000000a0: 15b3 50b9 80c6 9fb9 09f8 f43a 303f a73a
000000b0: 103e 9eb9 0bb8 a9bb 358d 9e3b d53d 51bb
000000c0: 7b72 eeba 77e2 fc39 b4d1 e63a fbf6 593b
000000d0: 7c3b 013b 3020 983a a3fa 12ba d0f5 2eba
000000e0: 0f17 d93a 677a acb9 1c5d 73bb 95de 9fba
000000f0: 0a42 0fbb 9c83 bcba 92a7 033b ec7f 9eb9
00000100: ad81 e53a 616c e639 1b51 7aba b92c 5bba
00000110: 2df3 f53a 8060 06ba 0aff 74bb 7317 c63a
00000120: d7d6 a83a 4c1e 913a dac9 80b9 3537 1aba
00000130: 9031 d03a f086 0dbb e9e7 913a 9050 02ba
00000140: f795 e6ba 11a3 a0ba 393a 52ba eb6e 713a
00000150: bc42 5cba 871e 85ba 29a1 8db9 9647 d93a
00000160: 231c 40bb be3c 173b c3af 68bb e730 e839
00000170: 061d 343b 1fe1 49bb 29f4 a4ba 782e 253a
00000180: 7009 5cba fae0 193a b006 dab9 a740 81ba
00000190: e2ef 76bb 0c54 e03a 23e4 8d3a 91b9 2cbb
000001a0: fbe7 1639 989b f3b9 4ccd e0ba 5282 213b
000001b0: 1c3c 873b 69be 093b ff78 b639 4b6e 6d3a
000001c0: 8b45 b938 0c02 2cba 903e 763a 39db 873a
000001d0: e6f6 a5ba 762b beba 1d5d 9b36 96cd 13ba
000001e0: 79d8 7639 a97c d039 1fb0 473b ad51 50bb
000001f0: cd25 85b8 7553 bc3a 9d38 d63a c060 5b3b

layers.5.running_mean f4 [128]
0.42909467 0.20467621 0.25440404 0.10946367 0.2859367 0.27594844 0.13620466 0.17534736
0.113037676 0.24330482 0.38809878 0.26832312 0.21119972 0.13167723 0.15800868 0.27019355
0.33578706 0.2986956 0.46550694 0.19823734 0.5509163 0.33574438 0.06867773 0.3216764
0.6298349 0.21005383 0.2283983 0.087099105 0.3475733 0.38676608 0.10215329 0.112068705
0.27206466 0.24185319 0.13192068 0.26910657 0.033670552 0.4822764 0.5017783 0.17224413
0.22886151 0.172276 0.11550421 0.7095634 0.22843593 0.32421932 0.17266878 0.13489236
0.11176897 0.07541696 0.10605822 0.33861452 0.11238511 0.43318015 0.13737641 0.15385325
0.2830102 0.1486535 0.3244246 0.19271672 0.30561793 0.064562805 0.21064298 0.024801733
0.12087919 0.13916738 0.3128158 0.23049961 0.2231309 0.28516498 0.0873447 0.2199581
0.22807375 0.07334446 0.34247023 0.43769598 0.47629085 0.29065362 0.2805854 0.24017382
0.33695695 0.070199564 0.13542981 0.26930687 0.21400678 0.16239427 0.28759634 0.6182237
0.1306424 0.17954162 0.22416797 1.1593161 0.17514169 0.14953473 0.27110034 0.13881011
0.42837706 0.2463282 0.1671986 0.1673584 0.45447937 0.057929754 1.4579573 0.16355422
0.11644106 0.22042973 0.106273934 0.07454745 0.2498786 0.48564243 0.14425996 0.12540562
0.13617334 0.5507929 0.21407306 0.08469588 0.1510181 0.10761886 0.099539615 0.18088254
0.38208327 0.08912084 0.3109832 0.20215148 0.2257038 0.09852934 0.1725463 0.08226931
00000000: 4cb2 db3e a496 513e 3f41 823e 7d2e e03d
00000010: 4c66 923e 1d49 8d3e 3c79 0b3e 428e 333e
00000020: 4c80 e73d e624 793e e2b4 c63e a661 893e
00000030: bd44 583e 65d6 063e 07cd 213e cf56 8a3e
00000040: 48ec ab3e a1ee 983e ed56 ee3e bbfe 4a3e
00000050: da08 0d3f b0e6 ab3e e9a6 8c3d c5b2 a43e
00000060: dc3c 213f 5a18 573e 3ee1 693e 0461 b23d
00000070: 21f5 b13e 3406 c63e be35 d13d 4784 e53d
00000080: 0f4c 8b3e 5da8 773e 3716 073e 56c8 893e
00000090: 22ea 093d efec f63e 8b74 003f c460 303e
000000a0: ac5a 6a3e 1f69 303e 798d ec3d f2a5 353f
000000b0: 1ceb 693e 1300 a63e 16d0 303e 3921 0a3e
000000c0: 21e7 e43d 3574 9a3d 0d35 d93d e25e ad3e
000000d0: 2a2a e63d cac9 dd3e 67ac 0c3e b58b 1d3e
000000e0: b7e6 903e a038 183e fb1a a63e 8857 453e
000000f0: f479 9c3e 8139 843d cbb2 573e 012d cb3c
00000100: 828f f73d e581 0e3e 6429 a03e 1708 6c3e
00000110: 6d7c 643e 2501 923e c7e1 b23d b23c 613e
00000120: 2a8c 693e 9f35 963d 4258 af3e b019 e03e
00000130: 65dc f33e 8dd0 943e e4a8 8f3e 20f0 753e
00000140: 9f85 ac3e cac4 8f3d 1dae 0a3e 97e2 893e
00000150: 9824 5b3e af4a 263e d43f 933e e943 1e3f
00000160: 1fc7 053e c2d9 373e 4a8c 653e 7864 943f
00000170: 5858 333e a21f 193e aacd 8a3e 3d24 0e3e
00000180: 3d54 db3e 763d 7c3e 1c36 2b3e 0060 2b3e
00000190: 85b1 e83e c047 6d3d 589e ba3f c27a 273e
000001a0: a778 ee3d 55b8 613e 26a6 d93d 55ac 983d
000001b0: 2de0 7f3e 20a6 f83e e2b8 133e 556a 003e
000001c0: 0671 0b3e c300 0d3f f835 5b3e 0975 ad3d
000001d0: 7da4 1a3e 4767 dc3d 6ddb cb3d 4639 393e
000001e0: 6ba0 c33e fd84 b63d 3139 9f3e cc00 4f3e
000001f0: e61e 673e c0c9 c93d faaf 303e d07c a83d

layers.5.running_var f4 [128]
0.64572585 0.14906639 0.22747514 0.04242257 0.030577995 0.030182287 0.06608491 0.10835592
0.04305408 0.021970462 0.53049177 0.026565528 0.15432298 0.061553713 0.09088124 0.028172012
0.042919267 0.03293729 0.08166462 0.13590646 1.0757709 0.39955992 0.017979877 0.3636598
1.3949798 0.16140364 0.18827045 0.027342688 0.04502953 0.53816605 0.03736139 0.04613181
0.26001438 0.02293696 0.061373126 0.02818184 0.0062172986 0.08969439 0.09419516 0.102976955
0.019754017 0.10651224 0.0052680685 1.7720399 0.019329103 0.3663207 0.10505738 0.066925615
0.045921773 0.019987667 0.040190853 0.043025658 0.04516888 0.071528174 0.06433002 0.086325444
0.029744167 0.012653846 0.0411682 0.13104293 0.03613548 0.015120007 0.01764698 0.003415105
0.049186226 0.07347537 0.34179926 0.19516544 0.017841136 0.28936327 0.011019667 0.16808696
0.01993183 0.019449778 0.048096407 0.07058729 0.08740797 0.031281397 0.031433813 0.023204014
0.042165965 0.017382467 0.007101076 0.029363777 0.16438128 0.09683877 0.03162342 0.14837472
0.062159155 0.013850452 0.18723245 0.5157144 0.1114926 0.08421199 0.027182072 0.064877234
0.07095362 0.22065574 0.010874136 0.010746876 0.7231195 0.012452354 0.80915433 0.09694572
0.059774164 0.16986163 0.040020034 0.019438986 0.21562955 0.09133006 0.07894931 0.0055661844
0.007248653 1.0675054 0.018565733 0.02549411 0.07921861 0.04012215 0.033320148 0.113517374
0.51102984 0.029899763 0.036019344 0.01621907 0.018269101 0.03818309 0.102473 0.026854848
00000000: 4a4e 253f dca4 183e 3eef 683e 4ac3 2d3d
00000010: b47e fa3c d840 f73c 8657 873d b5e9 dd3d
00000020: 7a59 303d 66fb b33c 4fce 073f f39f d93c
00000030: d806 1e3e bf1f 7c3d f21f ba3d fec8 e63c
00000040: 1dcc 2f3d 40e9 063d c83f a73d 102b 0b3e
00000050: dcb2 893f 1e93 cc3e 894a 933c 9e31 ba3e
00000060: b38e b23f ff46 253e f8c9 403e c6fd df3c
00000070: e270 383d 40c5 093f 4208 193d b5f4 3c3d
00000080: 9b20 853e 4be6 bb3c 6362 7b3d 9add e63c
00000090: 7bba cb3b b1b1 b73d 64e9 c03d 95e5 d23d
000000a0: 2dd3 a13c 1723 da3d c39f ac3b 34d2 e23f
000000b0: 1158 9e3c 638e bb3e 5328 d73d 4c10 893d
000000c0: 7818 3c3d 2dbd a33c 2a9f 243d ac3b 303d
000000d0: 0103 393d 5d7d 923d 75bf 833d 65cb b03d
000000e0: 0aaa f33c 1452 4f3c fd9f 283d 1e30 063e
000000f0: cc02 143d e8b9 773c 6690 903c f4cf 5f3b
00000100: 7f77 493d 417a 963d 5000 af3e 73d9 473e
00000110: 9327 923c 6c27 943e d58b 343c fd1e 2c3e
00000120: 1448 a33c 2455 9f3c bd00 453d 1290 903d
00000130: f302 b33d ec20 003d bec0 003d 5816 be3c
00000140: 38b6 2c3d ad65 8e3c 25b0 e83b 4e8c f03c
00000150: 9153 283e 6853 c63d 8f87 013d 8bef 173e
00000160: 999a 7e3d 02ed 623c ddb9 3f3e dc05 043f
00000170: 3b56 e43d 5677 ac3d f0ac de3c 5bde 843d
00000180: 2250 913d 94f3 613e 6f29 323c aa13 303c
00000190: 5c1e 393f f504 4c3c bd24 4f3f 7a8b c63d
000001a0: c1d5 743d 35f0 2d3e 0cec 233d 823e 9f3c
000001b0: fecd 5c3e 410b bb3d 2db0 a13d 8a64 b63b
000001c0: 1c86 ed3b 04a4 883f 2a17 983c 06d9 d03c
000001d0: 5e3d a23d 2057 243d b57a 083d cc7b e83d
000001e0: dad2 023f 59f0 f43c 0589 133d dbdd 843c
000001f0: 15a9 953c df65 1c3d 5ddd d13d b3fe db3c

layers.6.weight f4 [128, 128]
0.05303007 0.041121423 -0.063241795 -0.044204917 -0.06239455 0.043635093 -0.042040717 0.0056165126
-0.028934054 0.08473883 -0.018307222 0.047478672 0.03629251 -0.04437022 -0.09355449 -0.043882854
0.038862534 -0.06041985 0.03551999 -0.06592857 -0.011699629 0.062079165 -0.034932215 -0.05914233
-0.08560134 -0.02822053 0.023471951 -0.080150016 0.0682819 -0.06819557 0.06256805 0.020217886
0.046171434 -0.03988256 -0.067715675 -0.06972236 0.024457335 -0.0070857387 0.02286278 0.0065587168
0.08012175 0.07120536 -0.06929669 -0.0045315656 -0.064519905 0.039700385 0.055355586 0.056912057
-0.07958324 -0.06667504 -0.06928788 -0.065719604 -0.03426833 -0.07363896 -0.060504943 0.07437991
-0.075808756 -0.04353151 -0.04815611 -0.028601054 -0.0435972 0.026284834 0.051668756 -0.0034121622
0.052258763 -0.07144769 0.051787075 0.06947112 0.06483878 -0.01930448 -0.031003758 -0.08655355
0.024651175 -0.045035403 -0.032850802 -0.06550957 0.02969473 -0.016787479 -0.053901047 0.03036918
0.090706855 -0.0047908523 0.08600422 0.031686787 -0.018945547 0.07749058 0.08654263 0.051191367
-0.02724127 -0.0061340504 0.059705738 0.09334917 0.054984953 -0.040533543 0.050943796 -0.08865871
-0.0057812664 -0.080742314 0.002697559 0.06449813 -0.061572354 -0.08702221 -0.029689284 0.03466444
0.08297312 -0.04474386 0.06635524 -0.032568313 0.06861084 0.044951253 0.05910576 -0.046074525
0.019784277 -0.039149836 0.059175365 0.08008777 0.0028042058 -0.075481996 -0.021964835 -0.025946977
-0.0070762825 0.0286646 -0.003233096 0.005400938 -0.061762612 -0.049236305 -0.032845963 -0.06488546
0.03319206 -0.02571343 -0.09174565 -0.04128239 -0.05688808 -0.07895085 -0.08728142 0.080549665
0.025352467 0.044630326 0.052111268 0.024294931 0.04311075 -0.06429901 -0.020602845 -0.040807
-0.012313997 -0.05264322 0.04128208 -0.04763334 -0.08048649 -0.084596 -0.008889604 -0.07336575
-0.07105258 -0.02233222 0.044054456 -0.034563974 -0.043182902 -0.0739627 0.05554379 -0.052264065
-0.045072567 -0.03802368 0.043341342 -0.008300462 -0.022844812 -0.066523515 -0.054990128 -0.085919864
0.07966969 -0.08771217 -0.07472749 0.05435022 -0.011464838 -0.037498794 0.035939988 0.03249522
-0.029250538 0.028460465 -0.003786801 0.036728363 0.0007437097 -0.06544911 -0.026207533 -0.041505054
0.04177383 -0.039696526 -0.07905281 -0.07461379 -0.0022764436 0.042236563 0.0754698 0.04111742
0.045511376 -0.045462895 -0.08075067 -0.058660638 0.06492509 -0.009897669 0.087868474 0.0070890863
0.051221244 0.022993963 0.06749391 0.005567693 0.025335265 0.06641802 0.032139637 0.039756387
-0.07325917 0.046735372 0.04991027 0.0193514 0.02829077 -0.04778186 0.0023218656 0.030502193
-0.061218604 0.05904006 -0.026500745 -0.009329659 0.01551 0.04850704 0.040319923 0.03542507
0.041509718 0.023820609 -0.030872105 -0.047286723 -0.038770497 0.04249053 0.06447107 0.08109666
0.047866642 0.082517095 -0.071618505 -0.008151328 0.047611378 0.022365222 -0.03545037 -0.070781685
-0.029205235 -0.0453544 -0.081576064 0.02309322 0.04436681 0.07134603 -0.033795286 0.0116116395
0.0007961821 0.059499696 0.031886928 -0.0471161 0.06263798 -0.05162 -0.020236196 -0.005363161
00000000: 0f36 593d f06e 283d ea84 81bd 3710 35bd
00000010: 6d91 7fbd b6ba 323d e332 2cbd b90a b83b
00000020: 1c07 edbc 8d8b ad3d 07f9 95bc ff78 423d
00000030: 74a7 143d 8cbd 35bd 7f99 bfbd 82be 33bd
00000040: 522e 1f3d ce7a 77bd 697d 113d 8f05 87bd
00000050: cdaf 3fbc b946 7e3d 1515 0fbd 3a3f 72bd
00000060: c14f afbd be2e e7bc 4048 c03c b125 a4bd
00000070: 61d7 8b3d 1eaa 8bbd ae23 803d fb9f a53c
00000080: 421e 3d3d e55b 23bd 84ae 8abd 99ca 8ebd
00000090: c05a c83c 7c2f e8bb ba4a bb3c 81ea d63b
000000a0: df16 a43d 1ed4 913d 6ceb 8dbd 877d 94bb
000000b0: 0323 84bd df9c 223d 8abc 623d 9e1c 693d
000000c0: 8afc a2bd ec8c 88bd cee6 8dbd 0098 86bd
000000d0: f35c 0cbd 06d0 96bd 08d4 77bd 7f54 983d
000000e0: 9f41 9bbd 194e 32bd 573f 45bd c24c eabc
000000f0: fa92 32bd 4b53 d73c 9ea2 533d 959e 5fbb
00000100: 490d 563d 2b53 92bd af1e 543d e046 8e3d
00000110: 32ca 843d 6e24 9ebc 98fb fdbc fd42 b1bd
00000120: 43f1 c93c 0b77 38bd 908e 06bd e229 86bd
00000130: 5d42 f33c e585 89bc 58c7 5cbd c9c8 f83c
00000140: 84c4 b93d 95fc 9cbb fb22 b03d 01ca 013d
00000150: b133 9bbc 62b3 9e3d 433d b13d 0aae 513d
00000160: 1529 dfbc 2500 c9bb 018e 743d da2d bf3d
00000170: e737 613d 8006 26bd 71aa 503d b392 b5bd
00000180: c770 bdbb 3a5c a5bd 88c9 303b 9817 843d
00000190: 4b33 7cbd b338 b2bd f136 f3bc 4dfc 0d3d
000001a0: d0ed a93d 5645 37bd 42e5 873d 5a66 05bd
000001b0: d783 8c3d ce1e 383d e218 723d a4b8 3cbd
000001c0: a312 a23c 945b 20bd de61 723d 0f05 a43d
000001d0: c4c6 373b 4e96 9abd 99ef b3bc c18e d4bc
000001e0: 29e0 e7bb 06d2 ea3c 5ae2 53bb 5afa b03b
000001f0: cbfa 7cbd 02ac 49bd 7d89 06bd abe2 84bd
00000200: 66f4 073d f9a4 d2bc 25e5 bbbd b917 29bd
00000210: 7a03 69bd fcb0 a1bd 9ac0 b2bd 39f7 a43d
00000220: faaf cf3c 4ace 363d a072 553d 2a06 c73c
00000230: e694 303d 33af 83bd 4cc7 a8bc 3e25 27bd
00000240: a6c0 49bc 6ba0 57bd 6617 293d 2d1b 43bd
00000250: 1ad6 a4bd ab40 adbd b4a5 11bc c840 96bd
00000260: 0484 91bd 0ff2 b6bc 7272 343d f492 0dbd
00000270: 8ee0 30bd c279 97bd e381 633d d812 56bd
00000280: 039e 38bd b8be 1bbd b186 313d a9fe 07bc
00000290: 0b25 bbbc 7b3d 88bd 543d 61bd c1f6 afbd
000002a0: dd29 a33d 70a2 b3bd ba0a 99bd 569e 5e3d
000002b0: 04d7 3bbc 5698 19bd cf35 133d b519 053d
000002c0: d39e efbc ec25 e93c fa2b 78bb 7b70 163d
000002d0: 83f5 423a 2f0a 86bd 2eb1 d6bc 3401 2abd
000002e0: 091b 2b3d d398 22bd 71e6 a1bd 1dcf 98bd
000002f0: 6330 15bb 3f00 2d3d e98f 9a3d bd6a 283d
00000300: 236a 3a3d 4d37 3abd 9b60 a5bd 2346 70bd
00000310: 72f7 843d d529 22bc 63f4 b33d 914b e83b
00000320: 5ecd 513d d65d bc3c 3f3a 8a3d 3271 b63b
00000330: e78b cf3c 2c06 883d daa4 033d 98d7 223d
00000340: e708 96bd 976d 3f3d b66e 4c3d d486 9e3c
00000350: 0bc2 e73c e9b6 43bd 712a 183b bcdf f93c
00000360: 5cc0 7abd fdd3 713d 1718 d9bc 6ddb 18bc
00000370: a81d 7e3c 51af 463d 8126 253d e119 113d
00000380: 1806 2a3d 7023 c33c 7fe7 fcbc b9af 41bd
00000390: d0cd 1ebd 8d0a 2e3d 6909 843d 0116 a63d
000003a0: d00f 443d b9fe a83d b9ac 92bd 268d 05bc
000003b0: 2604 433d 4537 b73c 6834 11bd fdf5 90bd
000003c0: d13f efbc 89c5 39bd 5a11 a7bd fe2d bd3c
000003d0: f9b9 353d de1d 923d ed6c 0abd bf3e 3e3c
000003e0: e0b6 503a f4b5 733d de9b 023d d0fc 40bd
000003f0: 5748 803d 7e6f 53bd 61c6 a5bc 75bd afbb
