model/trained_model.pth (torch, 8203 bytes, 7 tensors)

layers.0.weight f4 [128, 5]
000000 00 74 8f 3e 4a d9 ce 3e f0 41 d6 3e f2 3a 37 be
       0.28018188 0.40400153 0.4184718 -0.1789358
000010 ac ce 96 3d 1a c2 db bd 90 bc 55 bd 66 ef 4d 3e
       0.07363638 -0.10730381 -0.05218178 0.20110855
000020 08 22 ab be 93 45 47 3d ed 46 b7 be 09 4b df 3e
       -0.334244 0.048650336 -0.357963 0.43611935
000030 f4 9d c2 be e8 eb 31 3e e3 98 06 be d1 36 23 be
       -0.38011134 0.17375147 -0.13144259 -0.1593888
000040 3f 45 af bd 42 f0 1d be 2c 05 30 be 88 c5 bd be
       -0.085581295 -0.15423682 -0.17189473 -0.37064767
000050 53 a8 ae 3e af b7 8b 3e e3 7f f3 bd f4 59 b5 bd
       0.34112796 0.27288577 -0.11889627 -0.08855048
000060 02 bb 96 3e 82 a4 7d bd a9 63 c0 bd 6c b0 d8 3e
       0.2943955 -0.061924465 -0.09394009 0.423221
000070 ea 00 59 be 9f d6 d3 be 18 fe 3e be 25 db 26 3e
       -0.21191755 -0.4137468 -0.18651617 0.16294535
000080 bc 86 e5 bd 7a 3c 05 be 6e 8c 28 be d7 a2 35 3e
       -0.11207339 -0.13011351 -0.1645982 0.177379
000090 1d 5d 10 be 54 9a af be 3d 16 26 3e 27 85 a5 be
       -0.1409802 -0.3429743 0.1621942 -0.3232815
0000a0 e8 37 91 be 5f 88 aa 3e 02 3c ce be 93 70 d2 3d
       -0.28362966 0.33307168 -0.40280157 0.10275378
0000b0 4c e3 95 bc e1 2b bd 3e 1f 69 da bd af 24 70 be
       -0.01829686 0.3694754 -0.106645815 -0.23451494
0000c0 ec 41 68 be 84 70 f3 bb 76 1e ec bd d2 96 83 3e
       -0.22681397 -0.0074291844 -0.115292475 0.25701004
0000d0 87 7a 2c be 98 80 1d 3e 5d ea 84 be 88 5a 7a 3d
       -0.16843615 0.15381086 -0.25960055 0.061121494
0000e0 d8 92 81 bd 9d 1c 01 3f b2 52 5f 3e c0 18 28 be
       -0.06326836 0.50434285 0.2180889 -0.16415691
0000f0 86 6e 55 be 8c 1d f2 bd 14 fe 01 3f 49 6b b5 3e
       -0.20842943 -0.11822042 0.5077832 0.35433415
000100 0c 73 3a bd 63 43 44 3e 5a 30 9b 3e dc 72 63 bd
       -0.045519873 0.19166331 0.30310327 -0.05552946
000110 c1 8b 6f 3e e8 15 1c bd ce 1d 80 3d 73 4b 4a be
       0.23393156 -0.03810683 0.06255685 -0.19755344
000120 9d da cc bc 0c a9 35 be e6 44 8d be ea da 99 3f
       -0.025006587 -0.17740268 -0.27591628 1.2019932
000130 e1 9a c6 3f 22 bb ff 3f ce 18 d3 bd 14 2e ea 3b
       1.5516015 1.9978983 -0.103074655 0.007146606
000140 e4 23 ea bd 6d a5 8d 3e 04 d8 4f be b0 de de be
       -0.11432627 0.27665272 -0.20297247 -0.43529272
000150 fe df 65 be fe 2c 89 bd c4 24 6c be be b0 0f 3e
       -0.22448727 -0.06698035 -0.230609 0.14032266
000160 12 df 6d 3e a1 52 2f bd 26 24 c6 3d 51 ed dc be
       0.23229626 -0.04280341 0.096748635 -0.43149808
000170 75 ee c2 be 6e 4c 45 bc 88 cb 86 3e cd 35 a1 3e
       -0.38072553 -0.012042148 0.26327157 0.3148636
000180 c7 28 c2 be 80 2c 1a 3d d5 36 34 be ba 93 d6 be
       -0.37921736 0.037640095 -0.17599042 -0.4190958
000190 74 5d 08 3e 72 b9 98 3e 77 19 5a be f5 b8 d2 be
       0.133169 0.29828984 -0.21298777 -0.41156736
0001a0 79 54 8f 3e d8 7d 97 bd 4a 05 c3 3e f5 1e 2e 3e
       0.27994135 -0.0739705 0.38089973 0.17003997
0001b0 6b 49 98 3e a5 a0 a0 3d 00 23 64 3c 16 8f 1f be
       0.29743513 0.078431405 0.01392436 -0.15581927
0001c0 b7 3c 8b be b5 30 3c be 30 e4 9e 3d 7e 79 0b be
       -0.2719476 -0.18377955 0.07758367 -0.13620564
0001d0 e4 3a 33 be 8d 19 bf 3d 4a 79 d4 3e 38 06 d1 bc
       -0.17502934 0.09331045 0.41498786 -0.02551566
0001e0 4d f8 dd 3d de f6 d1 be 40 da 97 3e 2c f5 83 3c
       0.10838375 -0.41008657 0.296587 0.016108118
0001f0 eb 18 99 be 1b 5c a4 3e 92 b4 15 be 97 c1 c3 be
       -0.29901823 0.3210152 -0.14619663 -0.38233635
000200 c7 6e a1 be fe a6 82 bd 2d 57 18 3e 15 73 ab be
       -0.3152983 -0.063795075 0.14877005 -0.33486238
000210 a7 53 53 3d 80 ab 27 3e 86 6d 5d be 82 21 d9 3e
       0.05159345 0.16374016 -0.21623811 0.42408377
000220 dc 41 e2 be 48 47 cf be d3 45 b7 bd c9 2f 16 3e
       -0.44190872 -0.4048407 -0.08948865 0.14666666
000230 53 c0 d5 be 4e 41 88 be 65 cb 2c be 55 cc f9 bd
       -0.41748294 -0.26612324 -0.16874464 -0.12197176
000240 84 68 5f 3e 54 00 91 3e de 88 03 bd b8 33 ad be
       0.21817213 0.28320563 -0.03211295 -0.3382852
000250 4a 67 36 be c0 8b e4 3a e4 01 76 be c3 27 3b be
       -0.17812839 0.0017436668 -0.24024159 -0.18276887
000260 62 40 e5 be 30 0f 74 3e d3 a0 e6 3e 2d d0 a6 3d
       -0.44775683 0.23833919 0.45044574 0.08145175
000270 1b b2 7d be 6d a0 b1 3e 71 a0 c9 be 47 80 55 be
       -0.24774973 0.34692708 -0.3938022 -0.20849715
000280 79 8f a6 3e a3 06 4c 3d 69 c2 01 bf 1f 65 11 3c
       0.32531336 0.049811017 -0.5068727 0.008874207
000290 a9 55 eb bd 40 51 a7 3d 1d 62 b6 be f5 94 a6 3c
       -0.11490948 0.08169794 -0.3562173 0.0203347
0002a0 a5 92 a2 3c c1 fc 55 3e 2d c9 89 3e 4a 96 4d bd
       0.019845316 0.20897199 0.26911297 -0.050192155
0002b0 aa f6 dd be 3c 25 e9 be d4 80 1b 3d 8e 38 5d 3e
       -0.43352252 -0.4553622 0.037964657 0.21603605
0002c0 94 d6 af 3e 10 e9 90 be 19 c5 7d be e2 46 99 3e
       0.34343398 -0.28302813 -0.24782218 0.29936892
0002d0 0a 58 39 be 67 c7 cf bc 4d e5 cc be 21 58 3c be
       -0.1809999 -0.025363637 -0.40018693 -0.18392994
0002e0 0e fc 68 bc 37 40 64 3e 58 ed 9a be 1f 1c c4 3d
       -0.014220251 0.22290121 -0.30259204 0.09575676
0002f0 ad 17 ba bd a1 56 4a 3e 03 16 bd 3e 48 df a2 bd
       -0.09086547 0.19759609 0.36930856 -0.07952744
000300 a5 04 c7 be 8d 11 38 bd c4 6a fb ba 84 25 64 be
       -0.3887073 -0.044938613 -0.0019181599 -0.22279936
000310 3f 4f cc 3e 5f b9 6f be a3 14 42 3d 94 96 be be
       0.3990421 -0.23410557 0.047382962 -0.37224257
000320 f1 ac de 3e b7 f8 98 3e 49 22 9e 3d 00 1d 19 bc
       0.4349132 0.29877254 0.07721383 -0.009345293
000330 99 69 4b 3e 94 b6 bc bd ad d0 3e be ff ec 12 3f
       0.19864501 -0.092145115 -0.18634291 0.5739288
000340 11 57 be 3e 17 47 fa bd 55 83 d3 3d 4d 81 6b 3e
       0.371758 -0.122205906 0.10327784 0.22998543
000350 8d 9f bd bd 03 bb 02 3e 0c 6e a5 3e 22 96 d4 3e
       -0.092589475 0.12766652 0.32310522 0.41520792
000360 80 79 0c be b3 17 18 3e 58 95 d8 be bc 95 a1 be
       -0.13718224 0.1485279 -0.4230144 -0.3155955
000370 ed fa df bd 65 e7 99 3e 68 65 81 be 80 c3 cb 3e
       -0.10936532 0.30059353 -0.2527268 0.39797592
000380 7a 95 99 3e d3 9e 98 3e 70 21 52 be a8 78 ab 3e
       0.29996854 0.29808673 -0.20520568 0.3349049
000390 72 05 9e be 00 0b d0 be 30 5e 62 3e 14 22 a0 bd
       -0.3086353 -0.40633392 0.22106242 -0.07819
0003a0 f9 37 22 3d 31 e3 df be 08 99 93 3d d2 92 15 3e
       0.03960416 -0.4372802 0.07206923 0.14606789
0003b0 13 5a e3 3e ca 1e ab be 26 1a 90 3e 12 53 c4 3e
       0.4440466 -0.33421928 0.2814495 0.38344628
0003c0 9e 48 bd be e0 84 a2 be c1 98 c0 be e9 69 74 3e
       -0.36969465 -0.31742 -0.37616542 0.23868527
0003d0 c9 19 a9 3d ac 3e ab 3d c5 1f a8 be ca 64 20 be
       0.08256871 0.08361563 -0.32836738 -0.15663448
0003e0 aa d8 8a be 08 f2 04 3d 0a a0 04 bd ab d9 9a be
       -0.27118427 0.03245738 -0.032379188 -0.30244192
0003f0 dc a4 89 3e e9 f1 ad 3e 10 9a d7 3c e2 df 45 3e
       0.2688359 0.33973625 0.02631858 0.19323686

layers.0.bias f4 [128]
000000 f8 b0 fb 3c 92 d3 a5 be 09 41 cf 3e 34 65 d3 be
       0.030724034 -0.32387978 0.40479305 -0.4128815
000010 49 f8 73 3d a2 80 e7 bc a1 98 c1 be e6 ba 34 be
       0.059562955 -0.02825958 -0.3781176 -0.17649421
000020 2d 9e fc bd f3 77 90 3e 59 54 d8 bd 2b 0c 0c be
       -0.12334857 0.28216514 -0.10562963 -0.13676517
000030 3b 85 91 3e 5e 8f b3 3e ba c0 80 3e 53 20 b9 3e
       0.2842196 0.35070318 0.2514704 0.36157474
000040 5a ba c0 3e 81 92 81 3e ff ff 47 be 2a a8 d8 be
       0.37642175 0.25307086 -0.19531249 -0.423158
000050 c2 2e 26 3e 37 e7 e8 3d 81 bb 5b bb a9 73 90 be
       0.16228774 0.11372226 -0.003352851 -0.28213242
000060 ab ac a8 3e ab e7 cc bd c6 ac cb 3e 81 5a 60 be
       0.32944235 -0.10005125 0.39780253 -0.21909525
000070 df 6a b1 bd 25 15 9a 3d 1a 5c b8 3e 4b 52 ba be
       -0.08662962 0.07523564 0.36007768 -0.3639091
000080 70 35 95 3d b9 e6 93 be a9 85 dc bc 22 59 0a be
       0.07285583 -0.28886965 -0.026919203 -0.13510564
000090 95 67 a0 be 71 a9 70 be 51 6c ae 3e 84 d7 2d be
       -0.31329027 -0.23502137 0.34067014 -0.16976744
0000a0 b7 bb d6 be e5 7f 67 be 26 72 b2 3e aa bb 25 3e
       -0.4194009 -0.22607382 0.34852713 0.1618487
0000b0 7a 6d 85 3d 2a 1c e0 bd 6a ea a1 be bb 58 78 be
       0.065150216 -0.10942872 -0.31624156 -0.24252598
0000c0 52 00 ba be 57 a6 3d 3e 9a 32 9e be 25 38 86 be
       -0.3632837 0.18520485 -0.3089798 -0.2621471
0000d0 04 96 c8 3e 05 18 84 3e 17 53 43 be d8 b9 d7 bd
       0.39176953 0.25799575 -0.19074665 -0.10533494
0000e0 84 ad 96 bc 05 8d e2 3e 53 b3 2f be 3f fb ce be
       -0.018393286 0.44248214 -0.1715825 -0.4042606
0000f0 b8 55 dd be 14 19 15 bd 7b 45 7e 3e d0 6c ce be
       -0.4322946 -0.03640087 0.24831192 -0.40317392
000100 47 81 ce 3e 95 91 ce 3e 89 a4 59 be e9 7c c7 3e
       0.40333006 0.40345445 -0.21254171 0.38962486
000110 8b 08 ec 3d 36 12 17 3e b4 da be be 58 57 4d 3d
       0.11525067 0.1475304 -0.37276232 0.050132126
000120 64 94 12 3e 96 df d6 3e 69 38 60 3d 93 d8 b8 3e
       0.14314419 0.41967458 0.054741297 0.36102733
000130 cb 99 75 be 53 cb 93 3e f7 2f 21 be 91 93 12 bd
       -0.23984449 0.28866062 -0.15740953 -0.03578526
000140 d7 ee cc 3e 9f 6e cb bc e5 98 0a be 4d 00 ba be
       0.4002597 -0.024833022 -0.13534887 -0.36328354
000150 7e af 5a 3d 50 0d 6d 3e be 2d a5 3e e9 5f 3d be
       0.05339002 0.2314961 0.3226146 -0.18493618
000160 5a 59 ba be cb 25 ad be 94 61 c0 be 06 c8 0c bd
       -0.36396295 -0.33817896 -0.37574446 -0.034370445
000170 5e 77 0f 3e 38 63 62 be a3 a3 b6 3d a9 59 6c 3e
       0.14010379 -0.22108161 0.0891793 0.23081078
000180 fe 70 76 be 9e 7d f5 3d 3a a8 7c 3e 40 df dd 3e
       -0.2406654 0.1198685 0.24673548 0.4333439
000190 8c 65 b0 3e 36 12 18 3e b5 ba 0f 3e 8d 34 5a be
       0.34452474 0.14850697 0.14036067 -0.21309109
0001a0 d2 40 40 be 35 95 6d be f7 d5 8a be 1a 91 fe 3d
       -0.18774727 -0.23201449 -0.27116367 0.1243002
0001b0 c0 06 cb be 17 be 19 3e 13 c0 9b bd e6 d8 95 3e
       -0.39653587 0.1501392 -0.076049946 0.29267043
0001c0 8c 5e dd 3d fe 25 50 3e 1f d9 ab bd ef 6d f6 3d
       0.10809049 0.20326993 -0.08391022 0.12032687
0001d0 2d b4 2f 3e d2 10 b3 bd ee 5e fa bd ff 1e a2 3e
       0.17158575 -0.087434426 -0.12225138 0.31664273
0001e0 c3 29 9e be e8 1b a7 3e 66 69 8b be ff bb fe bd
       -0.30891237 0.32638478 -0.2722885 -0.12438201
0001f0 4a 03 41 bc 0c b6 c9 bd 16 ce 64 bc ad 05 5d be
       -0.011780569 -0.09849176 -0.01396515 -0.21584196

layers.2.weight f4 [128]
000000 15 ad 80 3f e5 bd 82 3f 8e fd 7f 3f 00 00 80 3f
       1.005282 1.0214201 0.9999627 1.0
000010 8f 40 7e 3f 00 00 80 3f 59 e1 81 3f c0 27 80 3f
       0.9931726 1.0 1.0146896 1.0012131
000020 27 ad 81 3f 11 cb 80 3f c6 01 80 3f 4b 6b 86 3f
       1.0130967 1.0061971 1.0000541 1.0501493
000030 aa 5e 85 3f d3 3f 80 3f a4 16 80 3f 4f f5 0d 40
       1.0419514 1.0019478 1.0006909 2.2180974
000040 33 95 88 3f 0f bb 7f 3f fe 05 80 3f 00 00 80 3f
       1.0670532 0.99894804 1.0001829 1.0
000050 50 53 80 3f 0c a6 7f 3f c6 d9 7f 3f 90 e6 80 3f
       1.0025425 0.9986274 0.9994167 1.0070362
000060 8a 01 7f 3f 00 00 80 3f 36 c7 7f 3f b9 0b 80 3f
       0.99611723 1.0 0.99913347 1.0003577
000070 db 06 80 3f 0b c6 84 3f 28 54 7f 3f 00 00 80 3f
       1.0002092 1.0372938 0.9973779 1.0
000080 f7 e7 82 3f 03 f4 7d 3f 4c fe 8c 3f 90 0d 81 3f
       1.022704 0.9920046 1.1015105 1.0082264
000090 f0 59 82 3f bb 81 7f 3f 0a 32 7f 3f c1 95 82 3f
       1.0183697 0.9980733 0.9968573 1.0201951
0000a0 c7 d6 7f 3f 01 5f 89 3f ed e3 7e 3f 3e 9a 7f 3f
       0.999371 1.0732118 0.9956654 0.9984473
0000b0 9e 02 7f 3f 00 00 80 3f cc 05 80 3f 58 cb 7e 3f
       0.9961337 1.0 1.0001769 0.9952903
0000c0 e5 03 80 3f 40 9d 80 3f a3 05 82 3f 6d 4a 83 3f
       1.0001189 1.0047989 1.015797 1.0257088
0000d0 68 26 82 3f ae 8b 88 3f 00 00 80 3f 01 0f 8e 3f
       1.0167971 1.0667627 1.0 1.1098329
0000e0 00 00 80 3f 3c cc 7e 3f 54 bf 81 3f 1d 2a 7e 3f
       1.0 0.99530387 1.0136514 0.9928301
0000f0 f8 2e 80 3f 48 9a 7f 3f ae b4 86 3f f6 7d 7f 3f
       1.0014334 0.9984479 1.0523889 0.99801576
000100 0b f2 7e 3f b7 8c b6 3f eb 37 85 3f d8 be 80 3f
       0.9958808 1.4261693 1.040769 1.0058241
000110 2f 09 81 3f 36 9c 82 3f 9b ea 7e 3f 89 66 7e 3f
       1.0080928 1.0203922 0.9957673 0.99375206
000120 9e 23 80 3f 89 fe 7e 3f 1e 66 81 3f 13 9e 7e 3f
       1.001087 0.9960714 1.0109289 0.9945995
000130 cf 87 7f 3f 0d 3a 85 3f 00 00 80 3f 00 00 80 3f
       0.998166 1.0408341 1.0 1.0
000140 70 60 7e 3f d3 04 81 3f 55 fd 7f 3f a5 75 84 3f
       0.993659 1.0079597 0.9999593 1.0348402
000150 f5 21 7f 3f fc 9c 8b 3f f2 2d 82 3f 00 00 80 3f
       0.9966119 1.0907283 1.0170271 1.0
000160 a1 e1 8e 3f 00 00 80 3f eb e9 7f 3f c2 03 7f 3f
       1.1162606 1.0 0.99966305 0.9961511
000170 f3 ab 7e 3f c3 a8 82 3f 85 aa 80 3f c9 68 83 3f
       0.99481124 1.0207752 1.0052038 1.0266353
000180 e9 43 80 3f 41 f2 7e 3f 89 7f 80 3f d0 73 7f 3f
       1.0020725 0.995884 1.0038921 0.9978609
000190 82 50 7f 3f 5b ce 82 3f 16 e7 80 3f 1c 0d 82 3f
       0.9973222 1.0219225 1.0070522 1.0160251
0001a0 54 c1 82 3f 2a b8 8b 3f 89 9d 83 3f 77 7f 81 3f
       1.0215249 1.0915577 1.0282451 1.0117024
0001b0 00 00 80 3f 37 fe 7e 3f c9 a3 83 3f 80 b2 7e 3f
       1.0 0.9960665 1.0284358 0.9949112
0001c0 87 a7 82 3f 8c 46 81 3f 63 cf 7f 3f e6 5a 7f 3f
       1.0207375 1.0099654 0.9992582 0.99748075
0001d0 8d fa 7e 3f 5e 36 81 3f df da 7e 3f 78 1e 7f 3f
       0.9960106 1.0094717 0.9955272 0.99655867
0001e0 b2 49 83 3f e0 04 83 3f 23 8e 80 3f 3a 00 80 3f
       1.0256865 1.0235863 1.0043377 1.0000069
0001f0 00 00 80 3f 3e dc 7f 3f 1c 1b 81 3f cd 48 80 3f
       1.0 0.9994544 1.0086398 1.0022217

layers.2.bias f4 [128]
000000 2a 6e 84 3d 76 85 fe 3c 11 39 de 3c b9 15 4a 3c
       0.064663246 0.031069499 0.02712682 0.012334281
000010 44 22 8c 3d ba 3b fd 3b 5a 98 4b 3d 46 2b 1d 3c
       0.06842473 0.007728067 0.04970584 0.009592837
000020 fd 3d d5 bc dd ca 82 3c 15 c9 71 3c 80 88 05 3c
       -0.026030535 0.015965873 0.014757414 0.00815022
000030 bf 22 3a 3d 77 58 7b 3c 0b 2a 8f bd af f9 cd 3d
       0.045443293 0.015340916 -0.06990441 0.10057389
000040 1e 1a 95 bc 05 a6 08 3d de 8b 72 bd 5e 64 24 3d
       -0.01820093 0.033361454 -0.05921542 0.04013478
000050 41 50 42 3d 93 ba 8f bc fe ed db bc fa 36 6a 3d
       0.047439817 -0.01754502 -0.026846882 0.057181336
000060 b3 72 e1 3c 11 31 69 bd 1e b9 6c 3c 6a fc db bb
       0.027520513 -0.05693156 0.014448432 -0.0067134397
000070 6b 66 21 ba 7a aa ba bc cf 2e 60 3b 19 52 c7 bb
       -0.0006156924 -0.022786368 0.0034207588 -0.006082785
000080 2d 74 be 3b cf 43 a7 3d 41 fc 31 3d 40 e1 a8 bc
       0.005812189 0.0816723 0.04345346 -0.02061522
000090 14 f0 35 3d 83 db 12 3d 9f ad 63 3c 2a f0 ce bc
       0.04441841 0.035853874 0.013896375 -0.025261004
0000a0 b0 ae 71 bb d3 78 fd 3c c6 18 82 3d a7 cd 43 bc
       -0.0036877804 0.030941403 0.063523814 -0.011950887
0000b0 a6 d3 71 3c 23 a5 75 3d e5 10 6b ba 10 98 47 bc
       0.014759934 0.05997194 -0.0008967056 -0.012182251
0000c0 dd 5d 91 ba 83 d7 07 bd 25 cb 22 3d 0f 25 14 3d
       -0.0011090596 -0.033164512 0.039744515 0.036168154
0000d0 42 b2 30 bd 6a a0 fb 3c 64 2f c1 bc 3e d2 9c 3c
       -0.04313875 0.03071614 -0.023582168 0.01914322
0000e0 db 38 6c 3d 29 95 d7 3c 89 83 06 bc 8d d7 27 bd
       0.05767141 0.026316242 -0.008210071 -0.04097705
0000f0 e4 d0 00 3c 11 77 0e 3d a5 14 1c bd c2 9a c9 3c
       0.007862303 0.03478152 -0.038105626 0.024609927
000100 1e 46 e6 bb fd df dd bc 13 f9 d1 bc 56 1a 35 bd
       -0.0070274016 -0.027084345 -0.025631463 -0.04421457
000110 f2 ac 61 bd a0 65 8a bd 71 b3 90 3c ac 4e 37 3d
       -0.055096574 -0.06757665 0.01766369 0.04475276
000120 5a 97 65 3c 14 5b da 39 84 61 66 bd ab 33 31 3d
       0.014013136 0.0004164806 -0.056245342 0.043262165
000130 70 0c 05 3d 1e db 1a 3d d4 08 d3 bc 1d a1 ca 3c
       0.032482564 0.037806623 -0.025761046 0.024735028
000140 3a 53 3e 3d a0 e9 03 3d a3 10 12 bc fa 52 b1 bc
       0.04646609 0.032205224 -0.008915099 -0.021646012
000150 95 c9 2a bd 75 c8 1e bb 7b 7d 05 3e a9 12 0a bc
       -0.04169615 -0.0024228368 0.13036148 -0.0084273005
000160 c4 a4 ad 3d ad f0 57 bd d3 10 2a bd 55 38 a0 3d
       0.08478692 -0.05271976 -0.04151995 0.078232445
000170 96 6e 5c 3d f3 32 8a bc 5e 9f 0a bd f5 25 28 3d
       0.0538164 -0.016869998 -0.03384339 0.041051824
000180 8a b3 00 3d 0f b1 33 3d 61 1f f8 bc cc 46 7f 3d
       0.03142122 0.043870028 -0.0302884 0.062323377
000190 f8 7e 83 bc ca 41 8f 3d 1b 9c 83 bd 69 68 1b 3d
       -0.016051754 0.0699497 -0.06426259 0.03794137
0001a0 de 42 da 3c 0a 4f 46 bc ad 67 fd bc 9f 21 b2 bb
       0.026643213 -0.012103805 -0.030933226 -0.005436137
0001b0 7b c0 d4 3c 08 87 10 3d 88 65 7f 3d 76 5a 0e 3d
       0.025970688 0.035285026 0.062352687 0.03475424
0001c0 18 e7 46 3d a2 75 98 ba f1 77 1a 3d 75 23 6f 3c
       0.048560232 -0.0011631737 0.03771204 0.014595856
0001d0 8f 35 8c bd 16 f1 9c 3b 0c 29 2e 3d 33 e7 1a 3d
       -0.06846153 0.004789482 0.042519614 0.037818145
0001e0 7a 44 98 bc e1 30 2a bd 0f 5e 22 3d d7 d7 00 bd
       -0.01858734 -0.04155052 0.039640483 -0.03145584
0001f0 01 a8 b1 3c 58 8c b0 3c ae a1 4e 3d 61 f5 64 3c
       0.021686556 0.021551296 0.05044716 0.0139745185

layers.2.running_mean f4 [128]
000000 98 70 2d 41 04 00 00 00 d7 07 40 41 00 00 00 00
       10.839989 6e-45 12.001914 0.0
000010 bb 0b eb 40 00 00 00 00 b5 58 86 40 04 00 00 00
       7.345182 0.0 4.1983285 6e-45
000020 1b ec 0c 41 9b 5b 35 3e f4 a9 d9 40 a8 cd 34 2a
       8.807643 0.17710726 6.801996 1.6058563e-13
000030 a3 ac 36 3e 9e 06 07 41 05 f4 20 3e e5 a4 27 42
       0.17839293 8.439116 0.15718086 41.91103
000040 68 d6 f7 40 e1 ce 21 3e d6 73 a0 0e 00 00 00 00
       7.7449226 0.15801574 3.955459e-30 0.0
000050 86 cd 01 41 be 6f 24 41 4c c1 bc 0b 8d 5e 93 0c
       8.112677 10.277281 7.2705807e-32 2.2705842e-31
000060 07 80 52 3e 00 00 00 00 f3 86 7e 3e ec cc 04 0d
       0.20556651 0.0 0.24856167 4.0922306e-31
000070 15 18 a7 0e c0 e6 40 3d 87 17 67 3e 00 00 00 00
       4.119187e-30 0.04709506 0.22567569 0.0
000080 03 25 c1 3f de 0b 83 0e 04 00 00 00 03 a8 11 41
       1.508942 3.230542e-30 6e-45 9.1035185
000090 04 00 00 00 82 a2 61 0e cd 65 5b 3e e0 ef 28 41
       6e-45 2.7811636e-30 0.21425553 10.558563
0000a0 a4 ae fa 40 04 00 00 00 11 64 cf 40 57 11 cf 3d
       7.8338184 6e-45 6.480965 0.10110729
0000b0 5e 03 01 41 00 00 00 00 04 00 00 00 d4 d5 3b 41
       8.063322 0.0 6e-45 11.739704
0000c0 68 c3 6b 0d 7d ad ec 3d 67 ec 1a 0d 04 00 00 00
       7.2650178e-31 0.11556528 4.7739473e-31 6e-45
0000d0 64 61 5d 40 45 2d 25 3e 00 00 00 00 57 63 a0 41
       3.4590693 0.1613055 0.0 20.048506
0000e0 00 00 00 00 00 d9 d4 40 04 00 00 00 2e b8 91 40
       0.0 6.6514893 6e-45 4.553733
0000f0 04 00 00 00 04 00 00 00 20 3a 1f 3e 65 3e e6 40
       6e-45 6e-45 0.15549517 7.1951165
000100 bc 75 18 41 56 a6 8e 41 82 10 80 40 4d f4 78 3e
       9.528744 17.831219 4.002015 0.24311943
000110 8b 49 93 3d 3b 89 bc 3d a8 01 cf 40 a5 21 00 3d
       0.071917616 0.09205862 6.468952 0.031282086
000120 c6 ec b6 3d 69 d6 0c 41 ab c8 0b 3d 07 71 67 3e
       0.0893188 8.802346 0.03412692 0.2260171
000130 cc 09 7d 0e 18 62 39 3e 00 00 00 00 00 00 00 00
       3.1189375e-30 0.18103826 0.0 0.0
000140 28 19 80 3e 0c 2f 13 41 a9 f1 b9 0e 04 00 00 00
       0.25019193 9.198986 4.583873e-30 6e-45
000150 99 7d 08 3d e2 d1 5f 40 6f 4a 4f 3e 00 00 00 00
       0.033322904 3.4971852 0.20243238 0.0
000160 04 00 00 00 00 00 00 00 bd d2 ca 40 6c fa 25 41
       6e-45 0.0 6.338225 10.373638
000170 48 5d b3 3d 18 ed 06 41 76 cf c5 40 02 c5 13 3e
       0.08758026 8.432884 6.181575 0.14430621
000180 04 00 00 00 91 2e 99 3d 6d 2c d7 40 6a ad b9 40
       6e-45 0.07479585 6.724173 5.8024187
000190 1a 11 5d 3e 70 a8 3c 40 7b 5f b3 3d c7 d2 c4 40
       0.21588555 2.9477806 0.08758446 6.1507297
0001a0 62 cf 0a 41 a6 48 a5 40 d6 84 8b 40 26 01 1e 41
       8.675631 5.165118 4.3599653 9.87528
0001b0 00 00 00 00 55 dd bf 3d 6c 20 e4 42 f1 02 15 41
       0.0 0.093683876 114.063324 9.313218
0001c0 e2 1e 8a 3d 6c e1 01 3e 04 00 00 00 ed c4 99 3d
       0.06744172 0.12683648 6e-45 0.07508264
0001d0 fb 45 db 3d da ed 0b 41 75 67 27 41 58 52 4a 3e
       0.10706707 8.745569 10.462758 0.19757974
0001e0 04 00 00 00 ec 18 26 40 0d d2 1d 41 04 00 00 00
       6e-45 2.595271 9.863782 6e-45
0001f0 00 00 00 00 04 00 00 00 31 89 94 40 66 d6 71 40
       0.0 6e-45 4.641747 3.7787108

layers.2.running_var f4 [128]
000000 41 38 75 43 04 00 00 00 93 82 8d 43 04 00 00 00
       245.21974 6e-45 283.0201 6e-45
000010 9b fa de 42 04 00 00 00 32 65 16 42 04 00 00 00
       111.48946 6e-45 37.598824 6e-45
000020 12 a9 23 43 45 69 97 3c 21 1c c3 42 36 c5 d8 2a
       163.66043 0.018482814 97.55494 3.850615e-13
000030 58 d2 99 3c 23 71 09 43 13 ce 71 3c ac 65 62 45
       0.018777058 137.44194 0.014758605 3622.3545
000040 a1 68 e4 42 36 a1 75 3c 79 7c 8f 0f 04 00 00 00
       114.20435 0.014992049 1.4148834e-29 6e-45
000050 43 de 04 43 1c 08 59 43 36 7b 81 0a 69 3c d4 0b
       132.86821 217.03168 1.2468595e-32 8.1750325e-32
000060 9d b1 d0 3c 04 00 00 00 a9 80 17 3d 7e 6a 87 0c
       0.025475318 6e-45 0.036987934 2.0864136e-31
000070 2e 74 6e 0f d9 84 ab 3a 9a 16 f7 3c 04 00 00 00
       1.1756681e-29 0.0013085856 0.030162144 6e-45
000080 b3 6d 8c 40 01 94 4d 0f 04 00 00 00 dc 9b 2e 43
       4.388391 1.0135785e-29 6e-45 174.60883
000090 04 00 00 00 2f ca 15 0f 81 b2 dc 3c 1e 17 6b 43
       6e-45 7.385206e-30 0.026940586 235.0903
0000a0 31 de 01 43 04 00 00 00 a6 0f 9e 42 a5 97 c8 3b
       129.86794 6e-45 79.03056 0.006121593
0000b0 c5 90 06 43 04 00 00 00 04 00 00 00 38 58 91 43
       134.5655 6e-45 6e-45 290.6892
0000c0 7e b3 7b 0d e5 e9 03 3c b5 cc e8 0c 04 00 00 00
       7.7561402e-31 0.00805137 3.5868463e-31 6e-45
0000d0 df b4 9e 41 db 0a 7e 3c 04 00 00 00 f2 60 53 44
       19.838316 0.015505518 6e-45 845.5148
0000e0 04 00 00 00 e7 39 a2 42 04 00 00 00 45 b0 30 42
       6e-45 81.11309 6e-45 44.17214
0000f0 04 00 00 00 04 00 00 00 c9 e2 6a 3c 92 5b db 42
       6e-45 6e-45 0.014336296 109.67885
000100 3e ce 2e 43 2a bb 1f 44 1c f5 07 42 14 f4 11 3d
       174.80563 638.92444 33.989365 0.03563316
000110 8c 58 4c 3b 37 6a a7 3b 91 ac b1 42 16 a6 1a 3a
       0.0031180708 0.0051090973 88.83704 0.00058993825
000120 15 99 9d 3b 7b 92 13 43 4c 0d 38 3a aa b1 f8 3c
       0.0048095086 147.57219 0.00070210244 0.030358154
000130 c5 76 44 0f 51 d0 9e 3c 04 00 00 00 04 00 00 00
       9.68642e-30 0.019386442 6e-45 6e-45
000140 f0 46 19 3d d5 18 32 43 cb b3 cc 0f 04 00 00 00
       0.037421167 178.097 2.0185207e-29 6e-45
000150 78 7c 2f 3a 39 a9 b2 41 9e 2b c6 3c 04 00 00 00
       0.00066942675 22.332628 0.02419072 6e-45
000160 04 00 00 00 04 00 00 00 66 01 aa 42 dd 75 62 43
       6e-45 6e-45 85.00273 226.4604
000170 26 21 96 3b 81 c7 15 43 ec ee 9b 42 5f 29 4c 3c
       0.0045815883 149.77931 77.966644 0.0124610355
000180 04 00 00 00 85 07 5d 3b ec 49 b0 42 3a a7 72 42
       6e-45 0.0033726406 88.14438 60.663307
000190 cb 35 e2 3c 77 8c 83 41 87 89 97 3b 4c c5 9f 42
       0.027613541 16.443586 0.004624549 79.885345
0001a0 2b f1 1e 43 ba 22 62 42 ab 97 21 42 52 20 48 43
       158.94206 56.533913 40.398113 200.12625
0001b0 04 00 00 00 d7 60 ad 3b f7 a0 d5 46 25 03 2b 43
       6e-45 0.005291085 27344.482 171.01228
0001c0 8e b3 33 3b 56 e6 1e 3c 04 00 00 00 45 ba 5e 3b
       0.0027420255 0.009698471 6e-45 0.0033985537
0001d0 cb 73 e2 3b f4 33 21 43 35 bc 66 43 da ca c0 3c
       0.0069107763 161.20294 230.73518 0.023534227
0001e0 04 00 00 00 7e ad 2e 41 42 5c 4d 43 04 00 00 00
       6e-45 10.9173565 205.36038 6e-45
0001f0 04 00 00 00 04 00 00 00 fd 5e 35 42 14 8e f2 41
       6e-45 6e-45 45.342762 30.319374

layers.3.weight f4 [1, 128]
000000 eb 6f 30 3e ed 32 65 be 69 80 bf bd f0 b9 ad 3c
       0.17230193 -0.22382708 -0.09350664 0.021206826
000010 ba 2c 98 3d bb b2 59 3c 98 7d 53 be 4f 8a 4f bd
       0.07430406 0.013287242 -0.20653379 -0.05066901
000020 0a 17 46 be 99 a6 0d be 3b 4c b0 bd 59 9f a9 3e
       -0.19344726 -0.13833083 -0.0860829 0.33129385
000030 db 13 a2 3e f1 af e0 3d fb 0d 12 be cc 17 fe 3f
       0.31655774 0.10971058 -0.14263146 1.9851012
000040 f0 fa c3 be 18 6d af bd 85 34 ba bd 2a 53 8d 3d
       -0.38277388 -0.0856573 -0.090920486 0.06900628
000050 89 3b 08 be 53 ab a8 3d 09 28 74 bc f7 28 17 be
       -0.13303961 0.082358025 -0.014902123 -0.1476172
000060 67 46 f7 bc 62 78 c8 bd 5e 5b 92 bd 3e 80 46 bd
       -0.030184938 -0.09788586 -0.07146333 -0.048462145
000070 0a ec 07 3d 2d 30 94 be 0a 15 56 3d e2 59 2b bc
       0.03318409 -0.28943005 0.05226616 -0.010458441
000080 c3 2e 6b be ba 8e 62 3d 7b 8e ee be d8 cb 28 be
       -0.22967057 0.055311896 -0.4659308 -0.1648401
000090 5a ed 4f be 3b df 14 3d ec 79 ac bc f7 d9 64 be
       -0.20305386 0.0363457 -0.02105423 -0.22348772
0000a0 26 a9 ad 3d 61 d9 cc 3e d8 05 bc 3d c3 24 67 bd
       0.08479528 0.40009597 0.09180802 -0.056431543
0000b0 f0 8b 0b 3d fc 2c d3 3d 48 db 9b 3c 28 33 b0 bc
       0.034069 0.103113145 0.01902546 -0.021508768
0000c0 68 3c b8 bc 1b 35 0b be 6f 95 43 3e 1f 92 6f be
       -0.022489741 -0.13594477 0.19099973 -0.23395585
0000d0 61 0a 61 be fd 67 c3 be 56 13 26 bd b3 32 fb 3e
       -0.21976615 -0.38165274 -0.040545784 0.49062118
0000e0 09 13 cb 3d 55 8e 3a bb f6 d7 2b be 58 de cc 3b
       0.0991574 -0.0028466184 -0.16781601 0.0062520914
0000f0 0e 29 5f bd ae f0 35 3d 05 e3 b0 be 9d b8 8c bd
       -0.054482512 0.044418983 -0.34548202 -0.0687115
000100 71 f0 b8 3c 2f 9a 82 bf a0 4c 9a be 22 bb 1a be
       0.022575589 -1.0203303 -0.30136585 -0.15110448
000110 8d 35 32 be 41 76 7a be ae 5e bc bc 92 d8 2a ba
       -0.1740324 -0.24459173 -0.022994366 -0.0006517257
000120 4f 63 a9 3d 3c 7b 93 bc 7a 70 40 3e 73 a0 2d 3d
       0.08270895 -0.018003099 0.18792906 0.042389344
000130 4c a7 26 3d 94 36 9c 3e da 6b 35 bd 1b 32 2e 3d
       0.04068689 0.3051039 -0.04429231 0.042528253
000140 5f 8f ca 3c a6 90 24 be 36 c3 14 3d 88 d6 8b be
       0.024726568 -0.16070804 0.03631898 -0.27312112
000150 57 af 3e bd 2c 57 e3 3e 6a f2 7d 3e e5 65 6d bc
       -0.046553936 0.44402444 0.24799505 -0.014489626
000160 33 32 03 3f 58 a3 b9 bd 24 53 f1 3d 94 a9 f8 3d
       0.5124847 -0.090643585 0.11783436 0.121417195
000170 cf ec e1 bc 71 70 68 3e 4a 2a 1e be 37 11 83 3e
       -0.02757874 0.22699143 -0.1544582 0.2559907
000180 14 80 e1 3d 46 17 bd 3b 15 66 10 be 24 c6 e7 bd
       0.11010757 0.0057705967 -0.14101441 -0.11317089
000190 dc 00 0f bd ba f3 80 3e a2 0e 36 be 26 2f 56 3e
       -0.03491293 0.2518595 -0.1777902 0.20916423
0001a0 ce cf 6a be 91 97 e3 be 4c a3 83 be 95 44 36 be
       -0.22930834 -0.44451573 -0.25710523 -0.177996
0001b0 81 e5 36 3d 39 a9 6d 3d f5 cd 8b be e7 81 a6 3c
       0.044652466 0.05802271 -0.2730557 0.020325614
0001c0 27 c8 67 3e 57 e9 26 3e 82 3b d0 bc 80 e7 31 bd
       0.22634946 0.1629995 -0.025419 -0.043433666
0001d0 3d 51 ab bd 7c 23 2a be 4d 24 50 bd 74 ff 71 bd
       -0.08365104 -0.16615099 -0.05081587 -0.05908151
0001e0 e0 48 6d be e2 23 82 be e1 c1 0f be bb 8f c3 3d
       -0.23172331 -0.25418 -0.14038803 0.09548899
0001f0 79 b9 18 3d f5 08 e5 3b 25 ba 35 3e 97 52 d6 bd
       0.037286256 0.006989593 0.1774679 -0.104649715
